experiment_outputs/feat_norm_outputs/2/featNPO_Th_none_unfreeze_augment.model (torch_old, 109506 bytes, 62 tensors)

nested_model.unit1.conv.weight f4 [12, 3, 5, 5]
000000 67 a4 30 3e e7 6f 83 3e 6b 49 8e 3d c6 ed 18 3e
       0.17250215 0.25671312 0.06947597 0.14934453
000010 ee bc af bd d6 92 d0 3d f8 79 89 be 9b 81 40 3d
       -0.08580957 0.10184257 -0.26850867 0.0469986
000020 c5 0a 88 3e 66 d5 79 bd b7 92 18 3e a5 a5 b9 3d
       0.26570717 -0.06099453 0.14899717 0.09064797
000030 7f 5a 3d be e1 cd 61 be 04 3a 97 be 41 51 62 bd
       -0.18491553 -0.22051193 -0.2953645 -0.05525327
000040 aa 34 53 3e b8 2d a2 be cc b8 9a bd cc 4a d0 3c
       0.20625558 -0.31675506 -0.075547785 0.02542629
000050 6d a5 ef bc cb 64 53 bb 20 38 45 3c b4 97 fa bc
       -0.029253686 -0.0032256122 0.012037307 -0.030589916
000060 08 89 09 bd 21 2f 4f be 3b c3 8f 3d d6 50 15 be
       -0.03357795 -0.20232822 0.07019659 -0.14581618
000070 62 c6 3e 3e f3 a0 e5 3d c5 30 17 bd ca 4f d7 be
       0.18630365 0.11212339 -0.036911745 -0.42053062
000080 79 a8 23 3e ec b6 98 3e 1a dd 7c 3b f5 d8 b6 3d
       0.15982236 0.29827058 0.0038583935 0.089281
000090 c6 dc 12 3e b5 f3 33 bc 0b fb 9e bc f7 99 60 bb
       0.14342031 -0.010983397 -0.019406816 -0.0034271458
0000a0 88 4d 39 be 5f a9 e7 3d 5b 86 41 be 12 02 04 3e
       -0.18095982 0.11311602 -0.18898909 0.12891415
0000b0 5a cd cc 3d 4a fc 5e bd c9 2d bb bd bd 95 81 3d
       0.10000105 -0.05443982 -0.09139592 0.063273884
0000c0 77 c0 19 3d 0d 82 c0 bd 60 73 da bd 45 5b 9a bd
       0.037537064 -0.09399805 -0.10666537 -0.075369395
0000d0 85 14 1a be 3f 23 96 bd f4 94 1c be 3a ac 93 3d
       -0.1504689 -0.073309414 -0.15291196 0.07210584
0000e0 c9 17 e6 be 75 b9 a0 3d 51 eb c6 3e dc 44 69 3d
       -0.44940022 0.07847873 0.38851407 0.056950435
0000f0 ca 6a e6 3d 18 09 d0 3c e2 3b 77 bd 76 b7 26 3e
       0.11250837 0.025394961 -0.060359843 0.16280922
000100 eb a1 c5 bd e2 61 c2 bd d3 41 8c 3e c5 f6 ee bd
       -0.09650024 -0.09491326 0.2739397 -0.11668161
000110 d3 39 e1 3d ae 67 bd 3c 61 f5 b3 3d 32 68 03 bd
       0.10997357 0.023120727 0.08787037 -0.03208179
000120 4b 2f da 3b 41 83 1a 3e c3 46 a3 3c 7f 38 fc 3d
       0.00665847 0.15089132 0.019931203 0.12315463
000130 1a c0 6c 3e c7 b9 ad 3d 0a 2d de 3d 4b 8f e3 3b
       0.23120156 0.084827 0.10848434 0.006944572
000140 2d f1 85 bd cd 72 0e 3e e0 ce e8 3d 71 4d 25 be
       -0.06540141 0.1391098 0.11367583 -0.16142823
000150 4b 76 13 bd 54 0f c7 bd bc 57 38 3e 0a 3b 78 bd
       -0.036001485 -0.097197205 0.18002218 -0.06060318
000160 6f b8 88 be 62 1b 22 be 40 b6 56 3c f0 36 39 3e
       -0.26703212 -0.15830758 0.013104975 0.18087363
000170 97 bb 13 3d d3 5a 07 3d 80 50 86 3c f5 39 a2 bd
       0.03606757 0.0330456 0.016395807 -0.07921211
000180 3b f6 45 3e cf 58 3a 3e 30 ef 6d 3d 7b 32 21 3d
       0.1933221 0.1819794 0.058089435 0.039354783
000190 2d 15 d7 3b 7d 49 b1 3d bf 22 f0 bd b1 f8 b5 be
       0.0065638036 0.08656595 -0.11725377 -0.355413
0001a0 b0 5b 87 be 44 e0 6d 3d f9 38 9d 3d c3 cf 07 be
       -0.2643714 0.058075204 0.07676882 -0.13262849
0001b0 e4 b2 29 be a6 46 2b be 2a e7 1e bd fd af 5f 3e
       -0.16572148 -0.16726169 -0.038794674 0.21844478
0001c0 59 b1 4a 3d 87 73 b8 be aa 70 45 be 1d 71 cb 3c
       0.04948554 -0.3602564 -0.19281259 0.02483421
0001d0 d2 99 e8 3d 34 5a 20 3c 09 be 75 be a1 27 2c be
       0.11357464 0.009787131 -0.23998274 -0.16811992
0001e0 a3 6d 80 3c a4 55 b5 3d c0 3e 43 bd c4 c7 78 bd
       0.015677279 0.08854225 -0.047667265 -0.060737386
0001f0 0d e2 3d bd 17 93 84 3c 1f 1c 18 3e ed 3a 06 be
       -0.046358157 0.01618342 0.14854477 -0.13108416
000200 f5 1b 5f be 0a 03 fb bd d6 cf 00 3e d0 10 32 3e
       -0.21788009 -0.12256439 0.12579283 0.17389226
000210 bb e8 34 3d 9b 95 2d be 4e ff 92 3d b3 d3 3f 3d
       0.04416726 -0.16951601 0.07177602 0.04683275
000220 92 11 33 3e 25 c3 80 3d 9d 38 66 be 94 93 c8 bd
       0.17487171 0.06287221 -0.22482534 -0.09793773
000230 13 06 af bd 69 6d 74 3e b0 df 1c 3e 82 d6 e3 bd
       -0.085460804 0.23869862 0.15319705 -0.111248985
000240 57 64 0a bc 9a 49 f3 3d 50 61 e6 3d c2 55 97 3d
       -0.008446774 0.11879273 0.1124903 0.07389404
000250 8c 40 dc 3c f8 c3 9e bd 3e 48 87 3c 61 3d 5e 3e
       0.026886247 -0.07752222 0.01651394 0.21703102
000260 a3 df 43 3e a6 a3 9e 3d 3d 2e 2b 3e 0f de 6f 3d
       0.1912828 0.07746057 0.16716857 0.05856138
000270 f7 e8 54 3e b0 68 3e 3e 04 32 f2 3d 0a 6f 05 3d
       0.20791994 0.18594623 0.11825946 0.0325766
000280 45 63 35 3e 5c 72 ca bd c9 61 bd be 7f d8 d9 3d
       0.1771365 -0.098850936 -0.36988667 0.106369965
000290 18 66 2d 3d f3 3c 2d 3c c2 52 82 bd f6 74 8c be
       0.042333692 0.010573613 -0.06363441 -0.27432984
0002a0 46 90 64 be 38 d7 27 be 69 84 26 3c 48 e4 d3 bd
       -0.22320661 -0.16390693 0.010163405 -0.103462756
0002b0 55 d1 41 bd 59 b8 a1 3c 08 4b c0 bd 12 5d c8 bc
       -0.047318775 0.019741224 -0.09389311 -0.024458442
0002c0 6b 0b 46 3e fd f4 9c 3c 5c 98 22 bd 98 f2 a6 3b
       0.19340293 0.019159788 -0.039696082 0.0050948374
0002d0 3b c1 24 3e 3d 50 e1 3d 68 03 1f 3e c1 2b 50 3c
       0.16089337 0.11001632 0.15528643 0.012705744
0002e0 b8 45 02 be 08 9d 7c 3e 8e 3e 82 bd 72 10 e2 be
       -0.12721908 0.24669278 -0.063595876 -0.44153172
0002f0 f8 61 a0 3d df 7c b9 bd f6 1c ae bc 48 81 1d be
       0.07831186 -0.090570204 -0.021254044 -0.15381348
000300 45 cc 68 be 6e 78 59 bd 13 08 0b 3d f5 d3 bb 3c
       -0.22734173 -0.053093366 0.033943247 0.022928217
000310 07 9c 95 bc 7d e7 1b be 70 fe ec 3d fd 9e 91 3d
       -0.018262876 -0.15225025 0.115719676 0.07110403
000320 57 14 91 bd bb 49 86 bd 5d 70 b6 be b5 0a 4d be
       -0.07083958 -0.06557032 -0.356326 -0.20023616
000330 9d bc e5 bd c5 b7 04 bd e8 6d f7 bc 7b 3c e5 3c
       -0.11217616 -0.03240182 -0.030203775 0.02798294
000340 b4 b7 d0 bd da 6b 7d bd 75 58 44 3e 4f b6 82 3d
       -0.101912886 -0.061870433 0.19174369 0.06382429
000350 55 bd 23 be 97 ab 84 3e d8 56 29 bb 73 9a c1 bc
       -0.15990193 0.25912163 -0.0025839116 -0.023633217
000360 12 c6 ba 3c 95 c1 0c 3b bb 46 c8 3d ea f2 e9 3d
       0.022799525 0.0021477689 0.09779116 0.11423285
000370 bd 18 36 3d 1d d7 c3 bb aa fd 0e 3e 48 de 26 3e
       0.044457186 -0.0059765712 0.13963953 0.16295731
000380 bb 25 b1 3d 86 99 07 be d7 86 44 3d c9 c5 3f be
       0.08649775 -0.13242158 0.047980156 -0.18727793
000390 80 6b 88 be 9b b5 62 be f3 a4 2a bd 42 a0 cb 3c
       -0.26644516 -0.2213959 -0.041661214 0.02485669
0003a0 61 e9 6b 3e d3 16 d6 3d f6 9d 51 3c 27 9f 45 bd
       0.23038246 0.10453572 0.0127940085 -0.048247483
0003b0 16 ec 18 be bd 8d f4 3d 8c ad 9f 3d 94 1e 15 3d
       -0.1493381 0.11941097 0.07796773 0.036406115
0003c0 91 5f 2b be bb 39 e3 bd 13 24 e8 3c b3 8e fa 3d
       -0.16735674 -0.110949956 0.028337514 0.12234249
0003d0 24 74 10 3e 2f 6d a7 3d 8a f4 ee 3d 02 d4 b4 3d
       0.14106804 0.08175122 0.11667736 0.088295
0003e0 86 a6 71 3d 9e 23 b4 3d 05 a0 b4 3d 5f 2f 3b 3e
       0.0589967 0.08795856 0.08819584 0.1827979
0003f0 41 3a 0b 3e ab 4c 8c 3d 0f 2b 8f 3c 93 e4 99 bd
       0.13596441 0.06850561 0.017476587 -0.075143

nested_model.unit1.conv.bias f4 [12]
000000 78 0a 6c 39 8b a6 94 b6 96 10 2a 39 b6 bd 42 b8
       0.00022510614 -4.430132e-06 0.00016218642 -4.6429886e-05
000010 5c 99 9b b7 d2 7a e8 35 b5 fc ae 37 81 8b 69 37
       -1.8548853e-05 1.7321092e-06 2.0860092e-05 1.3920363e-05
000020 af 57 f8 36 f3 54 19 35 33 b4 55 36 02 c3 72 b6
       7.4011837e-06 5.712056e-07 3.1844363e-06 -3.617432e-06

nested_model.unit1.bn.weight f4 [12]
000000 0a 67 87 3f 2e 7e 08 3f b9 d2 66 3f 82 85 27 3f
       1.057832 0.53317535 0.9016529 0.6543809
000010 5e 7c 0d 3f 9d a5 52 3e 4d 9b fe 3e 05 58 42 3f
       0.55267894 0.20570989 0.4972786 0.7591556
000020 35 52 27 3f 80 ad 96 3e 7d 08 e4 3e 51 b5 19 3f
       0.6535981 0.29429245 0.44537726 0.6004229

nested_model.unit1.bn.bias f4 [12]
000000 d8 6a 83 3f 02 2f 52 be 0c ba 9c 3e 7c 06 52 3e
       1.0266981 -0.20525745 0.30610693 0.20510286
000010 99 79 19 be f3 b8 94 3d 1a 17 a3 3d 18 d1 7a 3e
       -0.14987792 0.07261839 0.07963391 0.24493825
000020 a0 e5 91 3d 0b 9d 0a be 50 8c 9f bd 07 ba 67 be
       0.071238756 -0.1353647 -0.07790434 -0.22629558

nested_model.unit1.bn.running_mean f4 [12]
000000 d2 e5 e3 3c e1 99 2f be 8f 74 78 bc 72 37 ab bc
       0.027819548 -0.17148544 -0.0151645085 -0.020900462
000010 24 9f 51 3e 70 15 52 3f 5d d9 06 be 4b 8e 4f bc
       0.20470864 0.8206396 -0.13168855 -0.012668203
000020 ff b5 8d 3c 89 8f 16 3f 76 04 42 be 8e 22 b3 bf
       0.017298697 0.5881277 -0.18947014 -1.399492

nested_model.unit1.bn.running_var f4 [12]
000000 8c 28 06 3d 24 2f a8 3e 06 dc 82 3d b5 87 e5 3d
       0.032753512 0.32848465 0.063896224 0.11207525
000010 de b3 fc 3d fe 13 fe 3e 76 a0 ab 3d 77 95 f7 3d
       0.123389944 0.49624628 0.08380215 0.12089055
000020 e4 f1 88 3e 4c 1f 9a 3e 14 d0 c0 3d 8a 83 62 3f
       0.26747048 0.30102003 0.09414688 0.8848196

nested_model.unit2.conv.weight f4 [12, 12, 5, 5]
000000 49 1f 00 80 33 5e 00 00 f9 8d 00 00 05 16 00 00
       -1.1223e-41 3.3792e-41 5.093e-41 7.899e-42
000010 a1 86 00 00 d3 2d 00 80 57 07 00 00 4b 7f 00 00
       4.8296e-41 -1.6439e-41 2.633e-42 4.5664e-41
000020 e5 5a 00 80 87 42 00 00 dd 8c 00 00 ea 0e 00 00
       -3.2607e-41 2.3866e-41 5.0532e-41 5.35e-42
000030 2b 15 00 00 77 4f 00 00 0f 69 00 80 f5 ab 00 00
       7.594e-42 2.8507e-41 -3.7688e-41 6.1687e-41
000040 16 90 00 00 1d 82 00 80 87 78 00 00 89 28 00 00
       5.1688e-41 -4.6676e-41 4.3237e-41 1.4541e-41
000050 7f ab 00 80 7a 09 00 00 38 26 00 00 24 56 00 00
       -6.1521e-41 3.4e-42 1.371e-41 3.0901e-41
000060 d7 82 00 80 fb 81 00 00 66 25 00 00 fb 6f 00 00
       -4.6936e-41 4.6628e-41 1.3416e-41 4.0171e-41
000070 b0 00 00 00 af 82 00 00 81 00 00 00 55 6d 00 00
       2.47e-43 4.688e-41 1.81e-43 3.9221e-41
000080 a1 2c 00 00 f4 4e 00 80 2a 49 00 00 cc 37 00 00
       1.601e-41 -2.8323e-41 2.6246e-41 2.0016e-41
000090 ea 76 00 80 2f 24 00 00 df 51 00 80 5b 61 00 00
       -4.2658e-41 1.298e-41 -2.937e-41 3.4925e-41
0000a0 f3 84 00 80 7f 59 00 80 0c 94 00 80 6a 17 00 80
       -4.7693e-41 -3.2105e-41 -5.3109e-41 -8.4e-42
0000b0 fa 4e 00 00 24 86 00 80 d4 96 00 00 fc 4b 00 00
       2.8331e-41 -4.812e-41 5.4107e-41 2.7258e-41
0000c0 84 4e 00 80 44 1d 00 00 c0 42 00 80 f9 6c 00 00
       -2.8166e-41 1.0499e-41 -2.3945e-41 3.9092e-41
0000d0 6f 7f 00 80 65 51 00 00 c2 74 00 00 c5 94 00 80
       -4.5715e-41 2.9199e-41 4.1885e-41 -5.3368e-41
0000e0 c2 af 00 80 03 79 00 80 50 83 00 00 ce a1 00 80
       -6.305e-41 -4.3411e-41 4.7106e-41 -5.8045e-41
0000f0 4d 89 00 80 e8 74 00 00 6e 6c 00 00 ec 48 00 80
       -4.9254e-41 4.1938e-41 3.8897e-41 -2.616e-41
000100 8b 7c 00 00 21 9a 00 80 7d 62 00 80 a6 62 00 80
       4.4678e-41 -5.5291e-41 -3.5331e-41 -3.5388e-41
000110 09 15 00 00 29 68 00 00 0d 99 00 00 98 87 00 00
       7.546e-42 3.7366e-41 5.4904e-41 4.8642e-41
000120 1b 4c 00 00 97 5a 00 00 da 13 00 80 63 89 00 80
       2.7301e-41 3.2498e-41 -7.121e-42 -4.9285e-41
000130 e6 1b 00 00 11 2a 00 00 04 40 00 80 e7 65 00 00
       1.0008e-41 1.509e-41 -2.2964e-41 3.6556e-41
000140 fe 45 00 80 4e 84 00 80 2a 70 00 80 c6 32 00 00
       -2.5108e-41 -4.7462e-41 -4.0237e-41 1.8214e-41
000150 22 33 00 00 a5 0f 00 00 4e 09 00 80 e3 85 00 00
       1.8343e-41 5.612e-42 -3.338e-42 4.803e-41
000160 39 8b 00 80 01 55 00 80 00 92 00 00 18 1b 00 00
       -4.9944e-41 -3.0494e-41 5.2375e-41 9.72e-42
000170 83 3a 00 80 1e 58 00 00 74 51 00 80 e8 94 00 80
       -2.099e-41 3.161e-41 -2.922e-41 -5.3417e-41
000180 ec 59 00 00 bb 7f 00 80 9c 61 00 80 2c 2f 00 80
       3.2258e-41 -4.5821e-41 -3.5016e-41 -1.6922e-41
000190 24 03 00 80 a8 28 00 00 90 a2 00 00 57 a0 00 80
       -1.127e-42 1.4585e-41 5.8316e-41 -5.7519e-41
0001a0 e7 13 00 80 bc 28 00 00 26 42 00 00 bd 0a 00 80
       -7.14e-42 1.4613e-41 2.373e-41 -3.852e-42
0001b0 9c 13 00 00 1c 04 00 80 bb 70 00 00 7f 0e 00 80
       7.035e-42 -1.474e-42 4.044e-41 -5.2e-42
0001c0 4b 55 00 00 23 1a 00 80 a8 73 00 80 bc ab 00 80
       3.0597e-41 -9.376e-42 -4.149e-41 -6.1607e-41
0001d0 0d 54 00 00 09 5d 00 00 7d 10 00 80 3f 4c 00 80
       3.0152e-41 3.3375e-41 -5.915e-42 -2.7352e-41
0001e0 b5 5c 00 80 14 8f 00 00 d6 36 00 00 91 a6 00 00
       -3.3257e-41 5.1327e-41 1.9671e-41 5.9753e-41
0001f0 e7 71 00 00 d3 73 00 00 db 1f 00 80 d5 9e 00 00
       4.086e-41 4.155e-41 -1.1428e-41 5.6978e-41
000200 a8 07 00 80 25 09 00 00 b0 66 00 80 3a 68 00 80
       -2.747e-42 3.28e-42 -3.6837e-41 -3.739e-41
000210 00 06 00 00 f2 7e 00 80 1e 48 00 80 b8 65 00 00
       2.152e-42 -4.554e-41 -2.5871e-41 3.649e-41
000220 bc 7c 00 80 8e a9 00 80 82 9d 00 80 2d 27 00 80
       -4.4746e-41 -6.0825e-41 -5.6503e-41 -1.4054e-41
000230 af 74 00 00 2d a0 00 00 3f 01 00 00 e8 5f 00 00
       4.1858e-41 5.746e-41 4.47e-43 3.4405e-41
000240 90 18 00 80 36 ad 00 80 4e 28 00 80 d2 73 00 00
       -8.811e-42 -6.2136e-41 -1.4459e-41 4.1548e-41
000250 78 5d 00 00 be aa 00 00 49 4c 00 00 a5 45 00 80
       3.353e-41 6.1251e-41 2.7366e-41 -2.4984e-41
000260 c4 9a 00 00 99 8a 00 00 5b 97 00 80 ae 22 00 00
       5.552e-41 4.972e-41 -5.4296e-41 1.2441e-41
000270 ea 73 00 00 46 af 00 00 6c 7a 00 00 1c ae 00 80
       4.1582e-41 6.2876e-41 4.3917e-41 -6.2459e-41
000280 70 12 00 80 10 73 00 00 7d 62 00 80 a7 06 00 00
       -6.614e-42 4.1277e-41 -3.5331e-41 2.386e-42
000290 dc 0d 00 00 c3 61 00 00 3a a6 00 80 f3 02 00 80
       4.972e-42 3.507e-41 -5.9631e-41 -1.058e-42
0002a0 71 7a 00 80 4b 18 00 00 2f 46 00 80 ee ac 00 80
       -4.3924e-41 8.715e-42 -2.5177e-41 -6.2035e-41
0002b0 9f 66 00 80 5b 54 00 80 cb 1a 00 80 dc 79 00 00
       -3.6814e-41 -3.0261e-41 -9.612e-42 4.3715e-41
0002c0 c9 06 00 80 d4 2b 00 00 38 19 00 80 33 4f 00 00
       -2.434e-42 1.5723e-41 -9.047e-42 2.8411e-41
0002d0 9c 6b 00 00 cf 18 00 80 6b 7d 00 80 18 1b 00 00
       3.8603e-41 -8.9e-42 -4.4991e-41 9.72e-42
0002e0 43 80 00 00 3b 9e 00 80 92 06 00 80 6f 22 00 80
       4.6012e-41 -5.6762e-41 -2.357e-42 -1.2352e-41
0002f0 26 61 00 80 86 04 00 80 28 82 00 80 cc 50 00 00
       -3.485e-41 -1.623e-42 -4.6691e-41 2.8984e-41
000300 86 5b 00 80 6c 45 00 00 c8 39 00 00 c0 03 00 80
       -3.2832e-41 2.4904e-41 2.0728e-41 -1.345e-42
000310 e5 35 00 80 41 8d 00 80 c6 6f 00 80 e7 20 00 80
       -1.9334e-41 -5.0672e-41 -4.0097e-41 -1.1803e-41
000320 f6 0e 00 80 fa 86 00 00 de 5b 00 80 f8 31 00 80
       -5.367e-42 4.842e-41 -3.2956e-41 -1.7925e-41
000330 e5 58 00 80 f3 69 00 00 33 13 00 80 52 a3 00 00
       -3.189e-41 3.8007e-41 -6.887e-42 5.8588e-41
000340 6d 1a 00 00 39 8a 00 00 03 1c 00 80 66 38 00 80
       9.48e-42 4.9585e-41 -1.0049e-41 -2.0232e-41
000350 87 81 00 80 c8 44 00 00 76 71 00 00 ec 6a 00 00
       -4.6466e-41 2.4674e-41 4.0702e-41 3.8356e-41
000360 5e 4f 00 80 5e 94 00 80 d2 0e 00 00 54 29 00 80
       -2.8472e-41 -5.3224e-41 5.317e-42 -1.4826e-41
000370 73 5e 00 80 52 60 00 80 db 21 00 00 63 17 00 80
       -3.3882e-41 -3.4553e-41 1.2145e-41 -8.39e-42
000380 09 63 00 00 bf 29 00 00 1d 14 00 80 73 7a 00 00
       3.5527e-41 1.4976e-41 -7.215e-42 4.3927e-41
000390 66 57 00 80 1b 50 00 00 c0 6a 00 80 6c 17 00 80
       -3.1353e-41 2.8736e-41 -3.8295e-41 -8.402e-42
0003a0 6b 9b 00 80 d7 61 00 00 01 0f 00 80 12 1b 00 00
       -5.5753e-41 3.5098e-41 -5.382e-42 9.711e-42
0003b0 16 98 00 00 3f 24 00 00 6b 28 00 00 74 8d 00 00
       5.4558e-41 1.3003e-41 1.4499e-41 5.0744e-41
0003c0 08 ad 00 80 f9 4e 00 00 db 77 00 00 56 80 00 00
       -6.2072e-41 2.833e-41 4.2996e-41 4.6038e-41
0003d0 82 0f 00 80 65 07 00 80 92 75 00 00 96 6e 00 80
       -5.563e-42 -2.653e-42 4.2176e-41 -3.9671e-41
0003e0 1c 2c 00 00 cd 33 00 00 34 59 00 80 a5 27 00 00
       1.5823e-41 1.8583e-41 -3.2e-41 1.4222e-41
0003f0 67 ae 00 00 5e 5d 00 80 87 4a 00 00 ae 00 00 80
       6.2564e-41 -3.3494e-41 2.6735e-41 -2.44e-43

nested_model.unit2.conv.bias f4 [12]
000000 c4 93 00 80 09 c4 ff b5 04 01 a7 36 b8 be d0 b6
       -5.3008e-41 -1.9056034e-06 4.977106e-06 -6.2210856e-06
000010 02 7a c6 35 a8 95 8f b6 4b 61 95 36 e4 8f 1f b6
       1.4787659e-06 -4.2791544e-06 4.4518724e-06 -2.3776602e-06
000020 66 81 a8 36 11 17 31 b6 18 1b 2f 37 0a 90 0b 36
       5.021854e-06 -2.6388482e-06 1.0437121e-05 2.0796456e-06

nested_model.unit2.bn.weight f4 [12]
000000 3f 42 48 b8 45 5e bc 3e 42 ee 88 3e f2 01 3e 3f
       -4.7745412e-05 0.36790672 0.26744276 0.7422172
000010 e1 9f df 3e aa 27 bb 3e b5 e1 fe 3e b3 81 b2 3e
       0.43676665 0.365537 0.49781576 0.34864578
000020 66 24 02 3f ed ad 8f 3e a9 9d a6 3e ee ce 27 3f
       0.5083679 0.28062382 0.3254216 0.65550125

nested_model.unit2.bn.bias f4 [12]
000000 37 10 84 b9 90 ce 5d be b9 18 35 be 1f f5 89 be
       -0.00025189083 -0.21660829 -0.17685212 -0.26944825
000010 93 75 38 be 7a 42 61 be d9 bb ea bd 4e 5f 33 be
       -0.18013601 -0.21998015 -0.1146161 -0.17516825
000020 24 b2 74 be 6f 60 fb bd 6a 8b 8d be 10 69 95 be
       -0.2389608 -0.122742526 -0.27645427 -0.2918172

nested_model.unit2.bn.running_mean f4 [12]
000000 88 39 02 00 fd 60 ff 3e 4f e4 92 be d3 74 8b bf
       2.0431e-40 0.49878684 -0.2868981 -1.0895027
000010 41 ca 90 bf c9 e3 cc bf 78 42 a3 bf df e7 35 bf
       -1.1311723 -1.6007015 -1.275466 -0.7105693
000020 60 09 5d bf 2f e1 02 c0 0e 1a 94 3f 5f 92 9c bf
       -0.8634243 -2.044994 1.1570451 -1.2232169

nested_model.unit2.bn.running_var f4 [12]
000000 04 00 00 00 ab 8d e8 3f 80 b9 f3 3f 3a 7b 98 40
       6e-45 1.8168234 1.9040985 4.7650423
000010 17 07 54 40 1f f6 1f 40 11 cb 54 40 7b c8 1a 40
       3.3129327 2.499397 3.3248942 2.4184864
000020 fb 88 05 40 ba 38 15 40 5a 1f e8 3f a3 db 9d 40
       2.0864856 2.3315873 1.8134568 4.933061

nested_model.unit3.conv.weight f4 [12, 12, 5, 5]
000000 b5 af 00 80 b9 02 00 80 7c 4a 00 00 23 32 00 80
       -6.3032e-41 -9.77e-43 2.672e-41 -1.7986e-41
000010 46 74 00 00 45 79 00 00 d2 49 00 80 90 1a 00 80
       4.1711e-41 4.3503e-41 -2.6482e-41 -9.529e-42
000020 39 02 00 00 1c 8d 00 00 51 36 00 80 77 35 00 80
       7.97e-43 5.062e-41 -1.9485e-41 -1.918e-41
000030 cf 4a 00 00 93 3a 00 80 30 80 00 00 52 4f 00 00
       2.6836e-41 -2.1012e-41 4.5985e-41 2.8455e-41
000040 32 4b 00 00 65 76 00 00 94 8f 00 80 08 9f 00 00
       2.6975e-41 4.2472e-41 -5.1506e-41 5.705e-41
000050 e2 2d 00 80 77 3b 00 80 0a 86 00 80 60 7c 00 80
       -1.646e-41 -2.1332e-41 -4.8084e-41 -4.4617e-41
000060 c4 2e 00 80 0a c6 9d 3d b2 f9 9c 3d 81 18 75 bb
       -1.6776e-41 0.077037886 0.07664813 -0.0037398639
000070 8e 70 cb bb b5 d0 5b 3e ce 23 ad 3d f6 59 0a 3e
       -0.006208486 0.21466334 0.08454095 0.1351088
000080 91 53 f2 bc 72 c3 28 3d 2b 7b 28 3e a6 3d d5 3c
       -0.029580863 0.041202016 0.16453235 0.026030373
000090 53 09 0f bd cf 77 57 be 97 1b 66 be 07 01 43 3d
       -0.034921 -0.21041797 -0.22471462 0.0476084
0000a0 66 2a e9 3c ee 8a 36 be 56 ec 86 be e4 75 83 be
       0.0284626 -0.17826435 -0.26352185 -0.2567588
0000b0 7d f6 e9 bc 00 d0 88 3e f4 01 18 3c c0 7c 67 be
       -0.028559918 0.2672119 0.009277809 -0.22606182
0000c0 f3 ab bf bd e2 48 20 3e eb d8 87 bc 52 b7 81 3d
       -0.093589686 0.15652803 -0.016582927 0.06333794
0000d0 50 ac e1 bc 75 ff 32 bd be 92 32 bc f4 bc 76 bd
       -0.027547985 -0.043700654 -0.010899244 -0.060238793
0000e0 b1 eb ba bd 8f 60 8d be ba 3b 49 be 70 2f 1b 3d
       -0.09126986 -0.2761273 -0.1965169 0.037887037
0000f0 4d c8 bc bd a1 00 48 be 29 e7 73 be 6b 52 a0 bd
       -0.09217892 -0.1953149 -0.2381865 -0.0782822
000100 95 27 69 bd 54 9f c9 bd 50 2d f2 bd 23 9a 38 be
       -0.056922514 -0.098448426 -0.11825049 -0.18027548
000110 03 b2 a5 bd e9 dc 26 be 20 2b 13 be 69 e3 04 be
       -0.08090594 -0.16295208 -0.1437192 -0.12977375
000120 c5 fc 0f be ad 13 15 be 1c be 61 be dc 5e dc bd
       -0.14061268 -0.14558287 -0.22045177 -0.107602805
000130 4d 3a 16 bd 2c 16 9d be 8c ff 2c be 33 5e 05 be
       -0.036676694 -0.30680978 -0.16894358 -0.13024215
000140 d7 af 9d 3d 08 b5 fa bc 19 2d 12 be c9 5b 92 bd
       0.076995544 -0.0306039 -0.14275016 -0.07146413
000150 09 c2 9b bd 16 45 19 3e 9b 57 b4 3d 33 92 a4 3a
       -0.07605369 0.1496776 0.08805772 0.0012555778
000160 12 f4 81 3d f5 7e 28 3d 0b fe ac ba b4 7c 33 3d
       0.06345381 0.0411367 -0.0013198269 0.043820098
000170 7c c4 7e 3d 9e 1c 08 bc 67 38 c4 3d 10 81 40 3c
       0.0621991 -0.008307604 0.095810704 0.011749521
000180 c0 2b 55 bb 33 4f 10 bd a5 7e 75 3d ed 57 31 3e
       -0.0032527298 -0.03523178 0.05993523 0.17318697
000190 d5 b9 fd bc 2f c2 df 3d 2a 97 78 3d 5e 16 1b bd
       -0.0309724 0.109257095 0.060691036 -0.037863128
0001a0 e8 b1 49 3e b3 71 1b be 65 64 27 bd 93 df fd bd
       0.19696772 -0.15180092 -0.040867228 -0.12396159
0001b0 2d 09 50 be f9 58 fe 3b 07 2b 39 3e 2b 19 83 3e
       -0.20316 0.007762071 0.1808282 0.2560514
0001c0 a7 89 5a 3e c8 20 ac 3c 86 29 1d 3d ad 17 dc 3d
       0.21341573 0.021011725 0.038369678 0.10746703
0001d0 8f 10 3c 3d d9 cb 45 3d 7d b6 86 3d 84 71 8b bc
       0.04591423 0.048290107 0.065777756 -0.017021902
0001e0 30 01 1f 3e ec 9c 13 3e 0d 2c d2 3d bb 72 aa 3d
       0.15527797 0.1441533 0.10262308 0.08322664
0001f0 e0 48 f9 bd 48 e9 73 be 4d ff 00 be 08 9c 14 be
       -0.12172103 -0.23819458 -0.1259739 -0.14512646
000200 f7 e9 57 bc cf 8f 5b 3d 4a 0b 91 be 92 7f 22 be
       -0.01317834 0.053603943 -0.28328925 -0.15868977
000210 58 a6 1e be c0 4d 34 bd b0 a8 d8 3d c8 a0 e6 be
       -0.15493143 -0.04401946 0.105790496 -0.4504454
000220 a1 61 b6 be e7 85 19 be 33 48 18 be 8d af ad 3d
       -0.3562136 -0.14992486 -0.14871292 0.08480749
000230 06 24 6b bd 37 63 58 bd 8b 0f ca bd b0 8d 94 bc
       -0.0574074 -0.052828994 -0.09866246 -0.018133968
000240 68 b0 9e bd e3 62 a4 bd c5 28 5d 3d 5b 7a cf 3b
       -0.077484906 -0.08026674 0.05399396 0.0063317246
000250 57 7e ad 3d c5 3a e8 bc 20 2c 9c 3d 1c 31 2e 3e
       0.08471363 -0.028348336 0.07625604 0.17010921
000260 76 cd c0 3d b5 1a 6b bd 18 24 c1 bd 43 48 42 3e
       0.094141886 -0.057398517 -0.094307125 0.18972878
000270 b3 7a ba 3d 25 bc 7c bd b8 9e 93 be 35 b8 80 be
       0.09105434 -0.061702866 -0.2883203 -0.2514054
000280 0d 5b 75 be ae 3f b9 bd a1 6a 91 3c 33 c1 e7 bd
       -0.23960514 -0.09045349 0.01775104 -0.11316147
000290 5f 4e 9b bc e6 41 56 3d 7f 7c 4e 3e 83 b6 09 3d
       -0.018958269 0.05230894 0.20164679 0.033621322
0002a0 22 45 d8 3a d3 ed e9 bd 8f 56 a8 bd b9 55 7f 3d
       0.0016500095 -0.114223145 -0.08219635 0.06233761
0002b0 3f ea fc 3c 96 7b 87 3d f0 e9 20 be 55 87 c9 bc
       0.030873416 0.06615369 -0.1571424 -0.024600664
0002c0 08 f2 39 3e de 9a be 3d 5d 2d 9c be 08 91 cb be
       0.18158734 0.09306882 -0.3050336 -0.39759088
0002d0 93 b1 e6 39 9a 43 12 bd 48 04 c2 be 64 ad cd be
       0.00044001322 -0.035709 -0.3789389 -0.4017135
0002e0 28 30 5a be 42 bb b8 3d 40 3c aa bc c8 9c c3 be
       -0.21307433 0.090200916 -0.020780683 -0.38205552
0002f0 33 8c 96 be a4 c2 13 be f3 19 92 3d 72 49 b9 bc
       -0.2940384 -0.14429718 0.07133856 -0.02261803
000300 e8 56 90 be 66 c2 30 be 41 00 18 be be 5b 59 3e
       -0.28191304 -0.17261657 -0.14843847 0.21226403
000310 2e 1d 40 3e 11 2e 0a 3e 88 6f c0 3c 14 f0 a6 3d
       0.18761131 0.13494135 0.023490682 0.0815126
000320 62 a2 c1 3d 55 cc be 3d ae a9 09 3e 7b 10 4a 3e
       0.094548 0.09316317 0.13443634 0.1973285
000330 cc f3 cd 3d ff c6 10 3e a5 04 c3 bc 28 40 28 3d
       0.10056266 0.14138411 -0.023805926 0.04107681
000340 dd c1 92 bb 69 69 1c 3d 51 b4 d7 bd f8 7b ad be
       -0.0044786767 0.038186464 -0.105324395 -0.33883643
000350 ca b2 91 be 79 63 47 be a2 0f ff bd e2 4a 23 be
       -0.28456718 -0.1947154 -0.124541536 -0.15946534
000360 cc 22 88 bc 51 11 09 be ef 6b 33 be 35 c0 2b be
       -0.016618155 -0.13385512 -0.17521642 -0.1677254
000370 d0 31 99 bb 5d dc 11 bd 19 5c cc bd 67 3c 77 bd
       -0.0046751276 -0.035610545 -0.09978504 -0.06036034
000380 fc 4d 20 be ba e4 1c 3e 1b 57 9e 3d 1b 45 93 ba
       -0.15654749 0.15321627 0.07731458 -0.0011235805
000390 17 c8 c7 3b 0a e6 a4 3d ad 2c 28 3e 1d 21 71 3d
       0.0060968506 0.08051689 0.16423292 0.05886947
0003a0 a2 c2 b1 bd 1f 2e ae bd 64 39 86 bd ff 21 f4 bc
       -0.086797014 -0.08504891 -0.06553915 -0.029801367
0003b0 ed 19 78 be 3c 67 6d be 95 73 4a be 98 f0 e6 bd
       -0.2422864 -0.23183912 -0.19770654 -0.11276358
0003c0 48 c7 88 3d 15 7f 86 bd ec 64 11 bd 00 7f 6e bd
       0.06678635 -0.06567208 -0.035496637 -0.058226585
0003d0 a3 3c 1a 38 ee 9c b9 3d 71 67 d1 bd 12 b7 58 be
       3.6772934e-05 0.09063135 -0.10224808 -0.21163586
0003e0 3c 9e 1c bd e2 9f 21 3d 1d 56 c2 bd c1 3c dd 3c
       -0.03823684 0.039459117 -0.09489081 0.027006509
0003f0 56 c1 6f 3d c5 d0 8b 3d bf 1f 6f bd 3b 69 7f bc
       0.05853399 0.06826929 -0.058379885 -0.015589054

nested_model.unit3.conv.bias f4 [12]
000000 b4 0c a9 35 c3 f5 cf b2 9c 28 19 37 e7 48 11 b7
       1.2595178e-06 -2.4209731e-08 9.128966e-06 -8.659647e-06
000010 d9 a6 9a b6 86 8c 00 37 80 a9 91 b6 ae 40 82 b6
       -4.6089813e-06 7.662113e-06 -4.341069e-06 -3.8818316e-06
000020 2a b1 12 b7 31 3e eb b6 96 f5 94 b6 df 17 38 b7
       -8.743527e-06 -7.010786e-06 -4.4393337e-06 -1.0972813e-05

nested_model.unit3.bn.weight f4 [12]
000000 d4 62 41 3f 2a b3 e3 3e 42 8c f0 3e bc a4 39 3f
       0.75541425 0.4447263 0.46982008 0.7251699
000010 9d 62 bd 3e d8 62 30 3f 6e 96 cc 3e 2c 66 e8 3e
       0.36989298 0.68900824 0.3995852 0.4539045
000020 40 af 33 3f 32 c0 29 3f 2c 54 f9 3e eb b7 1c 3f
       0.70189285 0.6630889 0.4869703 0.61218137

nested_model.unit3.bn.bias f4 [12]
000000 4e 35 bf be ca ca bf bd 1f 11 da be 52 8e d0 bd
       -0.37345356 -0.09364851 -0.42591187 -0.101833954
000010 f4 5f 7d bd a5 bc 9e be 7d 91 fa bd f4 56 81 be
       -0.061859086 -0.310033 -0.12234781 -0.25261652
000020 41 10 45 be 45 9c 50 be 74 ab 88 be 23 ea d1 bd
       -0.19244482 -0.20372112 -0.26693308 -0.10249736

nested_model.unit3.bn.running_mean f4 [12]
000000 40 0a 89 bf f0 a5 7c bf ce 93 17 3d db d9 5b bf
       -1.0706253 -0.986907 0.037006192 -0.85879296
000010 95 09 ee 3d 00 56 a8 be ca e0 d6 be 0f 5b 61 bf
       0.116229214 -0.32878113 -0.41968375 -0.8802957
000020 69 21 97 be 9c c9 d2 bd fa 40 9a be 65 77 b0 bf
       -0.29517677 -0.1029236 -0.30127698 -1.3786436

nested_model.unit3.bn.running_var f4 [12]
000000 51 fc 49 3f 00 b1 48 3f 75 2f ff 3e b0 27 58 3f
       0.7890063 0.7839508 0.49840894 0.8443556
000010 f0 bb 3e 3f f0 c1 34 3f 67 dd 3c 3f 30 76 90 3f
       0.7450552 0.70608425 0.73775333 1.1286068
000020 23 8e 41 3f 14 e3 14 3f b8 ce 46 3f 5e 49 81 3f
       0.7560751 0.58158994 0.7765918 1.0100515

nested_model.unit4.conv.weight f4 [12, 12, 5, 5]
000000 bd 52 8b 3d c1 35 06 3d fe 28 db bc 9f 05 07 bd
       0.068028904 0.032766107 -0.026752945 -0.032964345
000010 a6 fa af 3c c7 f4 13 bc 21 c1 99 bd 5d 8a 8c bd
       0.021481823 -0.009030527 -0.075075395 -0.06862328
000020 6a 8c 65 bd 21 25 32 3c 52 5d ab bc 78 9e 0b bd
       -0.056042112 0.01087311 -0.020918522 -0.034086674
000030 90 9e 1d bd cd 8e e8 bb 20 c6 66 bc 42 89 31 3d
       -0.038481295 -0.0070971013 -0.014085323 0.04334379
000040 28 ce e4 3d d7 fb 00 3e d2 29 6f 3c 8f 56 67 3d
       0.11172134 0.1259607 0.014597373 0.056479033
000050 2e 2e 58 3d 2a 17 28 3e 89 08 7c 3e d0 88 3a 3e
       0.052778415 0.16415086 0.24612631 0.18216252
000060 25 dd 53 3e 71 25 b4 bc cd 36 61 3c ae c1 d9 3d
       0.20689829 -0.02199051 0.013745976 0.106326446
000070 79 a9 02 3e 37 37 3d 3d 71 9a 27 bd bc f0 98 bd
       0.12759961 0.046195235 -0.04091877 -0.074677914
000080 e6 ee c6 3c e9 fe 34 3e 0d 4f ef 3d 1e 61 a4 bb
       0.024283838 0.17675366 0.116849996 -0.00501646
000090 70 40 86 bd 36 68 1c 3d 67 b1 04 3e 85 2b 37 3e
       -0.06555259 0.03818532 0.12958299 0.17887695
0000a0 a3 ec 56 bd b4 ad 89 bd be 43 a1 bd e8 eb df 3d
       -0.052471768 -0.06722584 -0.07874249 0.109336674
0000b0 08 24 18 3e 8a f8 e2 bd d7 29 e4 bd 77 6d c3 bd
       0.14857495 -0.11082561 -0.11140793 -0.09542363
0000c0 8f 67 c7 bd c4 3f 3e bd 83 7b 28 3e 57 c5 59 3d
       -0.09736549 -0.04644753 0.16453366 0.053166714
0000d0 30 a5 32 3e 55 94 1e 3e e9 83 0e bc b0 1b 94 3e
       0.17445827 0.15486272 -0.008698442 0.28927374
0000e0 02 a6 ad 3d 52 8c b8 bc 46 55 ae bd cd ba b1 bc
       0.08478929 -0.022527847 -0.08512358 -0.021695519
0000f0 de 78 5d 3e 2b 38 36 3e df 66 6c 3d 96 cc 9a bd
       0.21628138 0.17794864 0.057715293 -0.07558553
000100 3e 83 92 bc b8 06 93 3d ec fe 32 3e 9d df 8d 3e
       -0.017884847 0.07179016 0.17480057 0.27709666
000110 e6 91 9a bd 4f 76 9a be 36 5d 5c 3d b1 61 28 3e
       -0.07547359 -0.30168387 0.05379983 0.16443516
000120 97 b8 91 3e 76 16 81 3e 51 45 ff bd b6 1d 1c 3c
       0.28461143 0.2521245 -0.12464393 0.009528568
000130 6c 5f b9 bd a3 2c 9c bd c9 5a 62 bb 03 08 0e bd
       -0.090514034 -0.07625701 -0.0034538975 -0.03467561
000140 39 fa 4b 3e c6 99 72 bd ac f0 8e bd b7 77 0d b9
       0.19919671 -0.05922868 -0.06979498 -0.00013491405
000150 07 c4 86 bd 32 9d 8a 3e 0d 88 40 3e 5c 9f 08 3e
       -0.06580358 0.27073056 0.18801899 0.13342041
000160 08 0c e8 3d 2c ca 5f 3d 00 b8 65 3d 7e c1 66 bb
       0.1133042 0.054636165 0.05608368 -0.0035210545
000170 a3 89 28 3e 99 65 e7 3d d5 3d 21 3d d7 3e 11 be
       0.16458754 0.11298675 0.03936561 -0.14184128
000180 37 4a 27 be 1c 0a ac bd 83 a5 43 bd 44 b4 eb bc
       -0.16336904 -0.08400366 -0.047765266 -0.02877248
000190 91 2f 17 be 04 f0 9f bc f1 98 96 3d ab 39 0b 3e
       -0.14764239 -0.019523628 0.0735339 0.13596217
0001a0 ce cf 80 3d 3e d2 83 bd ad 83 44 bd f4 ef 9b 3c
       0.062896356 -0.06436585 -0.04797714 0.019035317
0001b0 f9 32 4b 3d 58 d5 88 3b ed 8f e2 bd dc 7a b1 bd
       0.04960916 0.004175823 -0.11062608 -0.08666012
0001c0 a2 67 06 3c 1b 17 9a 3d cc 6a a1 3d 0c 28 38 be
       0.008203419 0.07523938 0.07881698 -0.17984027
0001d0 d5 7e bb bd a0 e6 88 bd ac 4b 9d bc 6b 45 d4 3d
       -0.09155051 -0.06684613 -0.019201122 0.10364803
0001e0 d5 6c 4f be 96 c9 1f be 2b 12 3c bd 83 d3 68 bd
       -0.2025636 -0.15604243 -0.045915764 -0.05684234
0001f0 df 79 f4 3c 43 e4 ef 3d 44 69 17 3e c1 93 ac bb
       0.029843269 0.11713459 0.1478625 -0.005266637
000200 98 69 d1 bd 48 9f ba bd d7 36 38 3e 47 c2 1c 3e
       -0.102252185 -0.09112412 0.1798967 0.15308486
000210 26 47 dd bb 3f f0 89 bc 3a 56 d4 bc 17 7a 77 3d
       -0.0067528663 -0.016838191 -0.025920022 0.06041917
000220 d5 3d 7c 3d 9d 59 0a 3c 1a 83 b0 3c e9 8e 8f ba
       0.061582405 0.008444217 0.02154689 -0.0010952625
000230 32 4a 81 bd 38 fd fa bb 20 1f 6d 3d ee 3d 30 3e
       -0.0631298 -0.0076595806 0.05789101 0.17211124
000240 8a 0e 14 3e 1c 20 c4 bd 2b 9a e8 bb 8b 6c 88 3d
       0.14458671 -0.09576437 -0.0070984564 0.06661328
000250 63 21 e5 3d a6 b0 96 bd 34 f4 40 3e 55 ad aa 3d
       0.11188009 -0.07357912 0.18843156 0.08333842
000260 35 65 0f 3e 84 7d 94 3e d0 78 ad 3e a0 c1 05 3e
       0.14003451 0.2900201 0.33881235 0.13062143
000270 ad ad 12 3d 05 d7 d8 3c cd 8e fe 3d 8e bd 00 3e
       0.03581016 0.026469717 0.12429581 0.1257231
000280 e0 82 96 3d 91 f8 41 3c 10 f9 08 bd fb 5a 28 3d
       0.07349181 0.011839048 -0.03344065 0.04110239
000290 3b a5 71 3d 8d 49 ff 3c 68 d2 39 bd 3b 2f cc bc
       0.058995467 0.031163001 -0.045366675 -0.024924865
0002a0 e7 82 34 bc 3f ca 92 3d af d9 9b 3d 06 c1 f4 3c
       -0.011017538 0.07167482 0.07609879 0.029877197
0002b0 4b 4f 70 3b c7 2b 2b 3d 07 2f 3e 3e e4 d5 cb 3d
       0.0036668356 0.041789796 0.18572627 0.09952906
0002c0 00 8e 74 3d 9c 3d 05 bd 66 8d 10 bd cd 2d 9b bd
       0.059705734 -0.03252946 -0.035291098 -0.07577095
0002d0 66 d8 93 3e 16 94 10 3e 77 32 bc 3d 64 38 10 3e
       0.28876036 0.1411899 0.09189313 0.14084011
0002e0 cf 9b 3c 3e af 82 c1 3e 74 c9 96 3e 0c a5 8d 3e
       0.18418811 0.37795016 0.29450572 0.27664983
0002f0 08 15 8d 3e 0c 42 82 3e 23 07 a1 3e f7 b4 80 3e
       0.27555108 0.25441015 0.31450757 0.25138065
000300 68 16 73 3e 6f 3b 4a 3e 71 cc b0 3d 2a ae 69 3e
       0.23739016 0.19749235 0.08632744 0.22820345
000310 ff 7d 3a 3e 5e 0e fb 3d de c5 82 bd 8b f7 4b be
       0.18212126 0.122586 -0.063853964 -0.19918649
000320 0d eb 79 bd 0d bf 18 be 24 f1 9b 3b af 4f f7 3d
       -0.061015178 -0.1491663 0.004758971 0.12075745
000330 95 07 7f 3d 13 93 fb bd e9 63 09 be 5b 38 d3 3b
       0.06226309 -0.122839116 -0.13417019 0.006445927
000340 ef 8d 57 3d c7 93 04 3e 10 df 2d bd b4 a7 d0 bc
       0.052625593 0.12946998 -0.042449057 -0.025470592
000350 fc 55 b2 bd d3 27 4e be 7e a5 7b bd a1 47 10 3e
       -0.087078065 -0.20132379 -0.061437123 0.14089824
000360 e6 94 d2 3d 5b c0 95 bd 98 24 13 be 14 1a 3e bd
       0.102823064 -0.073120795 -0.14369428 -0.04641159
000370 37 31 76 3e ec b3 55 3e e3 9a ea 3c 60 fd d3 bd
       0.24042211 0.20869416 0.028638309 -0.10351062
000380 08 57 8d bd aa 29 a5 be 07 8e 84 be e3 9e 59 be
       -0.069013655 -0.3225835 -0.25889608 -0.21252017
000390 9c 43 9d bd 0a 62 13 3c d5 c4 11 be 21 5e 4f bd
       -0.07678911 0.008995542 -0.14235242 -0.050626878
0003a0 c9 81 36 bd 50 12 07 be 66 9d 1c be 1e d6 25 be
       -0.044557367 -0.1319058 -0.15294418 -0.1619496
0003b0 a1 e2 c1 bd e5 16 9b bd fe f1 05 be 81 b5 81 be
       -0.09467054 -0.07572726 -0.13080594 -0.2533379
0003c0 19 a7 a9 bd db 9a 84 3c d3 16 8d 3d 8e 88 3a bd
       -0.082838245 0.016187122 0.06889119 -0.045540385
0003d0 a5 a4 b4 bd 5f ea 98 bc a1 34 07 bd a7 9b 97 bc
       -0.08820466 -0.018666444 -0.033009175 -0.018506838
0003e0 81 8e 52 bd 48 86 0f 3d ac f2 0b 3e df e9 bf 3d
       -0.051405434 0.03504017 0.1366679 0.09370779
0003f0 dc 67 85 3d 89 05 37 bc 21 19 20 3c 49 9a d9 3d
       0.0651395 -0.011170753 0.009771616 0.10625131

nested_model.unit4.conv.bias f4 [12]
000000 77 1d be 35 35 4c 7b b6 42 67 90 36 9e 29 85 b6
       1.4164679e-06 -3.7446273e-06 4.303555e-06 -3.9685538e-06
000010 ea 61 9a 35 8f 70 d1 b6 fd 06 1b b6 d9 ca c2 36
       1.1502391e-06 -6.241789e-06 -2.3100868e-06 5.805265e-06
000020 62 37 e0 b5 02 76 60 b6 ea c9 31 36 3b 46 b5 b5
       -1.6705419e-06 -3.344729e-06 2.6492585e-06 -1.3505991e-06

nested_model.unit4.bn.weight f4 [12]
000000 ce e7 13 3f 80 7d 82 3f 49 09 25 3f e2 fc 3f 3f
       0.5777558 1.019455 0.64467293 0.74995244
000010 98 39 fa 3e f8 cd 1d 3f f2 fd 6d 3f 19 4a 1f 3f
       0.48872066 0.6164241 0.92965615 0.6222244
000020 4c c6 31 3f 9a c3 46 3f 6b e1 58 3f 6f 4d 60 3f
       0.694432 0.77642214 0.8471896 0.87618154

nested_model.unit4.bn.bias f4 [12]
000000 9f b5 ab be 77 ae ca be c1 41 47 be d2 6f 3f be
       -0.33537003 -0.3958623 -0.19458677 -0.18695
000010 e3 88 a0 bd 38 7c 4e be 2a f0 d6 bd 0e 19 4c be
       -0.07838609 -0.20164573 -0.104950264 -0.19931433
000020 bd e0 7a be f2 03 28 be bc a9 1b be bd 02 03 be
       -0.24499793 -0.16407755 -0.15201467 -0.12794013

nested_model.unit4.bn.running_mean f4 [12]
000000 3e 2e 8c 3e e7 f4 1d bf c1 ff 9f bf eb 54 70 bd
       0.2737903 -0.61701816 -1.2499925 -0.058674734
000010 03 94 c6 be d6 65 63 be 0e 72 e2 bf bd 1c 2c bd
       -0.387848 -0.22206816 -1.7691057 -0.042019594
000020 e8 f8 30 be f6 51 47 bf e3 f5 4c bf c1 32 ad be
       -0.1728245 -0.7785944 -0.80062693 -0.33827785

nested_model.unit4.bn.running_var f4 [12]
000000 a3 9b 2c 3f 93 eb 21 3f 75 69 34 3f bf 3d 27 3f
       0.6742498 0.6325008 0.70473415 0.6532859
000010 93 b8 11 3f 6e 06 0e 3f a3 1f 51 3f a5 de 37 3f
       0.5692226 0.5547856 0.816889 0.71824104
000020 5a 76 22 3f 54 ad 49 3f 22 1c 5e 3f f5 30 1d 3f
       0.6346184 0.787801 0.8676168 0.6140283

nested_model.net.0.conv.weight f4 [12, 3, 5, 5]
000000 67 a4 30 3e e7 6f 83 3e 6b 49 8e 3d c6 ed 18 3e
       0.17250215 0.25671312 0.06947597 0.14934453
000010 ee bc af bd d6 92 d0 3d f8 79 89 be 9b 81 40 3d
       -0.08580957 0.10184257 -0.26850867 0.0469986
000020 c5 0a 88 3e 66 d5 79 bd b7 92 18 3e a5 a5 b9 3d
       0.26570717 -0.06099453 0.14899717 0.09064797
000030 7f 5a 3d be e1 cd 61 be 04 3a 97 be 41 51 62 bd
       -0.18491553 -0.22051193 -0.2953645 -0.05525327
000040 aa 34 53 3e b8 2d a2 be cc b8 9a bd cc 4a d0 3c
       0.20625558 -0.31675506 -0.075547785 0.02542629
000050 6d a5 ef bc cb 64 53 bb 20 38 45 3c b4 97 fa bc
       -0.029253686 -0.0032256122 0.012037307 -0.030589916
000060 08 89 09 bd 21 2f 4f be 3b c3 8f 3d d6 50 15 be
       -0.03357795 -0.20232822 0.07019659 -0.14581618
000070 62 c6 3e 3e f3 a0 e5 3d c5 30 17 bd ca 4f d7 be
       0.18630365 0.11212339 -0.036911745 -0.42053062
000080 79 a8 23 3e ec b6 98 3e 1a dd 7c 3b f5 d8 b6 3d
       0.15982236 0.29827058 0.0038583935 0.089281
000090 c6 dc 12 3e b5 f3 33 bc 0b fb 9e bc f7 99 60 bb
       0.14342031 -0.010983397 -0.019406816 -0.0034271458
0000a0 88 4d 39 be 5f a9 e7 3d 5b 86 41 be 12 02 04 3e
       -0.18095982 0.11311602 -0.18898909 0.12891415
0000b0 5a cd cc 3d 4a fc 5e bd c9 2d bb bd bd 95 81 3d
       0.10000105 -0.05443982 -0.09139592 0.063273884
0000c0 77 c0 19 3d 0d 82 c0 bd 60 73 da bd 45 5b 9a bd
       0.037537064 -0.09399805 -0.10666537 -0.075369395
0000d0 85 14 1a be 3f 23 96 bd f4 94 1c be 3a ac 93 3d
       -0.1504689 -0.073309414 -0.15291196 0.07210584
0000e0 c9 17 e6 be 75 b9 a0 3d 51 eb c6 3e dc 44 69 3d
       -0.44940022 0.07847873 0.38851407 0.056950435
0000f0 ca 6a e6 3d 18 09 d0 3c e2 3b 77 bd 76 b7 26 3e
       0.11250837 0.025394961 -0.060359843 0.16280922
000100 eb a1 c5 bd e2 61 c2 bd d3 41 8c 3e c5 f6 ee bd
       -0.09650024 -0.09491326 0.2739397 -0.11668161
000110 d3 39 e1 3d ae 67 bd 3c 61 f5 b3 3d 32 68 03 bd
       0.10997357 0.023120727 0.08787037 -0.03208179
000120 4b 2f da 3b 41 83 1a 3e c3 46 a3 3c 7f 38 fc 3d
       0.00665847 0.15089132 0.019931203 0.12315463
000130 1a c0 6c 3e c7 b9 ad 3d 0a 2d de 3d 4b 8f e3 3b
       0.23120156 0.084827 0.10848434 0.006944572
000140 2d f1 85 bd cd 72 0e 3e e0 ce e8 3d 71 4d 25 be
       -0.06540141 0.1391098 0.11367583 -0.16142823
000150 4b 76 13 bd 54 0f c7 bd bc 57 38 3e 0a 3b 78 bd
       -0.036001485 -0.097197205 0.18002218 -0.06060318
000160 6f b8 88 be 62 1b 22 be 40 b6 56 3c f0 36 39 3e
       -0.26703212 -0.15830758 0.013104975 0.18087363
000170 97 bb 13 3d d3 5a 07 3d 80 50 86 3c f5 39 a2 bd
       0.03606757 0.0330456 0.016395807 -0.07921211
000180 3b f6 45 3e cf 58 3a 3e 30 ef 6d 3d 7b 32 21 3d
       0.1933221 0.1819794 0.058089435 0.039354783
000190 2d 15 d7 3b 7d 49 b1 3d bf 22 f0 bd b1 f8 b5 be
       0.0065638036 0.08656595 -0.11725377 -0.355413
0001a0 b0 5b 87 be 44 e0 6d 3d f9 38 9d 3d c3 cf 07 be
       -0.2643714 0.058075204 0.07676882 -0.13262849
0001b0 e4 b2 29 be a6 46 2b be 2a e7 1e bd fd af 5f 3e
       -0.16572148 -0.16726169 -0.038794674 0.21844478
0001c0 59 b1 4a 3d 87 73 b8 be aa 70 45 be 1d 71 cb 3c
       0.04948554 -0.3602564 -0.19281259 0.02483421
0001d0 d2 99 e8 3d 34 5a 20 3c 09 be 75 be a1 27 2c be
       0.11357464 0.009787131 -0.23998274 -0.16811992
0001e0 a3 6d 80 3c a4 55 b5 3d c0 3e 43 bd c4 c7 78 bd
       0.015677279 0.08854225 -0.047667265 -0.060737386
0001f0 0d e2 3d bd 17 93 84 3c 1f 1c 18 3e ed 3a 06 be
       -0.046358157 0.01618342 0.14854477 -0.13108416
000200 f5 1b 5f be 0a 03 fb bd d6 cf 00 3e d0 10 32 3e
       -0.21788009 -0.12256439 0.12579283 0.17389226
000210 bb e8 34 3d 9b 95 2d be 4e ff 92 3d b3 d3 3f 3d
       0.04416726 -0.16951601 0.07177602 0.04683275
000220 92 11 33 3e 25 c3 80 3d 9d 38 66 be 94 93 c8 bd
       0.17487171 0.06287221 -0.22482534 -0.09793773
000230 13 06 af bd 69 6d 74 3e b0 df 1c 3e 82 d6 e3 bd
       -0.085460804 0.23869862 0.15319705 -0.111248985
000240 57 64 0a bc 9a 49 f3 3d 50 61 e6 3d c2 55 97 3d
       -0.008446774 0.11879273 0.1124903 0.07389404
000250 8c 40 dc 3c f8 c3 9e bd 3e 48 87 3c 61 3d 5e 3e
       0.026886247 -0.07752222 0.01651394 0.21703102
000260 a3 df 43 3e a6 a3 9e 3d 3d 2e 2b 3e 0f de 6f 3d
       0.1912828 0.07746057 0.16716857 0.05856138
000270 f7 e8 54 3e b0 68 3e 3e 04 32 f2 3d 0a 6f 05 3d
       0.20791994 0.18594623 0.11825946 0.0325766
000280 45 63 35 3e 5c 72 ca bd c9 61 bd be 7f d8 d9 3d
       0.1771365 -0.098850936 -0.36988667 0.106369965
000290 18 66 2d 3d f3 3c 2d 3c c2 52 82 bd f6 74 8c be
       0.042333692 0.010573613 -0.06363441 -0.27432984
0002a0 46 90 64 be 38 d7 27 be 69 84 26 3c 48 e4 d3 bd
       -0.22320661 -0.16390693 0.010163405 -0.103462756
0002b0 55 d1 41 bd 59 b8 a1 3c 08 4b c0 bd 12 5d c8 bc
       -0.047318775 0.019741224 -0.09389311 -0.024458442
0002c0 6b 0b 46 3e fd f4 9c 3c 5c 98 22 bd 98 f2 a6 3b
       0.19340293 0.019159788 -0.039696082 0.0050948374
0002d0 3b c1 24 3e 3d 50 e1 3d 68 03 1f 3e c1 2b 50 3c
       0.16089337 0.11001632 0.15528643 0.012705744
0002e0 b8 45 02 be 08 9d 7c 3e 8e 3e 82 bd 72 10 e2 be
       -0.12721908 0.24669278 -0.063595876 -0.44153172
0002f0 f8 61 a0 3d df 7c b9 bd f6 1c ae bc 48 81 1d be
       0.07831186 -0.090570204 -0.021254044 -0.15381348
000300 45 cc 68 be 6e 78 59 bd 13 08 0b 3d f5 d3 bb 3c
       -0.22734173 -0.053093366 0.033943247 0.022928217
000310 07 9c 95 bc 7d e7 1b be 70 fe ec 3d fd 9e 91 3d
       -0.018262876 -0.15225025 0.115719676 0.07110403
000320 57 14 91 bd bb 49 86 bd 5d 70 b6 be b5 0a 4d be
       -0.07083958 -0.06557032 -0.356326 -0.20023616
000330 9d bc e5 bd c5 b7 04 bd e8 6d f7 bc 7b 3c e5 3c
       -0.11217616 -0.03240182 -0.030203775 0.02798294
000340 b4 b7 d0 bd da 6b 7d bd 75 58 44 3e 4f b6 82 3d
       -0.101912886 -0.061870433 0.19174369 0.06382429
000350 55 bd 23 be 97 ab 84 3e d8 56 29 bb 73 9a c1 bc
       -0.15990193 0.25912163 -0.0025839116 -0.023633217
000360 12 c6 ba 3c 95 c1 0c 3b bb 46 c8 3d ea f2 e9 3d
       0.022799525 0.0021477689 0.09779116 0.11423285
000370 bd 18 36 3d 1d d7 c3 bb aa fd 0e 3e 48 de 26 3e
       0.044457186 -0.0059765712 0.13963953 0.16295731
000380 bb 25 b1 3d 86 99 07 be d7 86 44 3d c9 c5 3f be
       0.08649775 -0.13242158 0.047980156 -0.18727793
000390 80 6b 88 be 9b b5 62 be f3 a4 2a bd 42 a0 cb 3c
       -0.26644516 -0.2213959 -0.041661214 0.02485669
0003a0 61 e9 6b 3e d3 16 d6 3d f6 9d 51 3c 27 9f 45 bd
       0.23038246 0.10453572 0.0127940085 -0.048247483
0003b0 16 ec 18 be bd 8d f4 3d 8c ad 9f 3d 94 1e 15 3d
       -0.1493381 0.11941097 0.07796773 0.036406115
0003c0 91 5f 2b be bb 39 e3 bd 13 24 e8 3c b3 8e fa 3d
       -0.16735674 -0.110949956 0.028337514 0.12234249
0003d0 24 74 10 3e 2f 6d a7 3d 8a f4 ee 3d 02 d4 b4 3d
       0.14106804 0.08175122 0.11667736 0.088295
0003e0 86 a6 71 3d 9e 23 b4 3d 05 a0 b4 3d 5f 2f 3b 3e
       0.0589967 0.08795856 0.08819584 0.1827979
0003f0 41 3a 0b 3e ab 4c 8c 3d 0f 2b 8f 3c 93 e4 99 bd
       0.13596441 0.06850561 0.017476587 -0.075143

nested_model.net.0.conv.bias f4 [12]
000000 78 0a 6c 39 8b a6 94 b6 96 10 2a 39 b6 bd 42 b8
       0.00022510614 -4.430132e-06 0.00016218642 -4.6429886e-05
000010 5c 99 9b b7 d2 7a e8 35 b5 fc ae 37 81 8b 69 37
       -1.8548853e-05 1.7321092e-06 2.0860092e-05 1.3920363e-05
000020 af 57 f8 36 f3 54 19 35 33 b4 55 36 02 c3 72 b6
       7.4011837e-06 5.712056e-07 3.1844363e-06 -3.617432e-06

nested_model.net.0.bn.weight f4 [12]
000000 0a 67 87 3f 2e 7e 08 3f b9 d2 66 3f 82 85 27 3f
       1.057832 0.53317535 0.9016529 0.6543809
000010 5e 7c 0d 3f 9d a5 52 3e 4d 9b fe 3e 05 58 42 3f
       0.55267894 0.20570989 0.4972786 0.7591556
000020 35 52 27 3f 80 ad 96 3e 7d 08 e4 3e 51 b5 19 3f
       0.6535981 0.29429245 0.44537726 0.6004229

nested_model.net.0.bn.bias f4 [12]
000000 d8 6a 83 3f 02 2f 52 be 0c ba 9c 3e 7c 06 52 3e
       1.0266981 -0.20525745 0.30610693 0.20510286
000010 99 79 19 be f3 b8 94 3d 1a 17 a3 3d 18 d1 7a 3e
       -0.14987792 0.07261839 0.07963391 0.24493825
000020 a0 e5 91 3d 0b 9d 0a be 50 8c 9f bd 07 ba 67 be
       0.071238756 -0.1353647 -0.07790434 -0.22629558

nested_model.net.0.bn.running_mean f4 [12]
000000 d2 e5 e3 3c e1 99 2f be 8f 74 78 bc 72 37 ab bc
       0.027819548 -0.17148544 -0.0151645085 -0.020900462
000010 24 9f 51 3e 70 15 52 3f 5d d9 06 be 4b 8e 4f bc
       0.20470864 0.8206396 -0.13168855 -0.012668203
000020 ff b5 8d 3c 89 8f 16 3f 76 04 42 be 8e 22 b3 bf
       0.017298697 0.5881277 -0.18947014 -1.399492

nested_model.net.0.bn.running_var f4 [12]
000000 8c 28 06 3d 24 2f a8 3e 06 dc 82 3d b5 87 e5 3d
       0.032753512 0.32848465 0.063896224 0.11207525
000010 de b3 fc 3d fe 13 fe 3e 76 a0 ab 3d 77 95 f7 3d
       0.123389944 0.49624628 0.08380215 0.12089055
000020 e4 f1 88 3e 4c 1f 9a 3e 14 d0 c0 3d 8a 83 62 3f
       0.26747048 0.30102003 0.09414688 0.8848196

nested_model.net.1.conv.weight f4 [12, 12, 5, 5]
000000 49 1f 00 80 33 5e 00 00 f9 8d 00 00 05 16 00 00
       -1.1223e-41 3.3792e-41 5.093e-41 7.899e-42
000010 a1 86 00 00 d3 2d 00 80 57 07 00 00 4b 7f 00 00
       4.8296e-41 -1.6439e-41 2.633e-42 4.5664e-41
000020 e5 5a 00 80 87 42 00 00 dd 8c 00 00 ea 0e 00 00
       -3.2607e-41 2.3866e-41 5.0532e-41 5.35e-42
000030 2b 15 00 00 77 4f 00 00 0f 69 00 80 f5 ab 00 00
       7.594e-42 2.8507e-41 -3.7688e-41 6.1687e-41
000040 16 90 00 00 1d 82 00 80 87 78 00 00 89 28 00 00
       5.1688e-41 -4.6676e-41 4.3237e-41 1.4541e-41
000050 7f ab 00 80 7a 09 00 00 38 26 00 00 24 56 00 00
       -6.1521e-41 3.4e-42 1.371e-41 3.0901e-41
000060 d7 82 00 80 fb 81 00 00 66 25 00 00 fb 6f 00 00
       -4.6936e-41 4.6628e-41 1.3416e-41 4.0171e-41
000070 b0 00 00 00 af 82 00 00 81 00 00 00 55 6d 00 00
       2.47e-43 4.688e-41 1.81e-43 3.9221e-41
000080 a1 2c 00 00 f4 4e 00 80 2a 49 00 00 cc 37 00 00
       1.601e-41 -2.8323e-41 2.6246e-41 2.0016e-41
000090 ea 76 00 80 2f 24 00 00 df 51 00 80 5b 61 00 00
       -4.2658e-41 1.298e-41 -2.937e-41 3.4925e-41
0000a0 f3 84 00 80 7f 59 00 80 0c 94 00 80 6a 17 00 80
       -4.7693e-41 -3.2105e-41 -5.3109e-41 -8.4e-42
0000b0 fa 4e 00 00 24 86 00 80 d4 96 00 00 fc 4b 00 00
       2.8331e-41 -4.812e-41 5.4107e-41 2.7258e-41
0000c0 84 4e 00 80 44 1d 00 00 c0 42 00 80 f9 6c 00 00
       -2.8166e-41 1.0499e-41 -2.3945e-41 3.9092e-41
0000d0 6f 7f 00 80 65 51 00 00 c2 74 00 00 c5 94 00 80
       -4.5715e-41 2.9199e-41 4.1885e-41 -5.3368e-41
0000e0 c2 af 00 80 03 79 00 80 50 83 00 00 ce a1 00 80
       -6.305e-41 -4.3411e-41 4.7106e-41 -5.8045e-41
0000f0 4d 89 00 80 e8 74 00 00 6e 6c 00 00 ec 48 00 80
       -4.9254e-41 4.1938e-41 3.8897e-41 -2.616e-41
000100 8b 7c 00 00 21 9a 00 80 7d 62 00 80 a6 62 00 80
       4.4678e-41 -5.5291e-41 -3.5331e-41 -3.5388e-41
000110 09 15 00 00 29 68 00 00 0d 99 00 00 98 87 00 00
       7.546e-42 3.7366e-41 5.4904e-41 4.8642e-41
000120 1b 4c 00 00 97 5a 00 00 da 13 00 80 63 89 00 80
       2.7301e-41 3.2498e-41 -7.121e-42 -4.9285e-41
000130 e6 1b 00 00 11 2a 00 00 04 40 00 80 e7 65 00 00
       1.0008e-41 1.509e-41 -2.2964e-41 3.6556e-41
000140 fe 45 00 80 4e 84 00 80 2a 70 00 80 c6 32 00 00
       -2.5108e-41 -4.7462e-41 -4.0237e-41 1.8214e-41
000150 22 33 00 00 a5 0f 00 00 4e 09 00 80 e3 85 00 00
       1.8343e-41 5.612e-42 -3.338e-42 4.803e-41
000160 39 8b 00 80 01 55 00 80 00 92 00 00 18 1b 00 00
       -4.9944e-41 -3.0494e-41 5.2375e-41 9.72e-42
000170 83 3a 00 80 1e 58 00 00 74 51 00 80 e8 94 00 80
       -2.099e-41 3.161e-41 -2.922e-41 -5.3417e-41
000180 ec 59 00 00 bb 7f 00 80 9c 61 00 80 2c 2f 00 80
       3.2258e-41 -4.5821e-41 -3.5016e-41 -1.6922e-41
000190 24 03 00 80 a8 28 00 00 90 a2 00 00 57 a0 00 80
       -1.127e-42 1.4585e-41 5.8316e-41 -5.7519e-41
0001a0 e7 13 00 80 bc 28 00 00 26 42 00 00 bd 0a 00 80
       -7.14e-42 1.4613e-41 2.373e-41 -3.852e-42
0001b0 9c 13 00 00 1c 04 00 80 bb 70 00 00 7f 0e 00 80
       7.035e-42 -1.474e-42 4.044e-41 -5.2e-42
0001c0 4b 55 00 00 23 1a 00 80 a8 73 00 80 bc ab 00 80
       3.0597e-41 -9.376e-42 -4.149e-41 -6.1607e-41
0001d0 0d 54 00 00 09 5d 00 00 7d 10 00 80 3f 4c 00 80
       3.0152e-41 3.3375e-41 -5.915e-42 -2.7352e-41
0001e0 b5 5c 00 80 14 8f 00 00 d6 36 00 00 91 a6 00 00
       -3.3257e-41 5.1327e-41 1.9671e-41 5.9753e-41
0001f0 e7 71 00 00 d3 73 00 00 db 1f 00 80 d5 9e 00 00
       4.086e-41 4.155e-41 -1.1428e-41 5.6978e-41
000200 a8 07 00 80 25 09 00 00 b0 66 00 80 3a 68 00 80
       -2.747e-42 3.28e-42 -3.6837e-41 -3.739e-41
000210 00 06 00 00 f2 7e 00 80 1e 48 00 80 b8 65 00 00
       2.152e-42 -4.554e-41 -2.5871e-41 3.649e-41
000220 bc 7c 00 80 8e a9 00 80 82 9d 00 80 2d 27 00 80
       -4.4746e-41 -6.0825e-41 -5.6503e-41 -1.4054e-41
000230 af 74 00 00 2d a0 00 00 3f 01 00 00 e8 5f 00 00
       4.1858e-41 5.746e-41 4.47e-43 3.4405e-41
000240 90 18 00 80 36 ad 00 80 4e 28 00 80 d2 73 00 00
       -8.811e-42 -6.2136e-41 -1.4459e-41 4.1548e-41
000250 78 5d 00 00 be aa 00 00 49 4c 00 00 a5 45 00 80
       3.353e-41 6.1251e-41 2.7366e-41 -2.4984e-41
000260 c4 9a 00 00 99 8a 00 00 5b 97 00 80 ae 22 00 00
       5.552e-41 4.972e-41 -5.4296e-41 1.2441e-41
000270 ea 73 00 00 46 af 00 00 6c 7a 00 00 1c ae 00 80
       4.1582e-41 6.2876e-41 4.3917e-41 -6.2459e-41
000280 70 12 00 80 10 73 00 00 7d 62 00 80 a7 06 00 00
       -6.614e-42 4.1277e-41 -3.5331e-41 2.386e-42
000290 dc 0d 00 00 c3 61 00 00 3a a6 00 80 f3 02 00 80
       4.972e-42 3.507e-41 -5.9631e-41 -1.058e-42
0002a0 71 7a 00 80 4b 18 00 00 2f 46 00 80 ee ac 00 80
       -4.3924e-41 8.715e-42 -2.5177e-41 -6.2035e-41
0002b0 9f 66 00 80 5b 54 00 80 cb 1a 00 80 dc 79 00 00
       -3.6814e-41 -3.0261e-41 -9.612e-42 4.3715e-41
0002c0 c9 06 00 80 d4 2b 00 00 38 19 00 80 33 4f 00 00
       -2.434e-42 1.5723e-41 -9.047e-42 2.8411e-41
0002d0 9c 6b 00 00 cf 18 00 80 6b 7d 00 80 18 1b 00 00
       3.8603e-41 -8.9e-42 -4.4991e-41 9.72e-42
0002e0 43 80 00 00 3b 9e 00 80 92 06 00 80 6f 22 00 80
       4.6012e-41 -5.6762e-41 -2.357e-42 -1.2352e-41
0002f0 26 61 00 80 86 04 00 80 28 82 00 80 cc 50 00 00
       -3.485e-41 -1.623e-42 -4.6691e-41 2.8984e-41
000300 86 5b 00 80 6c 45 00 00 c8 39 00 00 c0 03 00 80
       -3.2832e-41 2.4904e-41 2.0728e-41 -1.345e-42
000310 e5 35 00 80 41 8d 00 80 c6 6f 00 80 e7 20 00 80
       -1.9334e-41 -5.0672e-41 -4.0097e-41 -1.1803e-41
000320 f6 0e 00 80 fa 86 00 00 de 5b 00 80 f8 31 00 80
       -5.367e-42 4.842e-41 -3.2956e-41 -1.7925e-41
000330 e5 58 00 80 f3 69 00 00 33 13 00 80 52 a3 00 00
       -3.189e-41 3.8007e-41 -6.887e-42 5.8588e-41
000340 6d 1a 00 00 39 8a 00 00 03 1c 00 80 66 38 00 80
       9.48e-42 4.9585e-41 -1.0049e-41 -2.0232e-41
000350 87 81 00 80 c8 44 00 00 76 71 00 00 ec 6a 00 00
       -4.6466e-41 2.4674e-41 4.0702e-41 3.8356e-41
000360 5e 4f 00 80 5e 94 00 80 d2 0e 00 00 54 29 00 80
       -2.8472e-41 -5.3224e-41 5.317e-42 -1.4826e-41
000370 73 5e 00 80 52 60 00 80 db 21 00 00 63 17 00 80
       -3.3882e-41 -3.4553e-41 1.2145e-41 -8.39e-42
000380 09 63 00 00 bf 29 00 00 1d 14 00 80 73 7a 00 00
       3.5527e-41 1.4976e-41 -7.215e-42 4.3927e-41
000390 66 57 00 80 1b 50 00 00 c0 6a 00 80 6c 17 00 80
       -3.1353e-41 2.8736e-41 -3.8295e-41 -8.402e-42
0003a0 6b 9b 00 80 d7 61 00 00 01 0f 00 80 12 1b 00 00
       -5.5753e-41 3.5098e-41 -5.382e-42 9.711e-42
0003b0 16 98 00 00 3f 24 00 00 6b 28 00 00 74 8d 00 00
       5.4558e-41 1.3003e-41 1.4499e-41 5.0744e-41
0003c0 08 ad 00 80 f9 4e 00 00 db 77 00 00 56 80 00 00
       -6.2072e-41 2.833e-41 4.2996e-41 4.6038e-41
0003d0 82 0f 00 80 65 07 00 80 92 75 00 00 96 6e 00 80
       -5.563e-42 -2.653e-42 4.2176e-41 -3.9671e-41
0003e0 1c 2c 00 00 cd 33 00 00 34 59 00 80 a5 27 00 00
       1.5823e-41 1.8583e-41 -3.2e-41 1.4222e-41
0003f0 67 ae 00 00 5e 5d 00 80 87 4a 00 00 ae 00 00 80
       6.2564e-41 -3.3494e-41 2.6735e-41 -2.44e-43

nested_model.net.1.conv.bias f4 [12]
000000 c4 93 00 80 09 c4 ff b5 04 01 a7 36 b8 be d0 b6
       -5.3008e-41 -1.9056034e-06 4.977106e-06 -6.2210856e-06
000010 02 7a c6 35 a8 95 8f b6 4b 61 95 36 e4 8f 1f b6
       1.4787659e-06 -4.2791544e-06 4.4518724e-06 -2.3776602e-06
000020 66 81 a8 36 11 17 31 b6 18 1b 2f 37 0a 90 0b 36
       5.021854e-06 -2.6388482e-06 1.0437121e-05 2.0796456e-06
