experiment_outputs/feat_norm_outputs/2/featNPO_S_none_unfreeze_no_augment.model (torch_old, 109503 bytes, 62 tensors)

nested_model.unit1.conv.weight f4 [12, 3, 5, 5]
0	0x3e4fa60a	0.20278183
1	0x3e88f9fb	0.2675322
2	0x3dab2042	0.08355762
3	0x3e10c5f8	0.14138019
4	0xbd88a177	-0.06671422
5	0x3e162e09	0.14665999
6	0xbe840050	-0.25781488
7	0x3d94f5f3	0.072734736
8	0x3e787c06	0.24266061
9	0xbd9d3b06	-0.076772735
10	0x3e2242dd	0.15845819
11	0x3e07b8f1	0.13254143
12	0xbe38bbb7	-0.18040358
13	0xbe7cdc00	-0.24693298
14	0xbea0d600	-0.3141327
15	0xbd932481	-0.07184697
16	0x3e32c07a	0.17456236
17	0xbea04361	-0.31301406
18	0xbdf75a09	-0.1207772
19	0x3cbf081b	0.023319295
20	0xbc9b17ed	-0.018932307
21	0x3b9102ef	0.0044253985
22	0x3c49fae5	0.012327884
23	0xbd789a53	-0.06069405
24	0xbcf46837	-0.02983485
25	0xbe5a9d33	-0.21349029
26	0x3d886848	0.06660515
27	0xbdfdc7a3	-0.12391593
28	0x3e2ea814	0.17056304
29	0x3e059db6	0.13048443
30	0xbd0a1a55	-0.03371652
31	0xbee4cd08	-0.44687676
32	0x3e3b4c11	0.18290736
33	0x3e8d0348	0.27541566
34	0xbb8d3b18	-0.004310023
35	0x3dd22b95	0.10262219
36	0x3e228bcc	0.15873641
37	0x3b478e7c	0.0030449918
38	0xbaeff031	-0.0018305836
39	0xbc32a82b	-0.010904352
40	0xbe5008bb	-0.2031583
41	0x3db66fb1	0.08908022
42	0xbe01a558	-0.1266073
43	0x3e057265	0.1303192
44	0x3db94de2	0.09048058
45	0xbd94e744	-0.07270673
46	0xbd98e009	-0.07464606
47	0x3dc0ab69	0.09407694
48	0x3c9271c5	0.017876515
49	0xbdc6e8cb	-0.097123705
50	0xbdfbb338	-0.12290043
51	0xbd6b0f52	-0.057387657
52	0xbdae0ad5	-0.0849816
53	0xbd690347	-0.05688789
54	0xbe07e306	-0.13270196
55	0x3d86fad4	0.065908104
56	0xbf01a10b	-0.5063636
57	0x3d957667	0.07297974
58	0x3eac7bcd	0.33688203
59	0x3d0e23a1	0.034701947
60	0x3e06776f	0.13131498
61	0x3d009955	0.03139623
62	0xbdb62af1	-0.08894909
63	0x3e0f1767	0.13973771
64	0xbe033718	-0.12813985
65	0xbdd5c1ef	-0.104373805
66	0x3e7b387f	0.2453327
67	0xbdaafe73	-0.083493136
68	0x3dd1178e	0.10209571
69	0x3cebdab0	0.028790802
70	0x3de1b385	0.11020569
71	0xbc9f64ab	-0.019457182
72	0x3cad3195	0.021141807
73	0x3e112cfc	0.14177316
74	0x3d249dc7	0.04018953
75	0x3dfad64e	0.122479066
76	0x3e629e30	0.22130656
77	0x3d924990	0.07142937
78	0x3da8912e	0.08230816
79	0xbc674f8b	-0.014118086
80	0xbd8a3f57	-0.06750362
81	0x3e01550b	0.12630098
82	0x3de8a25f	0.11359095
83	0xbe22700c	-0.15863055
84	0xbd38124e	-0.04493933
85	0xbdbe2c91	-0.09285844
86	0x3e36c8f5	0.17850097
87	0xbd49a1f9	-0.049226735
88	0xbe790199	-0.24317016
89	0xbe13b120	-0.14423037
90	0xbb9b5c3c	-0.00474122
91	0x3e2958f6	0.16537842
92	0x3d33f3b3	0.04393358
93	0x3d355f9a	0.044280626
94	0x3d5b14e5	0.053486723
95	0xbdeac235	-0.11462823
96	0x3e24fd97	0.16112362
97	0x3e317b3c	0.17332166
98	0x3d9a9f67	0.07549935
99	0x3dcd8a99	0.10036201
100	0x3d22d0c9	0.039749894
101	0x3ddb22d9	0.10700006
102	0xbdd5b9ae	-0.10435806
103	0xbeb3045d	-0.34964266
104	0xbe91e944	-0.2849828
105	0x3d97cb57	0.07411831
106	0x3d9ffc62	0.0781181
107	0xbdf74de4	-0.12075403
108	0xbe2032a7	-0.15644322
109	0xbe414169	-0.18872608
110	0xbca055ef	-0.019572226
111	0x3e6dfdb7	0.23241316
112	0x3d8e0d05	0.06936077
113	0xbeb21e51	-0.34788755
114	0xbe4b6b0e	-0.19865057
115	0x3ce61125	0.028084347
116	0x3df6a8a4	0.120438844
117	0x3d00aa84	0.031412616
118	0xbe77b81f	-0.2419133
119	0xbe17a925	-0.14810617
120	0x3c386df8	0.011256687
121	0x3da7279a	0.0816185
122	0xbd403fec	-0.04693596
123	0xbd693945	-0.056939382
124	0xbb6a5475	-0.0035755907
125	0x3d488c42	0.048961885
126	0x3e2e74ee	0.17036793
127	0xbe088916	-0.13333544
128	0xbe752fe5	-0.23944052
129	0xbe227df5	-0.15868361
130	0x3e129a7c	0.14316744
131	0x3e3b5c73	0.18296985
132	0x3d5d5369	0.054034624
133	0xbe3279b3	-0.17429237
134	0x3d1cfde8	0.03832808
135	0x3d966056	0.07342593
136	0x3e4993e5	0.19685324
137	0x3d992524	0.07477787
138	0xbe6bdcda	-0.23033467
139	0xbdf5f021	-0.120086916
140	0xbd947210	-0.07248318
141	0x3e7f3957	0.24924217
142	0x3e239be7	0.15977441
143	0xbe08703a	-0.13324061
144	0xbbc2ef3e	-0.00594893
145	0x3df02556	0.11725871
146	0x3ddde6dc	0.108350486
147	0x3d87f6ac	0.06638846
148	0x3c86910b	0.016426584
149	0xbd3d3f8b	-0.046203177
150	0x3c8e7d7a	0.017393816
151	0x3e57e68c	0.2108404
152	0x3e436246	0.19080457
153	0x3da6ef9b	0.0815117
154	0x3e2bf90b	0.16794221
155	0x3d87394e	0.06602727
156	0x3e661b5f	0.22471379
157	0x3e543e9e	0.20727012
158	0x3e14843a	0.14503565
159	0x3d4677f5	0.048454244
160	0x3e45f959	0.193334
161	0xbd8eb02a	-0.069671944
162	0xbec3a492	-0.38211495
163	0x3dc71e24	0.09722546
164	0x3d3b1b60	0.045680404
165	0x3b37b75e	0.002803288
166	0xbd2a5f95	-0.04159506
167	0xbe81bafb	-0.25337967
168	0xbe6696a4	-0.22518402
169	0xbe34d06e	-0.17657635
170	0xbbe3e21a	-0.0069544436
171	0xbdf2b289	-0.11850459
172	0xbd1b3dfe	-0.037900917
173	0xbcdafb4c	-0.026731156
174	0xbdf3803a	-0.11889692
175	0xbd05284d	-0.032509137
176	0x3e3c9bb3	0.1841877
177	0x3c0df3d3	0.008664089
178	0xbd22935e	-0.03969132
179	0x3bc2be20	0.005943075
180	0x3e15acef	0.1461675
181	0x3dc82fab	0.09774717
182	0x3e224f8d	0.15850659
183	0x3ca79960	0.020458877
184	0xbe03559f	-0.1282563
185	0x3e709a5f	0.23496388
186	0xbd8ab236	-0.06772272
187	0xbef5ce38	-0.48008895
188	0x3d329f59	0.043608997
189	0xbdda09bb	-0.10646387
190	0xbcb8e670	-0.022570819
191	0xbe00c0ba	-0.1257352
192	0xbe5de0c1	-0.21667768
193	0xbd674815	-0.056465227
194	0x3c8ce1cd	0.017197514
195	0x3cf7e478	0.03026031
196	0xbc5776c8	-0.013150878
197	0xbe0b1bdd	-0.13584848
198	0x3da4010c	0.08008012
199	0x3d700d34	0.05860634
200	0xbd96342e	-0.07334171
201	0xbd557b88	-0.05211976
202	0xbeb6b2dc	-0.35683334
203	0xbe461d8d	-0.1934721
204	0xbdd74188	-0.10510546
205	0xbd4edaa5	-0.050501484
206	0xbd489ff4	-0.04898067
207	0x3cd5d36e	0.026101794
208	0xbdb4925c	-0.08816978
209	0xbd582514	-0.052769735
210	0x3e28b057	0.16473518
211	0x3d33fbeb	0.04394142
212	0xbe59e231	-0.21277691
213	0x3e7c104e	0.24615595
214	0x3c5497a5	0.012975608
215	0xbd63aaaa	-0.05558268
216	0x3cec3e34	0.028838255
217	0x3c6435b3	0.0139288185
218	0x3e021b16	0.12705645
219	0x3e06b3e0	0.13154554
220	0x3cfbe326	0.030747961
221	0xbb66bfb1	-0.0035209472
222	0x3e44c352	0.19215134
223	0x3e49b965	0.19699629
224	0x3dffbbb6	0.12486975
225	0xbde39c17	-0.11113756
226	0x3d81303c	0.06308028
227	0xbe27aa00	-0.16373444
228	0xbe87628b	-0.2644237
229	0xbe5f5795	-0.21810754
230	0xbca87f3e	-0.020568486
231	0x3cc33eab	0.023833593
232	0x3e7536d7	0.23946701
233	0x3e15bbe3	0.14622454
234	0x3cd509ae	0.026005592
235	0xbd753445	-0.0598643
236	0xbe315fbb	-0.17321675
237	0x3dde5c6f	0.10857474
238	0x3dbfd084	0.09365943
239	0x3d27a46b	0.040928286
240	0xbe28082c	-0.16409367
241	0xbe026459	-0.12733592
242	0x3cf683e2	0.030092184
243	0x3dc362fe	0.09540366
244	0x3e0bc93e	0.13650987
245	0x3db1e13c	0.08685538
246	0x3e0423d8	0.12904298
247	0x3da618ab	0.08110174
248	0x3c6d1383	0.014469984
249	0x3d94eaf1	0.07271374
250	0x3db55085	0.088532485
251	0x3e2d0d5c	0.16899627
252	0x3e0e9e83	0.13927655
253	0x3d5873b8	0.052844733
254	0xbb8acaed	-0.0042356164
255	0xbd73cfeb	-0.059524458

nested_model.unit1.conv.bias f4 [12]
0	0xb872035a	-5.7700418e-05
1	0xb596f0ee	-1.1245991e-06
2	0x37a7bc7f	1.9995727e-05
3	0x3604a030	1.9762774e-06
4	0xb6aef760	-5.2144023e-06
5	0xb498ac80	-2.8437717e-07
6	0xb766f185	-1.3765301e-05
7	0x3720a076	9.574103e-06
8	0xb7de946e	-2.653358e-05
9	0x35860033	9.983836e-07
10	0x375373b9	1.2603524e-05
11	0xb6e0ce65	-6.6997477e-06

nested_model.unit1.bn.weight f4 [12]
0	0x3f84fd39	1.0389777
1	0x3f1232a1	0.57108504
2	0x3f6ec728	0.9327264
3	0x3f2c4a84	0.673012
4	0x3f1372c3	0.5759699
5	0x3e56e134	0.20984346
6	0x3eebca6b	0.4605287
7	0x3f45ea1f	0.77310365
8	0x3f28aec5	0.6589168
9	0x3e88da12	0.26728874
10	0x3eed610e	0.4636311
11	0x3f1b50c9	0.60670143

nested_model.unit1.bn.bias f4 [12]
0	0x3f7db038	0.99097013
1	0xbe3589d4	-0.17728359
2	0x3e92d62d	0.28679028
3	0x3e09733f	0.13422869
4	0xbde653b3	-0.11246433
5	0x3d914143	0.07092526
6	0x3dafae12	0.08578123
7	0x3e3aac9d	0.18229909
8	0xbc99d8d5	-0.018780151
9	0xbdff04ff	-0.12452125
10	0xbdd44e6e	-0.10366522
11	0xbe52bd40	-0.20580006

nested_model.unit1.bn.running_mean f4 [12]
0	0x3d1b8870	0.037971914
1	0xbd96ed36	-0.07369463
2	0xbd1f08c7	-0.03882673
3	0xbd9b6512	-0.07587637
4	0x3e5676db	0.20943777
5	0x3f57adae	0.8424939
6	0xbe31ac4f	-0.17350887
7	0xbb4e1e7a	-0.003145127
8	0xbc934ec3	-0.017981892
9	0x3ecd9559	0.40153006
10	0xbe787340	-0.24262714
11	0xbfb57f4f	-1.4179476

nested_model.unit1.bn.running_var f4 [12]
0	0x3cf799dd	0.030224735
1	0x3eaeae70	0.3411746
2	0x3d77fcff	0.06054401
3	0x3df7ea80	0.12105274
4	0x3dd0a28b	0.101872526
5	0x3ef805d2	0.4844194
6	0x3dafe673	0.085888766
7	0x3e117271	0.14203812
8	0x3e7aaac3	0.24479203
9	0x3e890667	0.26762697
10	0x3dc26ab4	0.09493008
11	0x3f7a22da	0.9770943

nested_model.unit2.conv.weight f4 [12, 12, 5, 5]
0	0x274dd050	2.8562391e-15
1	0xa5d9d460	-3.778741e-16
2	0xa583b03d	-2.28443e-16
3	0xa7ecf5bd	-6.576959e-15
4	0x28ad4b66	1.9239557e-14
5	0x24a59cca	7.1822954e-17
6	0x260b7cd1	4.839447e-16
7	0x25e5ac7b	3.9842045e-16
8	0xa70fa318	-1.993365e-15
9	0x28f64a95	2.7343831e-14
10	0xa7a13eef	-4.475471e-15
11	0x27962850	4.167707e-15
12	0x25df3525	3.8720346e-16
13	0xa57d8a4a	-2.1991106e-16
14	0x25ea659b	4.066138e-16
15	0xa8af2eee	-1.9449255e-14
16	0x276227cc	3.1385374e-15
17	0xa30c18eb	-7.594692e-18
18	0xa6b299ed	-1.2392953e-15
19	0xa82bab8e	-9.529607e-15
20	0xaa14bcc4	-1.3210532e-13
21	0xa68cef71	-9.779352e-16
22	0xa5daa6f4	-3.7930104e-16
23	0xa7dd7103	-6.146235e-15
24	0xa8f4e0fd	-2.7187015e-14
25	0x80005c77	-3.317e-41
26	0x00003335	1.837e-41
27	0x8daa0ac1	-1.0479648e-30
28	0x9387f19d	-3.431704e-27
29	0x95a45426	-6.6371835e-26
30	0x000095e1	5.3766e-41
31	0x8000290b	-1.4723e-41
32	0x8ee5e943	-5.667748e-30
33	0x932bfbac	-2.1707318e-27
34	0x13a9c187	4.285243e-27
35	0x000043dd	2.4345e-41
36	0x80004070	-2.3116e-41
37	0x0e173987	1.8639885e-30
38	0x911a3e77	-1.2167706e-28
39	0x119d1096	2.4780454e-28
40	0x8000413c	-2.3402e-41
41	0x80008cf3	-5.0563e-41
42	0x0e836a5a	3.2396406e-30
43	0x904cd7fb	-4.039829e-29
44	0x0d83e531	8.128674e-31
45	0x80002776	-1.4156e-41
46	0x80005725	-3.1262e-41
47	0x0d47d6f5	6.1580355e-31
48	0x8ff8bafe	-2.4526715e-29
49	0x0cc7d946	3.0791571e-31
50	0x2259d0b1	2.9519464e-18
51	0x9d41f098	-2.5667721e-21
52	0xa068ed2d	-1.9729639e-19
53	0xa3e969d7	-2.5306736e-17
54	0xa3a6ed0a	-1.8098146e-17
55	0x23e3eb79	2.4711116e-17
56	0x200918b0	1.161252e-19
57	0xa08f9a15	-2.4327105e-19
58	0xa4efd34f	-1.040077e-16
59	0x24d33ed3	9.161309e-17
60	0x2216dbb2	2.0445096e-18
61	0x9f32af8d	-3.7838178e-20
62	0xa1cf6d6d	-1.405583e-18
63	0x25d79c9a	3.7402672e-16
64	0x2696db4c	1.0467781e-15
65	0xa325cbbc	-8.98781e-18
66	0xa39ce79d	-1.7011646e-17
67	0xa571959d	-2.0954109e-16
68	0x26335fb6	6.2232813e-16
69	0x2581234d	2.2401854e-16
70	0xa51894c1	-1.3234298e-16
71	0xa5a1efe0	-2.8091594e-16
72	0xa5e815a6	-4.0260254e-16
73	0xa50d1666	-1.223739e-16
74	0xa2ab91a3	-4.650384e-18
75	0x880e9b6f	-4.291428e-34
76	0x8aceb27c	-1.9904217e-32
77	0x0eb144c8	4.3700103e-30
78	0x8db40363	-1.1094172e-30
79	0x0997ec59	3.6574188e-33
80	0x0db92da6	1.1412495e-30
81	0x139e5d9a	3.9977106e-27
82	0x12aee156	1.1036493e-27
83	0x11971b75	2.384052e-28
84	0x8eddf5b3	-5.4717306e-30
85	0x897c9778	-3.0404617e-33
86	0x139ed905	4.0098805e-27
87	0x1450f920	1.05504476e-26
88	0x128d04fe	8.899582e-28
89	0x10a98e9e	6.6878483e-29
90	0x8793e34f	-2.2251702e-34
91	0x124b9435	6.4238185e-28
92	0x12e7f564	1.4638643e-27
93	0x12e05560	1.4157434e-27
94	0x0fad7c59	1.7107014e-29
95	0x09258c1e	1.9927035e-33
96	0x8fc2b1a6	-1.9198305e-29
97	0x91a66072	-2.624962e-28
98	0x921dc695	-4.9785236e-28
99	0x88fef798	-1.5345278e-33
100	0x9a5735b6	-4.4504345e-23
101	0x9a010416	-2.6679875e-23
102	0x9c8ffbe7	-9.528061e-22
103	0x9e0dd3d0	-7.50828e-21
104	0x9e534cef	-1.11861565e-20
105	0x99c6afdc	-2.0543749e-23
106	0x986132ac	-2.9106151e-24
107	0x9b97f804	-2.514113e-22
108	0x9f04dff4	-2.8137337e-20
109	0x9ecb7a7d	-2.1544121e-20
110	0x94ff60bd	-2.5786576e-26
111	0x9222269b	-5.116577e-28
112	0x9643c6d2	-1.5814711e-25
113	0x9bd75182	-3.562144e-22
114	0x9b8786f4	-2.2421088e-22
115	0x93442f8e	-2.4762124e-27
116	0x8c2ad40d	-1.3160135e-31
117	0x115d4cf1	1.7457535e-28
118	0x1860847b	2.9018207e-24
119	0x17457939	6.380714e-25
120	0x94d1bcf9	-2.1178144e-26
121	0x0fa62a36	1.6385123e-29
122	0x1174ac34	1.930127e-28
123	0x18dad0d7	5.6562554e-24
124	0x1882f2c8	3.384936e-24
125	0x0000ad12	6.2086e-41
126	0x80009721	-5.4215e-41
127	0x00001305	6.823e-42
128	0x8000546b	-3.0283e-41
129	0x800058b5	-3.1822e-41
130	0x000003b9	1.335e-42
131	0x000052c4	2.9691e-41
132	0x00002da5	1.6374e-41
133	0x8000548a	-3.0327e-41
134	0x80002199	-1.2053e-41
135	0x8000949b	-5.331e-41
136	0x8000aac9	-6.1266e-41
137	0x80000407	-1.445e-42
138	0x80007f53	-4.5675e-41
139	0x000063c1	3.5785e-41
140	0x8000a07e	-5.7574e-41
141	0x800056b9	-3.111e-41
142	0x000068fd	3.7663e-41
143	0x80000eb4	-5.274e-42
144	0x80001deb	-1.0733e-41
145	0x00000047	1e-43
146	0x0000ac51	6.1815e-41
147	0x8000ac7a	-6.1873e-41
148	0x000098f4	5.4869e-41
149	0x00002e17	1.6534e-41
150	0x1d8c4f82	3.71399e-21
151	0x1e13edca	7.831289e-21
152	0x1ead4ba8	1.8348378e-20
153	0x9fc366d4	-8.275583e-20
154	0x1eba54d0	1.9728594e-20
155	0x1e6d13c2	1.2550761e-20
156	0x1e593f2e	1.150095e-20
157	0x1f90b28e	6.1281766e-20
158	0x200bf89a	1.1856013e-19
159	0x1fa2dafc	6.897195e-20
160	0x1e9bb0c1	1.6484367e-20
161	0x1e636f6b	1.2040321e-20
162	0x1f3c3ed0	3.9862506e-20
163	0x1fcb80f2	8.6187166e-20
164	0x1f8a0c27	5.846538e-20
165	0x1e334ee2	9.492494e-21
166	0x1e2259dd	8.594792e-21
167	0x1d882ff9	3.6048503e-21
168	0x1dd8d18f	5.7391402e-21
169	0x9d54f072	-2.8182274e-21
170	0x9f1c005a	-3.3034576e-20
171	0x9f7a5462	-5.300936e-20
172	0x9dc4c371	-5.208285e-21
173	0x9eb3adb9	-1.9024212e-20
174	0x9f71f3df	-5.123546e-20
175	0xa08c702b	-2.379115e-19
176	0x9fb48429	-7.6451606e-20
177	0x9aab8bd4	-7.094985e-23
178	0x96a453fd	-2.6548633e-25
179	0x960f6653	-1.1583736e-25
180	0x208d441e	2.3931405e-19
181	0x1f784c3b	5.25791e-20
182	0x1a8af9fc	5.7479334e-23
183	0x13e443b0	5.7622037e-27
184	0x938a8116	-3.4963386e-27
185	0x2363c5f6	1.23476145e-17
186	0x20943d99	2.5112937e-19
187	0x1cdfd32e	1.4811491e-21
188	0x17a5b573	1.0708679e-24
189	0x95854367	-5.3824614e-26
190	0x22e52289	6.210714e-18
191	0x1e9d034f	1.662439e-20
192	0x1cee4cc6	1.5769364e-21
193	0x998bf961	-1.4472986e-23
194	0x9895cea3	-3.8724247e-24
195	0x1f1da495	3.3382182e-20
196	0x1a4690e2	4.1062476e-23
197	0x99f0d496	-2.4901281e-23
198	0x9909717a	-7.1056504e-24
199	0x99d1dc45	-2.169906e-23
200	0x99028d0b	-6.749326e-24
201	0x19ab06fb	1.7683805e-23
202	0x1a26ebfa	3.4518616e-23
203	0x181f9d21	2.0629598e-24
204	0x97a867d4	-1.0882955e-24
205	0x15e2ebd6	9.1652757e-26
206	0x188b69ee	3.603762e-24
207	0x19a3d246	1.6938734e-23
208	0x18185c77	1.9692222e-24
209	0x171072b7	4.66737e-25
210	0x12306859	5.5664426e-28
211	0x14f24d75	2.4466307e-26
212	0x1656ed5f	1.7361683e-25
213	0x147658be	1.24373274e-26
214	0x1300bb56	1.6248235e-27
215	0x0d900f31	8.878342e-31
216	0x104a82cd	3.993824e-29
217	0x115a7948	1.723454e-28
218	0x0e8fbb90	3.5432838e-30
219	0x0f8b4842	1.3734291e-29
220	0x1317ac66	1.9143878e-27
221	0x15758572	4.9582626e-26
222	0x16b6df5c	2.9544645e-25
223	0x13847ece	3.3446524e-27
224	0x1405e638	6.760187e-27
225	0x00009258	5.2498e-41
226	0x000048e8	2.6154e-41
227	0x80000787	-2.7e-42
228	0x00000316	1.107e-42
229	0x800051d9	-2.9361e-41
230	0x80009e1a	-5.6716e-41
231	0x0000225c	1.2326e-41
232	0x800074b6	-4.1868e-41
233	0x800061ca	-3.508e-41
234	0x00003673	1.9533e-41
235	0x00002e9d	1.6722e-41
236	0x00001bd0	9.977e-42
237	0x00005c05	3.301e-41
238	0x00002281	1.2378e-41
239	0x00002f52	1.6975e-41
240	0x00004deb	2.7952e-41
241	0x0000a7ac	6.015e-41
242	0x0000a297	5.8326e-41
243	0x00007e73	4.5361e-41
244	0x800089df	-4.9459e-41
245	0x000018e1	8.925e-42
246	0x80004712	-2.5495e-41
247	0x80006bc2	-3.8656e-41
248	0x0000871e	4.8471e-41
249	0x00008717	4.8461e-41
250	0x00001751	8.364e-42
251	0x80009a8c	-5.5441e-41
252	0x00003921	2.0494e-41
253	0x00008fd0	5.159e-41
254	0x0201793b	9.512215e-38
255	0x00005155	2.9176e-41

nested_model.unit2.conv.bias f4 [12]
0	0x00003b10	2.1188e-41
1	0xb652fa60	-3.1438176e-06
2	0x371e2d39	9.428063e-06
3	0x3681b148	3.865138e-06
4	0x36c94085	5.997778e-06
5	0xb6941e3c	-4.4142635e-06
6	0x359a905d	1.1515909e-06
7	0x35981ab3	1.1332653e-06
8	0xb649be0c	-3.0061956e-06
9	0xb6b103ad	-5.275439e-06
10	0x367dfdec	3.784774e-06
11	0x35efa205	1.7854042e-06

nested_model.unit2.bn.weight f4 [12]
0	0x38f3ee90	0.00011631579
1	0x3ec015dd	0.3751668
2	0x3e8c87c5	0.27447334
3	0x3f335177	0.7004618
4	0x3edb45ad	0.42826596
5	0x3ec4addc	0.38413894
6	0x3ef61caf	0.4806876
7	0x3eb1fe4a	0.3476432
8	0x3efd86c5	0.49516883
9	0x3e857201	0.2606354
10	0x3ea7cb82	0.32772452
11	0x3f299404	0.6624148

nested_model.unit2.bn.bias f4 [12]
0	0xbbc6a9c7	-0.0060627195
1	0xbe7bb074	-0.2457903
2	0xbe41d013	-0.1892703
3	0xbe91e907	-0.28498098
4	0xbe3c3152	-0.18378189
5	0xbe7aea7e	-0.24503514
6	0xbe162aae	-0.14664719
7	0xbe0bae60	-0.13640738
8	0xbe824361	-0.2544203
9	0xbe006341	-0.12537862
10	0xbe960864	-0.29303277
11	0xbe94cea9	-0.2906392

nested_model.unit2.bn.running_mean f4 [12]
0	0xaa2a093a	-1.5102234e-13
1	0x3f10f41a	0.5662247
2	0xbf23bbf8	-0.6395869
3	0xbfdeac98	-1.7396421
4	0xbfaf3bcb	-1.3690122
5	0xbfb5ce39	-1.4203559
6	0xbf9bad50	-1.2162266
7	0xbf036098	-0.51319265
8	0xbf6eec04	-0.9332888
9	0xc00fa49f	-2.2444227
10	0x3fa92070	1.3213024
11	0xbf5b7bcd	-0.8573578

nested_model.unit2.bn.running_var f4 [12]
0	0x14a64519	1.678897e-26
1	0x3fe37d6c	1.7772651
2	0x40105044	2.254899
3	0x4098d10f	4.77552
4	0x403b6d6a	2.928553
5	0x40180ed4	2.375905
6	0x40461b17	3.0954034
7	0x4014268a	2.3148522
8	0x4006a9d2	2.104115
9	0x402761b2	2.6153378
10	0x3fccbe69	1.5995609
11	0x409c7e33	4.890405

nested_model.unit3.conv.weight f4 [12, 12, 5, 5]
0	0xaa4f46b9	-1.840983e-13
1	0xa913c84b	-3.2814283e-14
2	0xa94c9d32	-4.5433445e-14
3	0x28da3423	2.4225473e-14
4	0x2e82c6d9	5.947038e-11
5	0xa7ab1d1a	-4.7493586e-15
6	0xa5bbb9a8	-3.2565135e-16
7	0xa70f761d	-1.9909266e-15
8	0xa91d1c28	-3.4885425e-14
9	0x2d957297	1.6990227e-11
10	0x26008103	4.4583764e-16
11	0xa4ba3b92	-8.076556e-17
12	0xa68129f7	-8.962548e-16
13	0xa99bd802	-6.920854e-14
14	0xad04b76b	-7.544058e-12
15	0xaa7cd023	-2.2454308e-13
16	0xa61ec66f	-5.508619e-16
17	0xa7082e71	-1.8898967e-15
18	0xaa42783d	-1.7272377e-13
19	0xadc67a54	-2.2564318e-11
20	0xac0a6180	-1.9665103e-12
21	0xa8260787	-9.216483e-15
22	0xa8a0315f	-1.778498e-14
23	0xab5ca0ac	-7.838268e-13
24	0xae8cfafb	-6.411046e-11
25	0x3d3647ce	0.044502072
26	0x3ce38313	0.027772462
27	0xbc3a1e0d	-0.011359704
28	0xbcebec5f	-0.028799234
29	0x3e3502ae	0.17676803
30	0x3d2739f2	0.040826745
31	0x3df335aa	0.1187547
32	0xbc4d265d	-0.012521354
33	0x3d993cf1	0.07482327
34	0x3e42974b	0.19003026
35	0x3d16114f	0.0366376
36	0xbc3b9760	-0.011449665
37	0xbe52daa8	-0.20591223
38	0xbe4712b5	-0.1944073
39	0x3d5314eb	0.05153362
40	0xbd2992d1	-0.04139978
41	0xbe7ee79b	-0.24893038
42	0xbea0b79e	-0.3139009
43	0xbe7600ab	-0.24023692
44	0xbc7d7798	-0.015470408
45	0x3e85eb5b	0.26156124
46	0x3ca2695f	0.019825635
47	0xbe54098a	-0.20706764
48	0xbda22b4c	-0.079184145
49	0x3df74d77	0.12075322
50	0xbcc2ad5a	-0.023764301
51	0x3d8357b4	0.064132124
52	0x3be9ff8b	0.007141059
53	0xbda3333b	-0.07968756
54	0xbda7a42d	-0.08185611
55	0xbd2d12d9	-0.042254303
56	0xbd38d873	-0.045128297
57	0xbe56a68e	-0.20961973
58	0xbe02114c	-0.1270191
59	0xbdfa9e51	-0.12237228
60	0xbd8ccf83	-0.06875517
61	0xbe4fc37a	-0.20289412
62	0xbe51507a	-0.20440856
63	0xbd985d6e	-0.07439695
64	0xbe799960	-0.24374914
65	0xbe1923d2	-0.1495507
66	0xbe0e933b	-0.13923351
67	0xbdef080c	-0.11671457
68	0xbba535c5	-0.00504181
69	0xbe46df35	-0.19421084
70	0xbe44e084	-0.19226271
71	0xbe0df873	-0.13864307
72	0xbdbfdee0	-0.09368682
73	0xbd396239	-0.045259688
74	0xbe8347a9	-0.2564061
75	0xbdd49447	-0.10379844
76	0xbd7ed6f1	-0.062216703
77	0xbea57fbe	-0.32324022
78	0xbe45ea79	-0.19327725
79	0xbe6e6d41	-0.23283865
80	0x3db6f7f8	0.08934015
81	0x3d54f8d3	0.05199511
82	0xbd8aea18	-0.06782931
83	0xbcb1fe27	-0.021727635
84	0xbdabc23e	-0.08386658
85	0x3e147e9f	0.14501427
86	0x3da904b8	0.08252853
87	0xbd14c8f8	-0.03632447
88	0x3d8e3121	0.06942964
89	0xbbce6ec0	-0.0062998235
90	0x3cbf2780	0.023334265
91	0x3c80d325	0.015725682
92	0xbc5231cd	-0.012829256
93	0x3be5cce6	0.007012951
94	0x3d4f8dcb	0.050672334
95	0x3d4f726a	0.050646223
96	0x3d13ca6d	0.03608172
97	0xbd9aec5b	-0.075646125
98	0x3d1ed554	0.038777664
99	0x3ddc21eb	0.10748657
100	0xbda7a903	-0.08186533
101	0x3d995f70	0.074889064
102	0x3d86b34c	0.06577167
103	0xbcd19da4	-0.025587864
104	0x3e3d82df	0.18506955
105	0xbe116c15	-0.14201386
106	0x3c8694ba	0.01642834
107	0xbd022230	-0.031770885
108	0xbe1166fa	-0.14199439
109	0x3c32c899	0.010912084
110	0x3e69a8d0	0.22818303
111	0x3e827166	0.2547714
112	0x3e5c3c98	0.2150749
113	0xbb6d1b0f	-0.0036179458
114	0x39a761b3	0.00031925514
115	0x3d86b0e4	0.06576708
116	0x3b1715a4	0.002305367
117	0x3c0f7e69	0.008758166
118	0x3ca6bfc5	0.020355115
119	0xbd4dc95b	-0.050240856
120	0x3e68e7da	0.22744694
121	0x3e5dd2c5	0.21662433
122	0x3e014f06	0.12627801
123	0x3d5f2e7a	0.054487683
124	0xbd90c791	-0.07069314
125	0xbe6050a8	-0.21905768
126	0xbddd0be5	-0.10793284
127	0xbc4e78d6	-0.012602052
128	0x3e039e12	0.12853268
129	0x3e1ab18c	0.15106791
130	0xbe6a3093	-0.22870092
131	0xbe16c200	-0.14722443
132	0xbd7d9107	-0.061905887
133	0x3d4ee257	0.050508823
134	0x3e54d43f	0.2078409
135	0xbeb4ff26	-0.35350913
136	0xbea522eb	-0.32253203
137	0xbe078498	-0.13234174
138	0xbe1385c8	-0.14406502
139	0x3e13e018	0.14440954
140	0xbdbc3b27	-0.0919097
141	0xbd9c0c66	-0.07619552
142	0xbe0f21b7	-0.13977705
143	0xb9b27d9f	-0.000340444
144	0xbb86608b	-0.0041008643
145	0xbb4394ae	-0.0029843259
146	0x3d42acc0	0.04752803
147	0x3cfc8d3d	0.030829066
148	0x3d0d7151	0.034531895
149	0x3d951ca9	0.07280857
150	0x3d6c87e3	0.05774678
151	0x3e3b165b	0.18270247
152	0x3d888ca7	0.06667452
153	0xbd9e89bb	-0.07741114
154	0xbdc22d1d	-0.09481261
155	0x3e794261	0.24341728
156	0x3db9a609	0.09064872
157	0xbd0a549d	-0.0337721
158	0xbe93f5e5	-0.2889854
159	0xbe916b96	-0.28402394
160	0xbe611a38	-0.21982658
161	0xbde91146	-0.11380248
162	0xbd2bc340	-0.04193425
163	0xbe20149f	-0.15632866
164	0xbddfea65	-0.10933379
165	0x3d349a91	0.04409272
166	0x3e731e1f	0.23741959
167	0x3d866194	0.0656158
168	0x3d618557	0.055058803
169	0xbe198cd9	-0.14995135
170	0xbd56c911	-0.052437846
171	0x3db19aa3	0.08672073
172	0x3d59a887	0.053139236
173	0x3db37c96	0.08763997
174	0xbe1e1fa7	-0.15441762
175	0x3bb567fe	0.0055360785
176	0x3c9e490f	0.019321946
177	0xbc8fffcb	-0.017578026
178	0xbe95495d	-0.29157534
179	0xbee8ea42	-0.45491225
180	0x3dc5c19f	0.09656071
181	0xbdb4a2d7	-0.08820122
182	0xbe7f36b8	-0.24923217
183	0xbe756ec8	-0.23968041
184	0xbe896189	-0.26832226
185	0x3dd9f5e8	0.10642606
186	0xbda3e210	-0.080021024
187	0xbeb1cb79	-0.3472555
188	0xbe58d025	-0.21173151
189	0xbe047d0e	-0.1293833
190	0x3d263411	0.040577
191	0xbdcedd24	-0.10100773
192	0xbe8e1159	-0.2774761
193	0xbe1372f3	-0.14399318
194	0xbe19d056	-0.1502088
195	0x3e6bd057	0.23028694
196	0x3e3ea679	0.18618192
197	0x3d50ca83	0.05097438
198	0x3dec6970	0.11543548
199	0x3e29bb7a	0.16575423
200	0x3d6357e4	0.05550374
201	0x3e06e1db	0.13172095
202	0x3e0bf611	0.13668086
203	0x3e3eb42f	0.18623422
204	0x3d87adfa	0.0662498
205	0x3de51acb	0.11186751
206	0x3d05c420	0.032657743
207	0x3ce58abe	0.028020259
208	0xbb1ac3d5	-0.002361526
209	0x3d110fbc	0.035415396
210	0xbe1545ad	-0.1457736
211	0xbeb930ba	-0.36169988
212	0xbeabe1f5	-0.3357083
213	0xbe6ce8c3	-0.23135667
214	0xbe130a7d	-0.1435947
215	0xbd8b5f0d	-0.06805239
216	0x3ab24e06	0.0013603575
217	0xbe2bbc30	-0.16771007
218	0xbe445f3a	-0.19176951
219	0xbe4fab77	-0.20280252
220	0x3db0d98e	0.08635245
221	0x3c541f90	0.012946978
222	0xbc7d6c04	-0.015467647
223	0xbd4722cd	-0.048617173
224	0xbe1cbf6f	-0.15307401
225	0x3c35cedc	0.011096682
226	0x3d296b62	0.041362174
227	0x3b66bb40	0.0035206825
228	0xbc8c1f6f	-0.017104832
229	0xbc8c2d59	-0.017111467
230	0x3e01a133	0.12659149
231	0x3cc31879	0.02381538
232	0xbdbfe875	-0.093705095
233	0xbd885448	-0.066567004
234	0xbe116c8a	-0.1420156
235	0xbdfff242	-0.12497379
236	0xbea15d52	-0.3151651
237	0xbe591484	-0.21199232
238	0xbe2ddc03	-0.16978459
239	0xbe7c19c6	-0.24619207
240	0xbba786ac	-0.0051124897
241	0xbdb0dbaf	-0.08635651
242	0xbceeca83	-0.0291493
243	0xbd854714	-0.06507698
244	0xbd932a0b	-0.071857534
245	0x3d7fa26d	0.06241076
246	0xbdc2dd34	-0.095148474
247	0xbdea0019	-0.114258
248	0xbd6ab021	-0.057296876
249	0xbdc9012d	-0.098146774
250	0xbd9dbeed	-0.07702432
251	0x3dce0fc2	0.10061599
252	0x3e39597d	0.18100543
253	0x3e18bb70	0.14915252
254	0xbd5f48d0	-0.0545128
255	0xbc8fc457	-0.017549677

nested_model.unit3.conv.bias f4 [12]
0	0x370b49b7	8.302209e-06
1	0x36df7437	6.659447e-06
2	0x363d638b	2.8221136e-06
3	0x3561a9a9	8.406592e-07
4	0xb5bcb6f1	-1.4060334e-06
5	0xb6f4316c	-7.27752e-06
6	0x3698cb48	4.553618e-06
7	0xb6acea92	-5.153307e-06
8	0x35f57da5	1.829049e-06
9	0xb72f5533	-1.045065e-05
10	0xb6ce9cc1	-6.157527e-06
11	0xb6c72787	-5.9352637e-06

nested_model.unit3.bn.weight f4 [12]
0	0x3f3dd0f1	0.74146944
1	0x3ee525cb	0.44755396
2	0x3ef77ebb	0.48338875
3	0x3f4245ee	0.75887954
4	0x3ebd1faa	0.3693822
5	0x3f2a8a47	0.66617244
6	0x3ec6d92c	0.38837564
7	0x3ef15e2f	0.4714217
8	0x3f2a5c52	0.6654712
9	0x3f274312	0.65336716
10	0x3efabda1	0.489728
11	0x3f1ca6ce	0.61192024

nested_model.unit3.bn.bias f4 [12]
0	0xbeafd678	-0.34343314
1	0xbd819779	-0.06327719
2	0xbee6ae49	-0.45054844
3	0xbe36c28b	-0.1784765
4	0xbd6fe43a	-0.058567263
5	0xbe8bd494	-0.27310622
6	0xbda81c76	-0.082085535
7	0xbe8d6aeb	-0.27620634
8	0xbe8dd5b4	-0.27702105
9	0xbe6bb6dc	-0.23018974
10	0xbe8eb603	-0.2787324
11	0xbe18235a	-0.14857236

nested_model.unit3.bn.running_mean f4 [12]
0	0xbf7d51a0	-0.98952675
1	0xbf8c0b8c	-1.0941024
2	0x3dc78744	0.09742597
3	0xbf4fd15d	-0.8117884
4	0xbdd08d9b	-0.10183259
5	0xbdd579a0	-0.10423589
6	0xbd348025	-0.04406752
7	0xbf3306f7	-0.699325
8	0xbe8cf79b	-0.27532658
9	0xbd1d2e0c	-0.03837399
10	0xbea45b7e	-0.32101053
11	0xbf33d31e	-0.70244014

nested_model.unit3.bn.running_var f4 [12]
0	0x3f35aa75	0.7096322
1	0x3f4e3a06	0.80557287
2	0x3ee589b6	0.44831628
3	0x3f544313	0.8291485
4	0x3f1d13c4	0.61358285
5	0x3f1d5c4b	0.6146895
6	0x3f1ba6ef	0.60801595
7	0x3f6fdcc6	0.9369625
8	0x3f37bcb3	0.7177231
9	0x3ee5c2bd	0.44875136
10	0x3f0eb452	0.55743897
11	0x3f356625	0.70858985

nested_model.unit4.conv.weight f4 [12, 12, 5, 5]
0	0x3d20e927	0.03928485
1	0xbc251277	-0.010075203
2	0x3d1bb31a	0.0380126
3	0xbb488547	-0.0030597018
4	0xbd563ad3	-0.052302193
5	0x3dbe414b	0.092897974
6	0x3a5c89a0	0.00084128417
7	0x3ceb252b	0.028704247
8	0x3cddaedf	0.027060924
9	0xbcd83532	-0.026392553
10	0x3de96e28	0.11397964
11	0x3d5f1860	0.054466605
12	0x3d2c4044	0.042053476
13	0x3d39aaf8	0.045329064
14	0x3c8a927c	0.016915552
15	0x3cd89657	0.026438875
16	0x3d81fd5c	0.063471526
17	0x3db61a4d	0.08891735
18	0x3c40fd50	0.011779144
19	0x3d5e21ff	0.05423164
20	0xbdfaf48e	-0.12253676
21	0xbc63417b	-0.013870592
22	0x3dc8343f	0.0977559
23	0x3d5d5ec2	0.054045446
24	0x3dc5d576	0.09659855
25	0xbdd9c16f	-0.10632598
26	0xbd4ad7b9	-0.049522135
27	0x3c5ae7b9	0.013360911
28	0x3dbd9a59	0.09257955
29	0x3df595a6	0.11991434
30	0xbddb235d	-0.107001044
31	0xbda88eb3	-0.08230343
32	0xbc618848	-0.013765402
33	0x3debc195	0.11511532
34	0x3e193df6	0.14965042
35	0xbde04ac8	-0.109517634
36	0xbdce19de	-0.100635275
37	0xbd3a995b	-0.045556407
38	0x3c99e35f	0.018785177
39	0x3e2e11cc	0.16998976
40	0xbe248680	-0.16066933
41	0xbddbd242	-0.10733463
42	0xbe0ff9ca	-0.1406013
43	0xbc4e3f8b	-0.012588392
44	0x3e20c872	0.15701464
45	0xbe440fdb	-0.19146673
46	0xbe16c950	-0.14725232
47	0xbd6f8705	-0.058478374
48	0xbd2352f9	-0.03987405
49	0x3dba5aa4	0.090993196
50	0x3f089ea8	0.5336709
51	0x3eb48938	0.3526094
52	0x3ed1954b	0.40934214
53	0x3ecf3724	0.40471756
54	0x3e9f4ab8	0.31111693
55	0x3ec3c074	0.38232768
56	0x3e647f19	0.22314109
57	0x3e5b276b	0.21401756
58	0x3e6aae82	0.22918132
59	0x3e371aa1	0.17881252
60	0x3e884df2	0.26621968
61	0x3e364686	0.1780034
62	0x3e39de11	0.18151118
63	0x3d9bade5	0.07601527
64	0xbc88edf8	-0.016715035
65	0x3e641831	0.22274853
66	0x3e344568	0.17604601
67	0x3e441a21	0.19150592
68	0x3c6851eb	0.014179687
69	0xbe7e1381	-0.24812128
70	0x3e5c5be2	0.21519426
71	0x3e7feeb5	0.24993403
72	0x3e79c290	0.24390626
73	0x3df3781c	0.118881434
74	0xbe124dbb	-0.14287464
75	0xbcb1e271	-0.021714421
76	0xbce4fed5	-0.027953545
77	0x3d4b2afd	0.049601544
78	0x3d554c83	0.05207492
79	0xbcf11b16	-0.02943186
80	0x3de4804c	0.11157283
81	0xbd497979	-0.04918811
82	0xbc5cabde	-0.013468711
83	0x3b8c6f1c	0.004285706
84	0xbd91083c	-0.07081649
85	0x3e22d822	0.1590276
86	0x3dc57cec	0.096429676
87	0x3d4a976f	0.049460825
88	0x393e4942	0.00018147103
89	0xbc826086	-0.015915167
90	0xbd705b2d	-0.058680702
91	0xbd8050f0	-0.062654376
92	0x3de380b6	0.11108534
93	0x3d667e71	0.056272928
94	0x3d4b398e	0.049615435
95	0xbe8e173a	-0.27752095
96	0xbe54534f	-0.20734905
97	0xbd87b92a	-0.06627114
98	0xbd85282e	-0.06501804
99	0x3bde400d	0.006782538
100	0xbdc0753f	-0.09397363
101	0xbd889633	-0.06669273
102	0xbd4a2970	-0.049355924
103	0x3c8a8818	0.016910598
104	0x3d799808	0.060936004
105	0xbd51e388	-0.05124238
106	0xbd81dc98	-0.06340903
107	0xbda012f3	-0.07816114
108	0xbd26bf0f	-0.04070955
109	0x3c6b53e1	0.01436326
110	0xbc9f614f	-0.01945558
111	0xbd3dfaf6	-0.046381913
112	0xbd5a50be	-0.053299658
113	0xbcc9fc75	-0.024656514
114	0x3c0dee5c	0.008662786
115	0xbd1c6797	-0.03818473
116	0xbcba5b0c	-0.022748493
117	0xbda9c1aa	-0.082888916
118	0xbda833b8	-0.082129896
119	0xbd1d6183	-0.038423073
120	0xbc7b6627	-0.015344179
121	0xbe005d34	-0.12535554
122	0xbe581d78	-0.21104991
123	0xbe4be176	-0.19910225
124	0xbe38cb4c	-0.18046302
125	0xbd88d7d6	-0.066817924
126	0xbde54834	-0.11195412
127	0xbe311350	-0.17292523
128	0xbde7c072	-0.11316003
129	0xbe0a6c96	-0.13517985
130	0xbcb814f6	-0.022470932
131	0xbd8bed91	-0.068324216
132	0xbd9bad79	-0.07601447
133	0xbd1979d8	-0.037469715
134	0xbd0c13b1	-0.034198467
135	0xbe53e93c	-0.2069444
136	0xbe1bf837	-0.15231405
137	0xbd563452	-0.05229599
138	0x3c0e6781	0.008691669
139	0xbd42e824	-0.047584668
140	0xbe2f8a28	-0.17142546
141	0xbe294a54	-0.1653226
142	0xbd91db38	-0.07121891
143	0x3cc2de3e	0.023787614
144	0x3d250ce4	0.040295497
145	0xbe2a911f	-0.16656922
146	0xbe34a003	-0.17639165
147	0xbe19dfe6	-0.15026817
148	0xbd28cc91	-0.041210715
149	0xbdb730a7	-0.089448266
150	0x3dc8c108	0.09802443
151	0x3d5c465c	0.053778037
152	0x3dc537e2	0.096297994
153	0x3dc15521	0.09440065
154	0x3e0fcaf0	0.14042258
155	0x3c430fb7	0.011905602
156	0xbb148773	-0.0022663742
157	0xbc05296e	-0.008127553
158	0x3c74e540	0.014947236
159	0x3d5fb374	0.0546145
160	0xbda53c6f	-0.080681674
161	0xbce3d673	-0.027812218
162	0xbd0a5c07	-0.03377917
163	0xbccc44d8	-0.024935171
164	0x3d05da81	0.032679085
165	0xbe143fd0	-0.14477468
166	0xbdcf8a20	-0.10133767
167	0xbc296b91	-0.010340587
168	0xbca83aad	-0.020535791
169	0x3d67fc72	0.056637235
170	0xbdae65f9	-0.085155435
171	0xbd106da0	-0.035260797
172	0x3d53d160	0.051713347
173	0x3d958c89	0.073021956
174	0x3deb6c41	0.11495257
175	0x3e43059c	0.19045109
176	0x3df2ee8c	0.118619055
177	0x3dd4e54c	0.103952974
178	0x3e06f37e	0.13178822
179	0x3de1a5c5	0.11017946
180	0x3e4da802	0.20083621
181	0x3e254f20	0.16143465
182	0x3e3e2231	0.1856773
183	0x3e7f7203	0.24945836
184	0x3e7c8c09	0.24662794
185	0x3e6ccd45	0.23125179
186	0x3e646f0b	0.22307985
187	0x3e590b1d	0.21195646
188	0x3e60a846	0.21939191
189	0x3e6a7816	0.22897372
190	0x3e97344b	0.29532084
191	0x3e8a5598	0.27018428
192	0x3e8614e2	0.26187807
193	0x3e6ed77f	0.23324393
194	0x3e380fc2	0.17974761
195	0x3e72b3d8	0.23701417
196	0x3e7438f8	0.23849857
197	0x3e2dbd08	0.16966641
198	0x3d894ded	0.06704316
199	0xbd033550	-0.032033265
200	0xbc8dcef5	-0.017310599
201	0xbc53f059	-0.012935721
202	0x3da89495	0.08231465
203	0x3d69d1b4	0.057084754
204	0xbc831e01	-0.016005518
205	0xbcc68b9d	-0.024236495
206	0x3c60c079	0.013717764
207	0x3d1f784c	0.038933083
208	0xbda3d9da	-0.08000536
209	0xbd6c26a1	-0.057654027
210	0x3cd68781	0.02618766
211	0x3cb7cfad	0.022437895
212	0xbd9060e9	-0.07049734
213	0xbe5496a6	-0.20760593
214	0xbe271f40	-0.16320515
215	0x3ddbaa9f	0.10725903
216	0x3d981886	0.074265525
217	0xbd1bc37c	-0.038028225
218	0xbe002f01	-0.1251793
219	0xbe2372a4	-0.159617
220	0x3dd9adfc	0.10628888
221	0x3e0e5db6	0.13902935
222	0x3dd42fe6	0.103606984
223	0xbcfe3269	-0.031029897
224	0xbdcfc335	-0.10144655
225	0xbdab4d38	-0.08364338
226	0xbe134f96	-0.14385828
227	0xbdbf5259	-0.093418784
228	0xbde31254	-0.1108748
229	0x3c8bc278	0.017060503
230	0x3c9cff6b	0.019164762
231	0xbc3a98c3	-0.01138896
232	0xbcd497fa	-0.025951374
233	0xbdb0b64a	-0.08628519
234	0xbc9d5929	-0.019207554
235	0xbca76e53	-0.020438349
236	0xbdebb1f6	-0.11508553
237	0xbd92f017	-0.071747
238	0xbdb2b86a	-0.087265804
239	0xbd8afa7d	-0.06786058
240	0xbcfb2aed	-0.030660117
241	0xbd5b8019	-0.05358896
242	0xbd8f1730	-0.069868445
243	0xbe0ab95c	-0.13547271
244	0xbd565ef3	-0.052336644
245	0xbd4eb61c	-0.05046664
246	0xbd893c5c	-0.06700966
247	0xbdf05a74	-0.117360026
248	0xbe1fd342	-0.15607932
249	0xbd85849e	-0.06519435
250	0x3d74dfcb	0.059783738
251	0x3c94c735	0.018161396
252	0x3dac1425	0.0840228
253	0x3dea239b	0.114325725
254	0x3d83de9b	0.06438943
255	0x3dc9e23a	0.098576024

nested_model.unit4.conv.bias f4 [12]
0	0xb67b470a	-3.7443265e-06
1	0xb7f9cb56	-2.9777799e-05
2	0x370b036f	8.285845e-06
3	0x363cc45a	2.8128475e-06
4	0xb523c06c	-6.100224e-07
5	0xb6e678df	-6.8686054e-06
6	0x3620c46e	2.3956195e-06
7	0x3693fcfc	4.4103926e-06
8	0xb6c15c26	-5.7625757e-06
9	0xb5ce7c50	-1.5384376e-06
10	0x35ddc4df	1.652308e-06
11	0xb64e6758	-3.0756546e-06

nested_model.unit4.bn.weight f4 [12]
0	0x3f1e2fb5	0.61791545
1	0x3f9ad4df	1.2096213
2	0x3f2b7e7e	0.66989887
3	0x3f53b5ac	0.82699084
4	0x3f153137	0.5827822
5	0x3f346d85	0.70479614
6	0x3f72d99f	0.94863313
7	0x3f3622f4	0.71147084
8	0x3f4c525e	0.7981318
9	0x3f5b22ab	0.85599774
10	0x3f716630	0.9429655
11	0x3f686906	0.90785253

nested_model.unit4.bn.bias f4 [12]
0	0xbe813214	-0.2523352
1	0xbec0330f	-0.37538955
2	0xbe3e6333	-0.18592529
3	0xbe3a6cd6	-0.1820558
4	0xbd1e528b	-0.038652938
5	0xbe2a56e2	-0.16634706
6	0xbe484943	-0.19559197
7	0xbe019faf	-0.1265857
8	0xbe7ec934	-0.2488144
9	0xbe5fcc6e	-0.21855327
10	0xbe4932ee	-0.19648334
11	0xbe40fbaa	-0.18846002

nested_model.unit4.bn.running_mean f4 [12]
0	0xbe3db463	-0.18525843
1	0xbf45c665	-0.7725585
2	0xbf94f06c	-1.1635871
3	0xbe37e6aa	-0.17959085
4	0xbec48e25	-0.38389698
5	0x3dc1613b	0.09442373
6	0xbfc80611	-1.5626851
7	0xbf53c792	-0.82726395
8	0xbcd96b2a	-0.026540358
9	0xbed9206d	-0.4240755
10	0xbeb14f28	-0.34630704
11	0xbef2894f	-0.47370383

nested_model.unit4.bn.running_var f4 [12]
0	0x3ed1c0ba	0.4096735
1	0x3f25f7fe	0.6483153
2	0x3f1ae3d0	0.60503864
3	0x3f2774b1	0.6541243
4	0x3f11fbbf	0.5702476
5	0x3f02cd0f	0.51094145
6	0x3f2dec23	0.6793844
7	0x3f5ad7b8	0.8548541
8	0x3f0607b2	0.5235549
9	0x3f3b89a0	0.73256874
10	0x3f23de81	0.6401139
11	0x3f15b512	0.58479416

nested_model.net.0.conv.weight f4 [12, 3, 5, 5]
0	0x3e4fa60a	0.20278183
1	0x3e88f9fb	0.2675322
2	0x3dab2042	0.08355762
3	0x3e10c5f8	0.14138019
4	0xbd88a177	-0.06671422
5	0x3e162e09	0.14665999
6	0xbe840050	-0.25781488
7	0x3d94f5f3	0.072734736
8	0x3e787c06	0.24266061
9	0xbd9d3b06	-0.076772735
10	0x3e2242dd	0.15845819
11	0x3e07b8f1	0.13254143
12	0xbe38bbb7	-0.18040358
13	0xbe7cdc00	-0.24693298
14	0xbea0d600	-0.3141327
15	0xbd932481	-0.07184697
16	0x3e32c07a	0.17456236
17	0xbea04361	-0.31301406
18	0xbdf75a09	-0.1207772
19	0x3cbf081b	0.023319295
20	0xbc9b17ed	-0.018932307
21	0x3b9102ef	0.0044253985
22	0x3c49fae5	0.012327884
23	0xbd789a53	-0.06069405
24	0xbcf46837	-0.02983485
25	0xbe5a9d33	-0.21349029
26	0x3d886848	0.06660515
27	0xbdfdc7a3	-0.12391593
28	0x3e2ea814	0.17056304
29	0x3e059db6	0.13048443
30	0xbd0a1a55	-0.03371652
31	0xbee4cd08	-0.44687676
32	0x3e3b4c11	0.18290736
33	0x3e8d0348	0.27541566
34	0xbb8d3b18	-0.004310023
35	0x3dd22b95	0.10262219
36	0x3e228bcc	0.15873641
37	0x3b478e7c	0.0030449918
38	0xbaeff031	-0.0018305836
39	0xbc32a82b	-0.010904352
40	0xbe5008bb	-0.2031583
41	0x3db66fb1	0.08908022
42	0xbe01a558	-0.1266073
43	0x3e057265	0.1303192
44	0x3db94de2	0.09048058
45	0xbd94e744	-0.07270673
46	0xbd98e009	-0.07464606
47	0x3dc0ab69	0.09407694
48	0x3c9271c5	0.017876515
49	0xbdc6e8cb	-0.097123705
50	0xbdfbb338	-0.12290043
51	0xbd6b0f52	-0.057387657
52	0xbdae0ad5	-0.0849816
53	0xbd690347	-0.05688789
54	0xbe07e306	-0.13270196
55	0x3d86fad4	0.065908104
56	0xbf01a10b	-0.5063636
57	0x3d957667	0.07297974
58	0x3eac7bcd	0.33688203
59	0x3d0e23a1	0.034701947
60	0x3e06776f	0.13131498
61	0x3d009955	0.03139623
62	0xbdb62af1	-0.08894909
63	0x3e0f1767	0.13973771
64	0xbe033718	-0.12813985
65	0xbdd5c1ef	-0.104373805
66	0x3e7b387f	0.2453327
67	0xbdaafe73	-0.083493136
68	0x3dd1178e	0.10209571
69	0x3cebdab0	0.028790802
70	0x3de1b385	0.11020569
71	0xbc9f64ab	-0.019457182
72	0x3cad3195	0.021141807
73	0x3e112cfc	0.14177316
74	0x3d249dc7	0.04018953
75	0x3dfad64e	0.122479066
76	0x3e629e30	0.22130656
77	0x3d924990	0.07142937
78	0x3da8912e	0.08230816
79	0xbc674f8b	-0.014118086
80	0xbd8a3f57	-0.06750362
81	0x3e01550b	0.12630098
82	0x3de8a25f	0.11359095
83	0xbe22700c	-0.15863055
84	0xbd38124e	-0.04493933
85	0xbdbe2c91	-0.09285844
86	0x3e36c8f5	0.17850097
87	0xbd49a1f9	-0.049226735
88	0xbe790199	-0.24317016
89	0xbe13b120	-0.14423037
90	0xbb9b5c3c	-0.00474122
91	0x3e2958f6	0.16537842
92	0x3d33f3b3	0.04393358
93	0x3d355f9a	0.044280626
94	0x3d5b14e5	0.053486723
95	0xbdeac235	-0.11462823
96	0x3e24fd97	0.16112362
97	0x3e317b3c	0.17332166
98	0x3d9a9f67	0.07549935
99	0x3dcd8a99	0.10036201
100	0x3d22d0c9	0.039749894
101	0x3ddb22d9	0.10700006
102	0xbdd5b9ae	-0.10435806
103	0xbeb3045d	-0.34964266
104	0xbe91e944	-0.2849828
105	0x3d97cb57	0.07411831
106	0x3d9ffc62	0.0781181
107	0xbdf74de4	-0.12075403
108	0xbe2032a7	-0.15644322
109	0xbe414169	-0.18872608
110	0xbca055ef	-0.019572226
111	0x3e6dfdb7	0.23241316
112	0x3d8e0d05	0.06936077
113	0xbeb21e51	-0.34788755
114	0xbe4b6b0e	-0.19865057
115	0x3ce61125	0.028084347
116	0x3df6a8a4	0.120438844
117	0x3d00aa84	0.031412616
118	0xbe77b81f	-0.2419133
119	0xbe17a925	-0.14810617
120	0x3c386df8	0.011256687
121	0x3da7279a	0.0816185
122	0xbd403fec	-0.04693596
123	0xbd693945	-0.056939382
124	0xbb6a5475	-0.0035755907
125	0x3d488c42	0.048961885
126	0x3e2e74ee	0.17036793
127	0xbe088916	-0.13333544
128	0xbe752fe5	-0.23944052
129	0xbe227df5	-0.15868361
130	0x3e129a7c	0.14316744
131	0x3e3b5c73	0.18296985
132	0x3d5d5369	0.054034624
133	0xbe3279b3	-0.17429237
134	0x3d1cfde8	0.03832808
135	0x3d966056	0.07342593
136	0x3e4993e5	0.19685324
137	0x3d992524	0.07477787
138	0xbe6bdcda	-0.23033467
139	0xbdf5f021	-0.120086916
140	0xbd947210	-0.07248318
141	0x3e7f3957	0.24924217
142	0x3e239be7	0.15977441
143	0xbe08703a	-0.13324061
144	0xbbc2ef3e	-0.00594893
145	0x3df02556	0.11725871
146	0x3ddde6dc	0.108350486
147	0x3d87f6ac	0.06638846
148	0x3c86910b	0.016426584
149	0xbd3d3f8b	-0.046203177
150	0x3c8e7d7a	0.017393816
151	0x3e57e68c	0.2108404
152	0x3e436246	0.19080457
153	0x3da6ef9b	0.0815117
154	0x3e2bf90b	0.16794221
155	0x3d87394e	0.06602727
156	0x3e661b5f	0.22471379
157	0x3e543e9e	0.20727012
158	0x3e14843a	0.14503565
159	0x3d4677f5	0.048454244
160	0x3e45f959	0.193334
161	0xbd8eb02a	-0.069671944
162	0xbec3a492	-0.38211495
163	0x3dc71e24	0.09722546
164	0x3d3b1b60	0.045680404
165	0x3b37b75e	0.002803288
166	0xbd2a5f95	-0.04159506
167	0xbe81bafb	-0.25337967
168	0xbe6696a4	-0.22518402
169	0xbe34d06e	-0.17657635
170	0xbbe3e21a	-0.0069544436
171	0xbdf2b289	-0.11850459
172	0xbd1b3dfe	-0.037900917
173	0xbcdafb4c	-0.026731156
174	0xbdf3803a	-0.11889692
175	0xbd05284d	-0.032509137
176	0x3e3c9bb3	0.1841877
177	0x3c0df3d3	0.008664089
178	0xbd22935e	-0.03969132
179	0x3bc2be20	0.005943075
180	0x3e15acef	0.1461675
181	0x3dc82fab	0.09774717
182	0x3e224f8d	0.15850659
183	0x3ca79960	0.020458877
184	0xbe03559f	-0.1282563
185	0x3e709a5f	0.23496388
186	0xbd8ab236	-0.06772272
187	0xbef5ce38	-0.48008895
188	0x3d329f59	0.043608997
189	0xbdda09bb	-0.10646387
190	0xbcb8e670	-0.022570819
191	0xbe00c0ba	-0.1257352
192	0xbe5de0c1	-0.21667768
193	0xbd674815	-0.056465227
194	0x3c8ce1cd	0.017197514
195	0x3cf7e478	0.03026031
196	0xbc5776c8	-0.013150878
197	0xbe0b1bdd	-0.13584848
198	0x3da4010c	0.08008012
199	0x3d700d34	0.05860634
200	0xbd96342e	-0.07334171
201	0xbd557b88	-0.05211976
202	0xbeb6b2dc	-0.35683334
203	0xbe461d8d	-0.1934721
204	0xbdd74188	-0.10510546
205	0xbd4edaa5	-0.050501484
206	0xbd489ff4	-0.04898067
207	0x3cd5d36e	0.026101794
208	0xbdb4925c	-0.08816978
209	0xbd582514	-0.052769735
210	0x3e28b057	0.16473518
211	0x3d33fbeb	0.04394142
212	0xbe59e231	-0.21277691
213	0x3e7c104e	0.24615595
214	0x3c5497a5	0.012975608
215	0xbd63aaaa	-0.05558268
216	0x3cec3e34	0.028838255
217	0x3c6435b3	0.0139288185
218	0x3e021b16	0.12705645
219	0x3e06b3e0	0.13154554
220	0x3cfbe326	0.030747961
221	0xbb66bfb1	-0.0035209472
222	0x3e44c352	0.19215134
223	0x3e49b965	0.19699629
224	0x3dffbbb6	0.12486975
225	0xbde39c17	-0.11113756
226	0x3d81303c	0.06308028
227	0xbe27aa00	-0.16373444
228	0xbe87628b	-0.2644237
229	0xbe5f5795	-0.21810754
230	0xbca87f3e	-0.020568486
231	0x3cc33eab	0.023833593
232	0x3e7536d7	0.23946701
233	0x3e15bbe3	0.14622454
234	0x3cd509ae	0.026005592
235	0xbd753445	-0.0598643
236	0xbe315fbb	-0.17321675
237	0x3dde5c6f	0.10857474
238	0x3dbfd084	0.09365943
239	0x3d27a46b	0.040928286
240	0xbe28082c	-0.16409367
241	0xbe026459	-0.12733592
242	0x3cf683e2	0.030092184
243	0x3dc362fe	0.09540366
244	0x3e0bc93e	0.13650987
245	0x3db1e13c	0.08685538
246	0x3e0423d8	0.12904298
247	0x3da618ab	0.08110174
248	0x3c6d1383	0.014469984
249	0x3d94eaf1	0.07271374
250	0x3db55085	0.088532485
251	0x3e2d0d5c	0.16899627
252	0x3e0e9e83	0.13927655
253	0x3d5873b8	0.052844733
254	0xbb8acaed	-0.0042356164
255	0xbd73cfeb	-0.059524458

nested_model.net.0.conv.bias f4 [12]
0	0xb872035a	-5.7700418e-05
1	0xb596f0ee	-1.1245991e-06
2	0x37a7bc7f	1.9995727e-05
3	0x3604a030	1.9762774e-06
4	0xb6aef760	-5.2144023e-06
5	0xb498ac80	-2.8437717e-07
6	0xb766f185	-1.3765301e-05
7	0x3720a076	9.574103e-06
8	0xb7de946e	-2.653358e-05
9	0x35860033	9.983836e-07
10	0x375373b9	1.2603524e-05
11	0xb6e0ce65	-6.6997477e-06

nested_model.net.0.bn.weight f4 [12]
0	0x3f84fd39	1.0389777
1	0x3f1232a1	0.57108504
2	0x3f6ec728	0.9327264
3	0x3f2c4a84	0.673012
4	0x3f1372c3	0.5759699
5	0x3e56e134	0.20984346
6	0x3eebca6b	0.4605287
7	0x3f45ea1f	0.77310365
8	0x3f28aec5	0.6589168
9	0x3e88da12	0.26728874
10	0x3eed610e	0.4636311
11	0x3f1b50c9	0.60670143

nested_model.net.0.bn.bias f4 [12]
0	0x3f7db038	0.99097013
1	0xbe3589d4	-0.17728359
2	0x3e92d62d	0.28679028
3	0x3e09733f	0.13422869
4	0xbde653b3	-0.11246433
5	0x3d914143	0.07092526
6	0x3dafae12	0.08578123
7	0x3e3aac9d	0.18229909
8	0xbc99d8d5	-0.018780151
9	0xbdff04ff	-0.12452125
10	0xbdd44e6e	-0.10366522
11	0xbe52bd40	-0.20580006

nested_model.net.0.bn.running_mean f4 [12]
0	0x3d1b8870	0.037971914
1	0xbd96ed36	-0.07369463
2	0xbd1f08c7	-0.03882673
3	0xbd9b6512	-0.07587637
4	0x3e5676db	0.20943777
5	0x3f57adae	0.8424939
6	0xbe31ac4f	-0.17350887
7	0xbb4e1e7a	-0.003145127
8	0xbc934ec3	-0.017981892
9	0x3ecd9559	0.40153006
10	0xbe787340	-0.24262714
11	0xbfb57f4f	-1.4179476

nested_model.net.0.bn.running_var f4 [12]
0	0x3cf799dd	0.030224735
1	0x3eaeae70	0.3411746
2	0x3d77fcff	0.06054401
3	0x3df7ea80	0.12105274
4	0x3dd0a28b	0.101872526
5	0x3ef805d2	0.4844194
6	0x3dafe673	0.085888766
7	0x3e117271	0.14203812
8	0x3e7aaac3	0.24479203
9	0x3e890667	0.26762697
10	0x3dc26ab4	0.09493008
11	0x3f7a22da	0.9770943

nested_model.net.1.conv.weight f4 [12, 12, 5, 5]
0	0x274dd050	2.8562391e-15
1	0xa5d9d460	-3.778741e-16
2	0xa583b03d	-2.28443e-16
3	0xa7ecf5bd	-6.576959e-15
4	0x28ad4b66	1.9239557e-14
5	0x24a59cca	7.1822954e-17
6	0x260b7cd1	4.839447e-16
7	0x25e5ac7b	3.9842045e-16
8	0xa70fa318	-1.993365e-15
9	0x28f64a95	2.7343831e-14
10	0xa7a13eef	-4.475471e-15
11	0x27962850	4.167707e-15
12	0x25df3525	3.8720346e-16
13	0xa57d8a4a	-2.1991106e-16
14	0x25ea659b	4.066138e-16
15	0xa8af2eee	-1.9449255e-14
16	0x276227cc	3.1385374e-15
17	0xa30c18eb	-7.594692e-18
18	0xa6b299ed	-1.2392953e-15
19	0xa82bab8e	-9.529607e-15
20	0xaa14bcc4	-1.3210532e-13
21	0xa68cef71	-9.779352e-16
22	0xa5daa6f4	-3.7930104e-16
23	0xa7dd7103	-6.146235e-15
24	0xa8f4e0fd	-2.7187015e-14
25	0x80005c77	-3.317e-41
26	0x00003335	1.837e-41
27	0x8daa0ac1	-1.0479648e-30
28	0x9387f19d	-3.431704e-27
29	0x95a45426	-6.6371835e-26
30	0x000095e1	5.3766e-41
31	0x8000290b	-1.4723e-41
32	0x8ee5e943	-5.667748e-30
33	0x932bfbac	-2.1707318e-27
34	0x13a9c187	4.285243e-27
35	0x000043dd	2.4345e-41
36	0x80004070	-2.3116e-41
37	0x0e173987	1.8639885e-30
38	0x911a3e77	-1.2167706e-28
39	0x119d1096	2.4780454e-28
40	0x8000413c	-2.3402e-41
41	0x80008cf3	-5.0563e-41
42	0x0e836a5a	3.2396406e-30
43	0x904cd7fb	-4.039829e-29
44	0x0d83e531	8.128674e-31
45	0x80002776	-1.4156e-41
46	0x80005725	-3.1262e-41
47	0x0d47d6f5	6.1580355e-31
48	0x8ff8bafe	-2.4526715e-29
49	0x0cc7d946	3.0791571e-31
50	0x2259d0b1	2.9519464e-18
51	0x9d41f098	-2.5667721e-21
52	0xa068ed2d	-1.9729639e-19
53	0xa3e969d7	-2.5306736e-17
54	0xa3a6ed0a	-1.8098146e-17
55	0x23e3eb79	2.4711116e-17
56	0x200918b0	1.161252e-19
57	0xa08f9a15	-2.4327105e-19
58	0xa4efd34f	-1.040077e-16
59	0x24d33ed3	9.161309e-17
60	0x2216dbb2	2.0445096e-18
61	0x9f32af8d	-3.7838178e-20
62	0xa1cf6d6d	-1.405583e-18
63	0x25d79c9a	3.7402672e-16
64	0x2696db4c	1.0467781e-15
65	0xa325cbbc	-8.98781e-18
66	0xa39ce79d	-1.7011646e-17
67	0xa571959d	-2.0954109e-16
68	0x26335fb6	6.2232813e-16
69	0x2581234d	2.2401854e-16
70	0xa51894c1	-1.3234298e-16
71	0xa5a1efe0	-2.8091594e-16
72	0xa5e815a6	-4.0260254e-16
73	0xa50d1666	-1.223739e-16
74	0xa2ab91a3	-4.650384e-18
75	0x880e9b6f	-4.291428e-34
76	0x8aceb27c	-1.9904217e-32
77	0x0eb144c8	4.3700103e-30
78	0x8db40363	-1.1094172e-30
79	0x0997ec59	3.6574188e-33
80	0x0db92da6	1.1412495e-30
81	0x139e5d9a	3.9977106e-27
82	0x12aee156	1.1036493e-27
83	0x11971b75	2.384052e-28
84	0x8eddf5b3	-5.4717306e-30
85	0x897c9778	-3.0404617e-33
86	0x139ed905	4.0098805e-27
87	0x1450f920	1.05504476e-26
88	0x128d04fe	8.899582e-28
89	0x10a98e9e	6.6878483e-29
90	0x8793e34f	-2.2251702e-34
91	0x124b9435	6.4238185e-28
92	0x12e7f564	1.4638643e-27
93	0x12e05560	1.4157434e-27
94	0x0fad7c59	1.7107014e-29
95	0x09258c1e	1.9927035e-33
96	0x8fc2b1a6	-1.9198305e-29
97	0x91a66072	-2.624962e-28
98	0x921dc695	-4.9785236e-28
99	0x88fef798	-1.5345278e-33
100	0x9a5735b6	-4.4504345e-23
101	0x9a010416	-2.6679875e-23
102	0x9c8ffbe7	-9.528061e-22
103	0x9e0dd3d0	-7.50828e-21
104	0x9e534cef	-1.11861565e-20
105	0x99c6afdc	-2.0543749e-23
106	0x986132ac	-2.9106151e-24
107	0x9b97f804	-2.514113e-22
108	0x9f04dff4	-2.8137337e-20
109	0x9ecb7a7d	-2.1544121e-20
110	0x94ff60bd	-2.5786576e-26
111	0x9222269b	-5.116577e-28
112	0x9643c6d2	-1.5814711e-25
113	0x9bd75182	-3.562144e-22
114	0x9b8786f4	-2.2421088e-22
115	0x93442f8e	-2.4762124e-27
116	0x8c2ad40d	-1.3160135e-31
117	0x115d4cf1	1.7457535e-28
118	0x1860847b	2.9018207e-24
119	0x17457939	6.380714e-25
120	0x94d1bcf9	-2.1178144e-26
121	0x0fa62a36	1.6385123e-29
122	0x1174ac34	1.930127e-28
123	0x18dad0d7	5.6562554e-24
124	0x1882f2c8	3.384936e-24
125	0x0000ad12	6.2086e-41
126	0x80009721	-5.4215e-41
127	0x00001305	6.823e-42
128	0x8000546b	-3.0283e-41
129	0x800058b5	-3.1822e-41
130	0x000003b9	1.335e-42
131	0x000052c4	2.9691e-41
132	0x00002da5	1.6374e-41
133	0x8000548a	-3.0327e-41
134	0x80002199	-1.2053e-41
135	0x8000949b	-5.331e-41
136	0x8000aac9	-6.1266e-41
137	0x80000407	-1.445e-42
138	0x80007f53	-4.5675e-41
139	0x000063c1	3.5785e-41
140	0x8000a07e	-5.7574e-41
141	0x800056b9	-3.111e-41
142	0x000068fd	3.7663e-41
143	0x80000eb4	-5.274e-42
144	0x80001deb	-1.0733e-41
145	0x00000047	1e-43
146	0x0000ac51	6.1815e-41
147	0x8000ac7a	-6.1873e-41
148	0x000098f4	5.4869e-41
149	0x00002e17	1.6534e-41
150	0x1d8c4f82	3.71399e-21
151	0x1e13edca	7.831289e-21
152	0x1ead4ba8	1.8348378e-20
153	0x9fc366d4	-8.275583e-20
154	0x1eba54d0	1.9728594e-20
155	0x1e6d13c2	1.2550761e-20
156	0x1e593f2e	1.150095e-20
157	0x1f90b28e	6.1281766e-20
158	0x200bf89a	1.1856013e-19
159	0x1fa2dafc	6.897195e-20
160	0x1e9bb0c1	1.6484367e-20
161	0x1e636f6b	1.2040321e-20
162	0x1f3c3ed0	3.9862506e-20
163	0x1fcb80f2	8.6187166e-20
164	0x1f8a0c27	5.846538e-20
165	0x1e334ee2	9.492494e-21
166	0x1e2259dd	8.594792e-21
167	0x1d882ff9	3.6048503e-21
168	0x1dd8d18f	5.7391402e-21
169	0x9d54f072	-2.8182274e-21
170	0x9f1c005a	-3.3034576e-20
171	0x9f7a5462	-5.300936e-20
172	0x9dc4c371	-5.208285e-21
173	0x9eb3adb9	-1.9024212e-20
174	0x9f71f3df	-5.123546e-20
175	0xa08c702b	-2.379115e-19
176	0x9fb48429	-7.6451606e-20
177	0x9aab8bd4	-7.094985e-23
178	0x96a453fd	-2.6548633e-25
179	0x960f6653	-1.1583736e-25
180	0x208d441e	2.3931405e-19
181	0x1f784c3b	5.25791e-20
182	0x1a8af9fc	5.7479334e-23
183	0x13e443b0	5.7622037e-27
184	0x938a8116	-3.4963386e-27
185	0x2363c5f6	1.23476145e-17
186	0x20943d99	2.5112937e-19
187	0x1cdfd32e	1.4811491e-21
188	0x17a5b573	1.0708679e-24
189	0x95854367	-5.3824614e-26
190	0x22e52289	6.210714e-18
191	0x1e9d034f	1.662439e-20
192	0x1cee4cc6	1.5769364e-21
193	0x998bf961	-1.4472986e-23
194	0x9895cea3	-3.8724247e-24
195	0x1f1da495	3.3382182e-20
196	0x1a4690e2	4.1062476e-23
197	0x99f0d496	-2.4901281e-23
198	0x9909717a	-7.1056504e-24
199	0x99d1dc45	-2.169906e-23
200	0x99028d0b	-6.749326e-24
201	0x19ab06fb	1.7683805e-23
202	0x1a26ebfa	3.4518616e-23
203	0x181f9d21	2.0629598e-24
204	0x97a867d4	-1.0882955e-24
205	0x15e2ebd6	9.1652757e-26
206	0x188b69ee	3.603762e-24
207	0x19a3d246	1.6938734e-23
208	0x18185c77	1.9692222e-24
209	0x171072b7	4.66737e-25
210	0x12306859	5.5664426e-28
211	0x14f24d75	2.4466307e-26
212	0x1656ed5f	1.7361683e-25
213	0x147658be	1.24373274e-26
214	0x1300bb56	1.6248235e-27
215	0x0d900f31	8.878342e-31
216	0x104a82cd	3.993824e-29
217	0x115a7948	1.723454e-28
218	0x0e8fbb90	3.5432838e-30
219	0x0f8b4842	1.3734291e-29
220	0x1317ac66	1.9143878e-27
221	0x15758572	4.9582626e-26
222	0x16b6df5c	2.9544645e-25
223	0x13847ece	3.3446524e-27
224	0x1405e638	6.760187e-27
225	0x00009258	5.2498e-41
226	0x000048e8	2.6154e-41
227	0x80000787	-2.7e-42
228	0x00000316	1.107e-42
229	0x800051d9	-2.9361e-41
230	0x80009e1a	-5.6716e-41
231	0x0000225c	1.2326e-41
232	0x800074b6	-4.1868e-41
233	0x800061ca	-3.508e-41
234	0x00003673	1.9533e-41
235	0x00002e9d	1.6722e-41
236	0x00001bd0	9.977e-42
237	0x00005c05	3.301e-41
238	0x00002281	1.2378e-41
239	0x00002f52	1.6975e-41
240	0x00004deb	2.7952e-41
241	0x0000a7ac	6.015e-41
242	0x0000a297	5.8326e-41
243	0x00007e73	4.5361e-41
244	0x800089df	-4.9459e-41
245	0x000018e1	8.925e-42
246	0x80004712	-2.5495e-41
247	0x80006bc2	-3.8656e-41
248	0x0000871e	4.8471e-41
249	0x00008717	4.8461e-41
250	0x00001751	8.364e-42
251	0x80009a8c	-5.5441e-41
252	0x00003921	2.0494e-41
253	0x00008fd0	5.159e-41
254	0x0201793b	9.512215e-38
255	0x00005155	2.9176e-41

nested_model.net.1.conv.bias f4 [12]
0	0x00003b10	2.1188e-41
1	0xb652fa60	-3.1438176e-06
2	0x371e2d39	9.428063e-06
3	0x3681b148	3.865138e-06
4	0x36c94085	5.997778e-06
5	0xb6941e3c	-4.4142635e-06
6	0x359a905d	1.1515909e-06
7	0x35981ab3	1.1332653e-06
8	0xb649be0c	-3.0061956e-06
9	0xb6b103ad	-5.275439e-06
10	0x367dfdec	3.784774e-06
11	0x35efa205	1.7854042e-06

nested_model.net.1.bn.weight f4 [12]
0	0x38f3ee90	0.00011631579
1	0x3ec015dd	0.3751668
2	0x3e8c87c5	0.27447334
3	0x3f335177	0.7004618
4	0x3edb45ad	0.42826596
5	0x3ec4addc	0.38413894
6	0x3ef61caf	0.4806876
7	0x3eb1fe4a	0.3476432
8	0x3efd86c5	0.49516883
9	0x3e857201	0.2606354
10	0x3ea7cb82	0.32772452
11	0x3f299404	0.6624148

nested_model.net.1.bn.bias f4 [12]
0	0xbbc6a9c7	-0.0060627195
1	0xbe7bb074	-0.2457903
2	0xbe41d013	-0.1892703
3	0xbe91e907	-0.28498098
4	0xbe3c3152	-0.18378189
5	0xbe7aea7e	-0.24503514
6	0xbe162aae	-0.14664719
7	0xbe0bae60	-0.13640738
8	0xbe824361	-0.2544203
9	0xbe006341	-0.12537862
10	0xbe960864	-0.29303277
11	0xbe94cea9	-0.2906392

nested_model.net.1.bn.running_mean f4 [12]
0	0xaa2a093a	-1.5102234e-13
1	0x3f10f41a	0.5662247
2	0xbf23bbf8	-0.6395869
3	0xbfdeac98	-1.7396421
4	0xbfaf3bcb	-1.3690122
5	0xbfb5ce39	-1.4203559
6	0xbf9bad50	-1.2162266
7	0xbf036098	-0.51319265
8	0xbf6eec04	-0.9332888
9	0xc00fa49f	-2.2444227
10	0x3fa92070	1.3213024
11	0xbf5b7bcd	-0.8573578
