experiment_outputs/feat_norm_outputs/2/featNRO_Th_tanh_unfreeze_no_augment.model (torch_old, 109500 bytes, 62 tensors)

nested_model.unit1.conv.weight f4 [12, 3, 5, 5]
000000 ec 8f 2d 3e 50 a1 8a 3e 25 97 a7 3d f3 d6 1c 3e
       0.16949433 0.27076197 0.081831254 0.15316372
000010 80 2b ba bd 39 f7 00 3e 92 20 8c be df 15 41 3d
       -0.09090328 0.12594308 -0.273686 0.04714
000020 60 2b 82 3e 39 fb 53 bd a3 91 07 3e c6 2c ff 3d
       0.25423717 -0.051753256 0.1323915 0.12459712
000030 25 51 27 be 44 3a 57 be cf 19 83 be 04 0d 80 bd
       -0.16339548 -0.2101832 -0.25605628 -0.062524825
000040 c1 65 4b 3e 43 50 a3 be 24 15 e4 bd c5 c8 a2 3c
       0.19863035 -0.31897172 -0.11136845 0.019871125
000050 15 76 b4 bc 0a c1 5c 3c 24 93 6e 3c e2 a0 84 bd
       -0.022028962 0.0134737585 0.014561448 -0.064759985
000060 95 c9 50 bd 09 41 3b be 84 04 b4 3d cc 58 02 be
       -0.050973494 -0.18286528 0.08789924 -0.12729186
000070 9b d5 51 3e a9 27 06 3e db 1d cb bc 50 8f e1 be
       0.2049164 0.13101067 -0.02479451 -0.4405465
000080 ae c9 23 3e 3a 7d 93 3e 71 20 bc 3a 14 f5 89 3d
       0.15994903 0.28806478 0.001435293 0.06736198
000090 ef 70 20 3e f4 d0 f5 bb 01 9c 5c bc 4f 12 93 3c
       0.15668081 -0.007501716 -0.013464929 0.017953066
0000a0 9c 6c 53 be 86 be ad 3d 5a 7c 47 be 95 8a d0 3d
       -0.206469 0.08483605 -0.1948103 0.101826824
0000b0 5e 9a aa 3d d6 99 94 bd 7d 0d 95 bd c0 57 44 3d
       0.083302245 -0.072559044 -0.07277963 0.047935247
0000c0 7f 1f ec 3b 15 a0 f1 bd 38 6c f9 bd ee d1 98 bd
       0.007205903 -0.11798111 -0.12178844 -0.07461916
0000d0 18 64 15 be 51 e4 bd bd c2 ba 35 be dc ae 39 3d
       -0.14588964 -0.092720635 -0.17747024 0.045332775
0000e0 17 8b f6 be e3 5b 83 3d 4d 91 ab 3e f0 5d 9b 3c
       -0.48152992 0.064140104 0.33509293 0.018965691
0000f0 ff 6b e7 3d cd f1 9f 3d fe 0c 76 bd 2e 0c 02 3e
       0.112998955 0.07809792 -0.060070984 0.12699959
000100 56 ee c5 bd 78 ab 8d bd 56 48 98 3e ca 49 cc bd
       -0.096645996 -0.06917471 0.29742688 -0.09975012
000110 d1 4c bb 3d e7 fd 3b 3d d3 c1 ed 3d d6 ae a4 3a
       0.09145511 0.045896437 0.11609235 0.0012564312
000120 65 ef 23 3c 04 70 13 3e 7a 1b 1e 3d fc 6f e4 3d
       0.010005807 0.143982 0.038600422 0.11154172
000130 7e dc 52 3e f8 bf a4 3d 03 80 dd 3d 40 de ab bb
       0.20591924 0.08044428 0.10815432 -0.005245
000140 da 79 6b bd b3 3c d9 3d f5 67 e4 3d 40 a9 25 be
       -0.057489254 0.106072806 0.11152641 -0.16177845
000150 3d c3 63 bd ef 37 38 bd 89 1c 2d 3e 95 cb 80 bd
       -0.055606116 -0.044975217 0.16905417 -0.0628883
000160 db c5 82 be d3 64 30 be 03 7b 6a 3d 01 eb 2b 3e
       -0.25541577 -0.17225961 0.05724622 0.16788866
000170 58 de b5 3c ef 4c c0 3c a5 37 7c 3c f6 36 74 bd
       0.022200748 0.023474185 0.015394126 -0.059622727
000180 48 b4 3c 3e 95 39 37 3e c0 62 59 3d c8 20 8a 3d
       0.18428147 0.1789306 0.05307269 0.06744534
000190 75 56 15 3c 73 5a a7 3d 61 95 c6 bd 2a 86 a7 be
       0.009114851 0.08171549 -0.096964605 -0.32719547
0001a0 0a 18 88 be 7d 42 81 3d 07 25 34 3d d4 cf 09 be
       -0.2658084 0.0631151 0.043980625 -0.13458186
0001b0 7f 0b 25 be 54 f3 45 be 6f fc c7 bb 0b eb 47 3e
       -0.16117667 -0.19331104 -0.0061030905 0.19523256
0001c0 14 35 1f 3d 99 34 ba be 7e 9b 69 be 8f d5 5c 3d
       0.03886898 -0.36368254 -0.22813222 0.053914603
0001d0 29 85 b5 3d 42 92 57 bc 62 db 83 be 92 0c 38 be
       0.08863289 -0.013157429 -0.25753313 -0.17973545
0001e0 4b a3 d5 3c 3f 4a 7e 3d de ce 95 bd c8 23 9c bd
       0.02607884 0.062082525 -0.073148474 -0.07624012
0001f0 02 3c d1 bc bf 81 4d 3d 7c 25 25 3e 89 10 f5 bd
       -0.02554131 0.050172564 0.1612758 -0.119660445
000200 7a 95 55 be fb 23 04 be 63 cd 2f 3e 27 d3 32 3e
       -0.20857802 -0.1290435 0.17168193 0.1746336
000210 39 b8 4b 3d ef f5 36 be d0 18 14 3d 2a 40 05 3e
       0.049736235 -0.17867254 0.036156476 0.13012758
000220 cb 92 48 3e 4b f9 8a 3d 67 f9 74 be da aa 1a be
       0.19587247 0.0678583 -0.23923264 -0.15104237
000230 7b 6f d1 ba a4 18 84 3e a7 f9 13 3e c5 d8 0b be
       -0.0015978658 0.2580005 0.14450704 -0.1365691
000240 44 ff ff bc e7 84 3a 3e 05 37 fa 3d 1f d9 79 3d
       -0.03124965 0.1821476 0.122175254 0.06099808
000250 31 25 47 3c 70 dd 61 bd ea 6e 7c 3c f9 3a 67 3e
       0.012154863 -0.05514282 0.015407303 0.2258109
000260 0c 78 4b 3e 25 fe 18 3d 45 74 19 3e b4 56 5a 3d
       0.19870013 0.037351746 0.1498576 0.053305343
000270 84 78 60 3e 45 47 52 3e 0d 29 cb 3d 09 bf 0a 3d
       0.21920973 0.20535 0.09919939 0.03387359
000280 76 c4 39 3e 8f 04 8e bd 5e 7f bc be 47 0d ae 3d
       0.1814135 -0.06934463 -0.36815923 0.08498626
000290 88 f8 56 3d 24 0d 65 3b 88 5d 00 bd 96 5e 84 be
       0.05248311 0.003495046 -0.0313392 -0.25853413
0002a0 14 f1 80 be eb e9 51 be 0c 64 02 3d 93 51 c6 bd
       -0.25183928 -0.20499389 0.031833693 -0.09683528
0002b0 0f 33 fa bc 0c c7 14 3d 3c a8 b6 bd 83 e3 8d bc
       -0.030541925 0.03632264 -0.08918807 -0.0173204
0002c0 c8 ff 4c 3e 49 0e f5 3c ce 43 68 bd be 4e d3 3c
       0.20019448 0.029914038 -0.05670529 0.025794383
0002d0 9c b2 22 3e 86 3e cc 3d 8b 4d 1d 3e 11 aa 44 3b
       0.15888447 0.09972863 0.15361612 0.0030008594
0002e0 9e b4 c4 bd 05 a6 6b 3e a5 db 97 bd 4e f7 f3 be
       -0.096047625 0.2301255 -0.07414941 -0.47649616
0002f0 82 9a 3b 3d b8 ff 95 bd 20 47 2d bd bc dd 09 be
       0.045801647 -0.07324165 -0.04230416 -0.13463491
000300 29 4e 6c be 0d 56 a4 bd 74 fc b4 bc dd f9 fd 3c
       -0.2307669 -0.080242254 -0.022093035 0.031002933
000310 e5 8d 58 bc 61 8f 11 be 6b ef 08 3e c8 62 81 3d
       -0.013217424 -0.14214851 0.1337258 0.06317669
000320 8c 17 7b bd db 9d 89 bd fe 42 ad be c8 43 42 be
       -0.061301753 -0.06719562 -0.33840173 -0.18971169
000330 f9 0d 9f bd 94 53 19 bd 9a 14 43 bd 37 87 f7 3c
       -0.07766337 -0.037433222 -0.04762707 0.030215843
000340 e0 bd b0 bd 22 10 bd bc a9 a3 37 3e 23 04 32 3d
       -0.08629966 -0.023078982 0.17933525 0.043460976
000350 3f 93 51 be a1 16 80 3e c1 b0 29 3d f0 2c 23 bd
       -0.20466326 0.25017264 0.04142833 -0.039837778
000360 e5 ca 20 3d 63 dc d2 3b 51 64 cb 3d 3f e2 e8 3d
       0.039255995 0.0064349636 0.09931243 0.11371278
000370 fb 82 88 3c 42 42 0d bd 0e 25 14 3e 0d 58 59 3e
       0.016664019 -0.034487016 0.1446726 0.21224995
000380 16 81 f7 3d 2a 90 c7 bd 14 a6 65 3d aa 3a 52 be
       0.12085168 -0.09744294 0.056066588 -0.20530191
000390 15 99 93 be 68 c5 79 be a2 ba ac bc 7c 7a 4d 3b
       -0.2882773 -0.24391711 -0.021085087 0.0031353524
0003a0 1e 5b 4b 3e 9a 9b db 3d 77 02 b7 3a 24 91 18 bd
       0.19858977 0.10723038 0.0013962527 -0.037247792
0003b0 50 fa 28 be 7d 6b df 3d ea 99 e8 3d da 3a 54 3d
       -0.16501737 0.10909174 0.11357482 0.051813938
0003c0 62 0c 41 be 46 36 e1 bd 44 36 82 3c 42 42 05 3e
       -0.1885238 -0.1099668 0.015895016 0.13013557
0003d0 b9 14 12 3e f3 5b 90 3d 7f eb 09 3e fb 81 b2 3d
       0.14265718 0.07048788 0.13468741 0.08716198
0003e0 d6 46 0f 3d f9 a8 8d 3d 71 b3 a0 3d 0c 04 27 3e
       0.034979664 0.069169946 0.07846726 0.16310138
0003f0 70 4c ff 3d 9d 9c 9c 3d 9a ef 0b 3d 2a 45 98 bd
       0.12465751 0.07647059 0.03416405 -0.07435067

nested_model.unit1.conv.bias f4 [12]
000000 ca 19 ab b7 cf 0c 7a b7 5f 71 38 38 33 95 43 b7
       -2.0396797e-05 -1.4904143e-05 4.3974604e-05 -1.1657644e-05
000010 aa d5 2f b7 b9 14 fe 35 1a 5d 06 b8 b0 48 30 38
       -1.048056e-05 1.8930506e-06 -3.2034797e-05 4.2029365e-05
000020 37 70 03 b6 4f 30 69 b6 b3 cc 5b 37 9e 2a e7 b6
       -1.9585839e-06 -3.4747825e-06 1.31010775e-05 -6.8892978e-06

nested_model.unit1.bn.weight f4 [12]
000000 a3 91 85 3f bc a2 0a 3f 56 a5 6c 3f c6 3f 28 3f
       1.043507 0.5415456 0.9243978 0.6572231
000010 5c 89 11 3f 0c f3 61 3e ad ee 05 3f 9b c8 3c 3f
       0.5685022 0.22065371 0.52317315 0.737436
000020 d8 f3 24 3f 38 bf 95 3e 5c 61 dd 3e 4c 33 1b 3f
       0.64434576 0.2924745 0.43238342 0.6062515

nested_model.unit1.bn.bias f4 [12]
000000 02 39 7f 3f f7 09 54 be cf 49 bc 3e ce 2f 23 3e
       0.9969636 -0.20706926 0.3677506 0.15936205
000010 14 70 29 be ca d5 9d 3d 99 fe cf 3d 78 11 a3 3e
       -0.1654666 0.07706793 0.101559825 0.31849265
000020 3e 8e eb bb 03 0a ce bd c4 ed 1a bd e9 64 5c be
       -0.0071885874 -0.10060503 -0.037824407 -0.21522869

nested_model.unit1.bn.running_mean f4 [12]
000000 e8 98 98 bb ca 6c 1f be 2e ed 2c bc 6d b3 36 bd
       -0.0046568997 -0.15568843 -0.010554595 -0.044604708
000010 b2 09 20 3e c0 3d 51 3f 4d 05 10 be 7f f2 8a 3d
       0.15628698 0.8173485 -0.14064522 0.06784534
000020 24 aa 5e bc 3e b6 2b 3f 9b d0 53 be b8 a0 b8 bf
       -0.013590369 0.67074955 -0.20685045 -1.4424047

nested_model.unit1.bn.running_var f4 [12]
000000 16 ec e9 3c 7c f9 cc 3e ec c3 80 3d ac da db 3d
       0.028554957 0.4003409 0.06287369 0.10735068
000010 84 d0 15 3e c7 13 00 3f 26 22 9f 3d 9d 0b 03 3e
       0.14630324 0.5003018 0.07770185 0.12797399
000020 45 2e 63 3e 30 ad b1 3e 17 85 da 3d 48 fc 6c 3f
       0.22185619 0.34702444 0.10669916 0.9257245

nested_model.unit2.conv.weight f4 [12, 12, 5, 5]
000000 55 66 02 00 62 7c 00 80 dc 32 00 00 32 06 00 80
       2.20381e-40 -4.462e-41 1.8245e-41 -2.222e-42
000010 f1 26 00 80 7b 5e 00 00 7e 55 00 00 ec 0d 00 00
       -1.397e-41 3.3893e-41 3.0669e-41 4.994e-42
000020 bf 01 01 80 8e a4 00 80 7b 60 00 80 b7 1b 00 80
       -9.2462e-41 -5.9031e-41 -3.461e-41 -9.942e-42
000030 67 0d 00 80 11 a2 01 00 9f 5c 00 80 e2 47 00 00
       -4.808e-42 1.49974e-40 -3.3226e-41 2.5787e-41
000040 80 b6 00 80 df 70 01 00 2e 36 00 80 38 80 00 80
       -6.5469e-41 1.32326e-40 -1.9436e-41 -4.5996e-41
000050 9d 05 02 80 4e 42 00 80 51 8d 02 00 40 e0 01 80
       -1.85685e-40 -2.3786e-41 2.34366e-40 -1.72281e-40
000060 6a 5f 00 00 34 a6 00 00 8b 7b 00 80 5a 8c 00 00
       3.4228e-41 5.9622e-41 -4.4319e-41 5.0349e-41
000070 b3 a6 00 00 fa 0b 00 80 3d 0d 00 00 ec 58 00 00
       5.98e-41 -4.296e-42 4.749e-42 3.1899e-41
000080 96 7e 00 00 85 2e 00 00 6f 62 00 80 9d 2a 00 80
       4.541e-41 1.6688e-41 -3.5311e-41 -1.5287e-41
000090 a4 7c 00 00 70 70 00 80 25 18 00 00 50 07 00 80
       4.4713e-41 -4.0335e-41 8.661e-42 -2.623e-42
0000a0 8c 6d 00 80 d8 0a 00 00 01 3a 00 00 70 38 00 00
       -3.9298e-41 3.89e-42 2.0808e-41 2.0246e-41
0000b0 b0 28 00 80 55 23 00 00 ee 30 00 00 0c 77 00 80
       -1.4596e-41 1.2675e-41 1.7553e-41 -4.2706e-41
0000c0 39 03 00 00 d7 a4 00 00 a6 38 00 00 6a 23 00 80
       1.156e-42 5.9133e-41 2.0322e-41 -1.2704e-41
0000d0 67 3f 01 00 c4 ab 00 80 30 20 02 00 3d 47 01 80
       1.1458e-40 -6.1618e-41 1.95218e-40 -1.17391e-40
0000e0 0d 18 00 80 08 3c 04 80 bb 84 01 80 1b de 01 00
       -8.628e-42 -3.88877e-40 -1.3945e-40 1.71512e-40
0000f0 01 a0 01 80 21 b9 00 00 8d d0 04 00 ca 9d 02 00
       -1.49234e-40 6.6412e-41 4.42156e-40 2.40275e-40
000100 6a b3 00 00 8c f2 01 00 7f 18 00 00 1f 03 01 00
       6.4362e-41 1.78845e-40 8.788e-42 9.2955e-41
000110 6c 21 06 80 f7 07 02 80 9c 18 00 00 e8 80 00 80
       -5.63002e-40 -1.86528e-40 8.828e-42 -4.6243e-41
000120 94 b2 04 80 51 9f 02 00 a8 ed 01 00 c9 9f 00 00
       -4.31404e-40 2.40823e-40 1.7709e-40 5.732e-41
000130 14 21 00 00 c1 8c 00 80 15 17 00 00 b4 4e 00 00
       1.1866e-41 -5.0493e-41 8.28e-42 2.8233e-41
000140 04 0c 00 00 59 48 00 80 d0 8f 00 80 b4 25 00 80
       4.31e-42 -2.5953e-41 -5.159e-41 -1.3525e-41
000150 32 23 00 80 81 0f 00 80 82 3f 00 00 c7 44 00 00
       -1.2626e-41 -5.562e-42 2.2782e-41 2.4673e-41
000160 29 18 00 00 76 ae 00 80 6c 1b 00 00 a1 72 00 80
       8.667e-42 -6.2585e-41 9.837e-42 -4.1121e-41
000170 56 3b 00 80 c0 73 00 80 37 55 00 80 6f 63 00 80
       -2.1286e-41 -4.1523e-41 -3.057e-41 -3.567e-41
000180 c5 1a 00 80 16 54 01 00 15 18 00 00 3e 20 00 80
       -9.603e-42 1.22e-40 8.639e-42 -1.1566e-41
000190 53 ab 00 80 20 04 00 00 0f 01 01 80 28 21 02 80
       -6.146e-41 1.48e-42 -9.2215e-41 -1.95565e-40
0001a0 78 cf 01 00 2a 0e 00 80 88 3b 00 00 b4 60 00 00
       1.66261e-40 -5.081e-42 2.1356e-41 3.469e-41
0001b0 b2 d3 00 00 f8 9c 01 80 71 31 02 00 3a 0a 00 00
       7.5942e-41 -1.48145e-40 2.01407e-40 3.669e-42
0001c0 69 5a 05 00 e2 9b 00 80 f7 ae 02 00 d6 59 00 00
       4.9161e-40 -5.592e-41 2.46437e-40 3.2227e-41
0001d0 a9 52 00 80 9e 60 00 00 79 75 03 80 83 3d 03 00
       -2.9653e-41 3.466e-41 -3.17648e-40 2.97573e-40
0001e0 39 58 00 00 ff f5 00 80 37 3a 00 00 2b 90 00 00
       3.1648e-41 -8.8247e-41 2.0884e-41 5.1718e-41
0001f0 08 45 00 00 e2 8a 00 00 4c 3a 00 80 63 66 00 00
       2.4764e-41 4.9822e-41 -2.0913e-41 3.673e-41
000200 96 62 00 00 0f 5f 00 00 48 1b 00 80 2c 28 00 00
       3.5366e-41 3.41e-41 -9.787e-42 1.4411e-41
000210 d8 60 00 00 47 1c 00 00 d6 5e 00 80 33 a2 00 80
       3.4741e-41 1.0144e-41 -3.4021e-41 -5.8186e-41
000220 6c 0d 00 80 af 4c 00 00 f9 65 00 80 bf aa 00 00
       -4.815e-42 2.7509e-41 -3.6581e-41 6.1252e-41
000230 68 48 00 00 8d a1 00 80 e1 74 00 00 61 66 00 80
       2.5974e-41 -5.7954e-41 4.1928e-41 -3.6727e-41
000240 7a 9d 00 80 93 15 00 80 91 83 00 00 0e 32 00 00
       -5.6492e-41 -7.74e-42 4.7197e-41 1.7956e-41
000250 c8 45 00 80 fd 33 00 80 22 c4 01 00 45 3a 01 80
       -2.5033e-41 -1.865e-41 1.62195e-40 -1.12739e-40
000260 46 9e 00 00 5b 09 00 80 4b 4e 00 80 ae af 00 80
       5.6778e-41 -3.356e-42 -2.8086e-41 -6.3022e-41
000270 d0 84 00 80 3c 37 01 00 ba cc 00 80 6e 8f 00 80
       -4.7644e-41 1.1165e-40 -7.3442e-41 -5.1453e-41
000280 d5 71 00 80 56 01 01 80 0b e8 02 80 59 6b 01 80
       -4.0835e-41 -9.2315e-41 -2.66912e-40 -1.30345e-40
000290 7e 5b 01 80 ac a2 02 00 1a 50 01 80 31 1d 03 80
       -1.24657e-40 2.42027e-40 -1.2057e-40 -2.85978e-40
0002a0 1c f2 00 00 27 12 02 80 a0 50 00 80 16 40 00 00
       8.6852e-41 -1.90183e-40 -2.8923e-41 2.299e-41
0002b0 eb ce 03 00 1a 25 00 00 69 6e 01 80 2b 51 00 00
       3.49735e-40 1.331e-41 -1.31443e-40 2.9118e-41
0002c0 a7 82 00 80 3f 00 00 00 eb 53 00 00 fb 7b 00 00
       -4.6869e-41 8.8e-44 3.0104e-41 4.4476e-41
0002d0 97 40 00 00 4c 5c 00 80 14 0b 00 80 52 51 00 00
       2.317e-41 -3.311e-41 -3.974e-42 2.9172e-41
0002e0 33 61 00 00 88 d3 00 80 49 6f 00 80 cc 2c 00 00
       3.4869e-41 -7.5883e-41 -3.9922e-41 1.607e-41
0002f0 d0 99 00 80 d5 72 00 80 0b 34 00 00 47 71 00 00
       -5.5178e-41 -4.1194e-41 1.867e-41 4.0636e-41
000300 21 09 00 00 5c 14 00 00 6f 49 00 00 ef 5a 00 00
       3.275e-42 7.304e-42 2.6343e-41 3.2621e-41
000310 2b 2e 00 00 30 6c 00 80 0d 61 00 00 dc 30 00 80
       1.6562e-41 -3.881e-41 3.4815e-41 -1.7527e-41
000320 65 1b 00 00 d6 3f 00 80 6f 93 00 00 28 21 03 80
       9.827e-42 -2.29e-41 5.2889e-41 -2.87401e-40
000330 f2 56 00 00 32 8e 00 00 1c 51 01 00 22 77 00 80
       3.119e-41 5.101e-41 1.20932e-40 -4.2737e-41
000340 52 74 00 80 a3 15 00 80 84 6a 00 00 64 33 00 00
       -4.1728e-41 -7.762e-42 3.821e-41 1.8435e-41
000350 5c 73 00 00 35 25 00 00 f4 77 00 00 17 37 00 00
       4.1383e-41 1.3347e-41 4.3031e-41 1.9763e-41
000360 a4 55 00 80 af 09 00 80 fc a0 00 00 59 2e 00 80
       -3.0722e-41 -3.474e-42 5.775e-41 -1.6626e-41
000370 bf 6f 00 80 a4 65 00 80 6b 0f 00 00 c1 7e 00 00
       -4.0087e-41 -3.6462e-41 5.531e-42 4.5471e-41
000380 4e 13 00 00 2d 77 00 80 b0 a5 00 80 e9 5d 00 80
       6.925e-42 -4.2752e-41 -5.9437e-41 -3.3689e-41
000390 02 74 00 00 a9 7c 00 00 2f 7c 00 00 dd 34 00 80
       4.1616e-41 4.472e-41 4.4549e-41 -1.8964e-41
0003a0 58 3b 00 00 bd 8e 00 80 bc 5d 00 00 1c 81 00 80
       2.1289e-41 -5.1205e-41 3.3626e-41 -4.6316e-41
0003b0 68 57 00 80 c5 a2 00 00 ae 8a 00 00 1d 96 00 00
       -3.1355e-41 5.8391e-41 4.9749e-41 5.385e-41
0003c0 c1 41 00 80 dd 43 00 00 bb 2c 00 00 04 13 00 80
       -2.3588e-41 2.4345e-41 1.6046e-41 -6.822e-42
0003d0 3c 7f 00 80 ca 33 00 00 b9 7a 00 00 cb 41 00 00
       -4.5643e-41 1.8578e-41 4.4025e-41 2.3602e-41
0003e0 64 51 00 00 cc 5c 00 80 69 ac 00 00 c6 03 03 00
       2.9197e-41 -3.3289e-41 6.1849e-41 2.7686e-40
0003f0 23 53 01 00 4c db 00 00 ec 32 01 00 07 8c 00 80
       1.2166e-40 7.8669e-41 1.10103e-40 -5.0232e-41

nested_model.unit2.conv.bias f4 [12]
000000 b8 73 00 80 1f e1 2b 35 03 8e 23 37 b3 ea 2b 37
       -4.1512e-41 6.403006e-07 9.748622e-06 1.0247039e-05
000010 67 b2 95 b6 12 86 bb b6 52 97 94 b6 b9 81 3e 35
       -4.461315e-06 -5.588642e-06 -4.4283597e-06 7.0969287e-07
000020 d5 4b 49 b6 55 2b 5b b6 9a 86 6e 36 b0 72 c0 b5
       -2.9995474e-06 -3.2658766e-06 3.5543112e-06 -1.4338493e-06

nested_model.unit2.bn.weight f4 [12]
000000 89 e9 f8 1a 79 60 c5 3e dc 9f 84 3e 32 cf 3d 3f
       1.0294769e-22 0.38550165 0.25903213 0.7414428
000010 c1 1f e3 3e 2c 18 ba 3e f3 7d 03 3f 3c 91 b0 3e
       0.44360164 0.36346567 0.5136406 0.34485805
000020 a7 6b 00 3f 48 5d 84 3e 2f ca a5 3e 77 4a 2a 3f
       0.50164264 0.25852418 0.32380816 0.66519874

nested_model.unit2.bn.bias f4 [12]
000000 ca f8 01 bd 1d d6 6a be a6 55 43 be 26 23 8b be
       -0.031731404 -0.2293324 -0.19075641 -0.27175254
000010 13 36 07 be e3 7a 58 be 6b ed f5 bd 66 c6 0b be
       -0.13204221 -0.21140628 -0.120081745 -0.13649902
000020 b5 f9 64 be 21 80 d3 bd 49 90 9e be 2d 04 8f be
       -0.2236088 -0.10327173 -0.30969456 -0.27932873

nested_model.unit2.bn.running_mean f4 [12]
000000 18 f3 00 00 30 8d 4d 3f f4 46 1b bf 1a 53 9c bf
       8.7206e-41 0.8029356 -0.6065514 -1.221286
000010 ff 79 df bf 5a ae be bf a4 66 9e bf 33 16 3b bf
       -1.7459105 -1.4896958 -1.2375073 -0.7308075
000020 34 69 67 bf ce 0c 06 c0 a8 d8 a7 3f 36 40 73 bf
       -0.903949 -2.0945315 1.3112993 -0.95019853

nested_model.unit2.bn.running_var f4 [12]
000000 04 00 00 00 3f bc 11 40 d7 c9 00 40 93 a9 9c 40
       6e-45 2.2771146 2.0123193 4.8957
000010 52 5c 6b 40 bc f6 2b 40 3f 63 58 40 50 aa 1f 40
       3.6775098 2.6869345 3.3810575 2.49477
000020 01 a3 27 40 be f5 21 40 42 63 0c 40 bc 2b a5 40
       2.619324 2.530624 2.1935582 5.1615887

nested_model.unit3.conv.weight f4 [12, 12, 5, 5]
000000 31 b1 cd 35 78 53 46 33 de fe a9 33 46 96 c0 b5
       1.532526e-06 4.6176382e-08 7.916036e-08 -1.434885e-06
000010 9c bb 13 b9 5b 10 0b 32 49 b3 1d ad 91 03 2b a3
       -0.00014088902 8.094584e-09 -8.964226e-12 -9.270684e-18
000020 b5 a0 94 b6 d1 89 60 b9 6b 0b 48 32 fd 4d ff 20
       -4.4294525e-06 -0.00021413645 1.1644128e-08 4.3250289e-19
000030 9b fc a1 81 6b 7a ed b4 c6 78 13 b9 7b 6f 66 b4
       -5.950453e-38 -4.423376e-07 -0.00014064004 -2.1460976e-07
000040 10 38 19 ad b2 aa 0c 20 f8 d6 ca b6 11 e1 8e b9
       -8.7094915e-12 1.191494e-19 -6.045095e-06 -0.00027252038
000050 b1 d8 08 b7 ab 06 b3 b4 a0 6c df b2 cd e4 63 b8
       -8.156684e-06 -3.33462e-07 -2.6010014e-08 -5.4334105e-05
000060 ad de 12 ba 16 53 0a 3e 6f 2b af 3d 2d 4a 87 3c
       -0.0005602639 0.13508257 0.08553206 0.016514862
000070 33 c9 a2 bc 19 f9 30 3e 1e 3e 61 3d d1 6e da 3d
       -0.01987133 0.17282523 0.05499088 0.10665668
000080 80 28 9c bc 4e d7 57 3d 88 bd 00 3e 9d 6f 83 ba
       -0.01906228 0.052695565 0.125723 -0.001002777
000090 96 ee 56 bd 88 2c 48 be 1b e2 2c be 0d 43 c8 3d
       -0.052473627 -0.19548237 -0.16883127 0.09778414
0000a0 ec 44 4e bb 75 a6 4c be 26 09 7e be de dd 3a be
       -0.0031474186 -0.19985373 -0.24808177 -0.18248698
0000b0 38 36 87 3c c0 e7 6a 3e a8 1d 01 3d 6e d2 0e be
       0.016505346 0.22939968 0.031522423 -0.1394746
0000c0 f3 c6 58 3c 13 0b 18 3e 37 a2 35 3c 37 75 30 3d
       0.013231027 0.14847974 0.011086038 0.043080535
0000d0 7f 8a 61 bd 6e b2 f3 bd 07 e0 f8 bd 3d 6c fd bb
       -0.05506372 -0.11899267 -0.12152105 -0.0077338503
0000e0 f4 4f d6 bd 5a c9 8d be 0a d7 38 be 9d bc 4e bd
       -0.104644686 -0.27692682 -0.18050781 -0.050472844
0000f0 3d aa 60 bd 38 d1 33 be 65 05 40 be b7 c4 b7 bc
       -0.054849852 -0.1756028 -0.18752058 -0.022432668
000100 b7 27 0e be c7 b1 e1 bd bf a6 14 be 10 63 0f be
       -0.13882338 -0.110202365 -0.14516734 -0.14002633
000110 cf 67 9a bd 5a 69 7d be 76 2a 42 be 34 54 33 be
       -0.07539331 -0.2474722 -0.1896151 -0.1751259
000120 85 75 14 be b6 33 27 be 3b ab 99 be 4d 5e f1 bd
       -0.14497955 -0.1632832 -0.3001345 -0.117855646
000130 e7 12 8e bd fa f8 88 be d5 31 5a be cf 9c 6b be
       -0.06937199 -0.26752454 -0.21308072 -0.23009036
000140 66 6f 99 3d 2e cb f0 3c 6a a1 21 be b2 7f c6 bd
       0.07491951 0.029393759 -0.15784231 -0.09692325
000150 a9 b1 d8 bd ff 30 e2 3d 24 69 8c 3d ac 4e e4 bd
       -0.10580761 0.110445015 0.068559915 -0.11147818
000160 02 ae 98 3d 63 d7 3f 3d 14 22 ec bc 2b fd bc 3c
       0.07455064 0.04683627 -0.028824843 0.023069939
000170 54 30 fb 3c f3 ed 9c 3d 33 08 e6 3d 0a ff 86 bb
       0.030662693 0.07662573 0.112320326 -0.0041197585
000180 18 30 3a 3d 21 dd f4 bc a6 c0 dd 3c e5 1e 14 3e
       0.045456022 -0.029890599 0.027069401 0.1446491
000190 ce ff ec bd 91 ed 22 3d eb ed d8 3b 1b be e7 bc
       -0.11572228 0.039777342 0.006620159 -0.028288892
0001a0 ea 63 45 3e c4 b8 02 be df 36 95 bc 05 85 d5 bd
       0.19276395 -0.12765795 -0.018214641 -0.10425762
0001b0 f2 9e 14 be a2 44 47 3d c3 8d 09 3e 98 1b 63 3e
       -0.14513758 0.048649438 0.13432984 0.22178495
0001c0 68 c6 5d 3e a9 59 a9 3d 2e 0a 83 3d 79 b3 02 3e
       0.21657717 0.082690544 0.06398426 0.12763776
0001d0 b8 f1 a1 3d b1 78 a8 3d c0 89 cc 3d 0e ad dc bc
       0.07907432 0.08226145 0.09987211 -0.026937988
0001e0 8e c0 05 3e de 5f 2e 3e d4 37 0d 3e a5 74 c4 3d
       0.13061735 0.17028758 0.13790828 0.09592561
0001f0 a4 41 a9 bd 61 57 12 be a1 13 8d bd 55 f1 b4 bd
       -0.08264473 -0.14291145 -0.068885095 -0.08835093
000200 de 23 29 3c cc 47 c8 3d 9f ec 54 be 25 3c e6 bd
       0.010323493 0.09779319 -0.20793389 -0.112419404
000210 58 1e de bd 59 b0 95 bc 11 52 19 3e 39 d7 c0 be
       -0.10845631 -0.018272566 0.14972712 -0.37664202
000220 38 3d e0 be bd bc 9b bd ff f3 9a bd 8a e0 14 3e
       -0.43796706 -0.07604358 -0.0756607 0.1453878
000230 e8 64 7b bd 50 a6 98 bd 02 0f e9 bc b2 27 e5 3b
       -0.06137553 -0.074535966 -0.02844954 0.0069932574
000240 e5 a1 a1 bd f0 77 b4 bc 8b bf bb 3d af 71 e4 3d
       -0.07892207 -0.022029847 0.09167393 0.11154496
000250 e1 f8 02 3e e1 6f f3 bb 7f 99 03 3e 5d f8 8f 3e
       0.12790252 -0.0074291085 0.12851523 0.28119174
000260 9d 92 21 3e 1e 81 12 bd 42 2d d1 bd b1 6d 35 3e
       0.15778585 -0.035767667 -0.1021371 0.17717625
000270 07 4a f3 3c c6 9d ce bd 40 54 9b be 62 3a 69 be
       0.029698385 -0.10088687 -0.30337715 -0.22776178
000280 6c 41 72 be 35 8b d7 bd 72 b1 f2 bc 15 f7 f1 bd
       -0.23657769 -0.105245985 -0.029625628 -0.11814705
000290 7f 35 12 bd de cf 31 bc 13 f5 4b 3e f7 58 99 3d
       -0.03569555 -0.010852782 0.19917707 0.07487672
0002a0 9c 99 81 3d 3f e1 6e bd 42 7f 7f bd 85 c8 e7 3d
       0.06328127 -0.05832028 -0.062377222 0.11317543
0002b0 6d 6b 39 3d 12 f2 99 3d f9 53 23 be fb c3 01 3d
       0.045268465 0.075168744 -0.15950002 0.031681042
0002c0 32 c3 e5 3d 1e 80 9b 3d ba 8c 60 be ab 04 b0 be
       0.11218871 0.07592796 -0.21928683 -0.3437856
0002d0 06 be 9d 3d 84 4b 34 bd 02 45 80 be 64 f6 a5 be
       0.0770226 -0.04401733 -0.2505265 -0.32414544
0002e0 f0 c5 72 be fd 9e a0 3d a2 37 ac bd 3e ef b6 be
       -0.2370832 0.078428246 -0.084090486 -0.35729402
0002f0 a0 11 90 be 9c cd 3a be e8 1a ef 3c c8 3e 98 bc
       -0.28138447 -0.18242496 0.029187635 -0.018584624
000300 7b 72 64 be 8d 5a 35 be 22 21 ef bd 01 0f 65 3e
       -0.22309296 -0.17710324 -0.116762415 0.22369005
000310 9d 8e 46 3e d7 b5 b6 3d eb 6d 3d 3d 13 de d2 3d
       0.1939034 0.08921402 0.046247404 0.102962635
000320 bb b8 a1 3d 0f 25 9c 3d ae 3b e0 3d e6 e8 eb 3d
       0.07896563 0.07624256 0.10948883 0.11519031
000330 2d e0 cc 3d 93 7e 19 3e 76 e7 9c bb c4 f9 20 3d
       0.10003696 0.1498969 -0.0047883345 0.039300695
000340 77 78 0b bd b5 44 9c 3d 0f 58 c2 bd 4b 37 ae be
       -0.03405043 0.07630292 -0.09489452 -0.3402656
000350 1b 96 b6 be e4 5b 6c be e1 13 28 be 98 c3 28 be
       -0.35661396 -0.23081928 -0.16413833 -0.16480863
000360 9e 2c 06 bd 9c 59 d6 bd e8 41 4c be 1d 29 4a be
       -0.032757394 -0.104663104 -0.19947016 -0.19742246
000370 ad af ae 3c 23 e1 28 3b 04 10 55 bd b2 f2 0b be
       0.021324003 0.0025768958 -0.052017227 -0.136668
000380 37 56 77 be 2c 0d 17 3e c9 aa be 3d c7 63 92 3d
       -0.24153982 0.14751118 0.093099184 0.07147937
000390 ec 63 51 bc 89 a3 8c 3d 49 22 06 3e da d6 41 3d
       -0.012780171 0.06867129 0.13099016 0.04732404
0003a0 eb 29 8c bd 71 28 07 be 56 c4 3a be af c4 d3 bc
       -0.06843933 -0.13199021 -0.18238959 -0.025850622
0003b0 63 10 63 be dc b2 76 be 52 59 82 be fa 2f 7a be
       -0.2217422 -0.24091667 -0.2545877 -0.24432364
0003c0 42 60 8e 3d b8 16 c0 bd b0 6b a3 bd 5f 5c 10 be
       0.069519535 -0.09379333 -0.07979524 -0.14097737
0003d0 6a c2 af bd 5b ea 54 3d 0f dd 3c be 93 00 44 be
       -0.085820034 0.05198131 -0.18443702 -0.19140844
0003e0 44 32 8e bd 76 10 6c bd 04 17 10 bd e4 f4 a0 3d
       -0.06943181 -0.057632886 -0.0351782 0.07859209
0003f0 02 eb 06 3e 72 c3 e8 3d e8 cd 67 bc f1 11 f0 3c
       0.13175586 0.11365403 -0.014148213 0.02930543

nested_model.unit3.conv.bias f4 [12]
000000 3b 42 27 b7 1b 29 e0 b4 84 ca a3 35 ef e4 35 37
       -9.969396e-06 -4.175316e-07 1.2203386e-06 1.08417435e-05
000010 50 88 ba 34 e4 59 0b 37 df d1 72 b5 6c 17 f4 36
       3.474438e-07 8.305975e-06 -9.045743e-07 7.2744933e-06
000020 eb a3 d4 36 04 aa 94 35 33 aa f2 34 ae 54 20 35
       6.337175e-06 1.107634e-06 4.519985e-07 5.972787e-07

nested_model.unit3.bn.weight f4 [12]
000000 5c bc 41 3f 24 fd e7 3e 5e ee f4 3e 51 65 42 3f
       0.7567804 0.45310318 0.4783811 0.75935847
000010 ba 3d bb 3e 6d 2d 36 3f 07 69 cc 3e 58 b9 f3 3e
       0.3657053 0.71163064 0.3992388 0.47602344
000020 c3 d1 26 3f e6 e6 29 3f 79 42 f9 3e ec a7 25 3f
       0.6516382 0.6636795 0.48683527 0.64709353

nested_model.unit3.bn.bias f4 [12]
000000 65 11 a6 be 82 97 36 bd ab 8e d1 be 05 67 0e be
       -0.32435146 -0.044578083 -0.4092916 -0.13906486
000010 da cb 92 bd 9b 31 88 be 32 7c b0 bd fa 07 8a be
       -0.07167788 -0.26600346 -0.086174384 -0.2695921
000020 f5 d9 53 be f2 16 38 be 1d 76 87 be ef 0f ca bd
       -0.20688613 -0.17977503 -0.264573 -0.0986632

nested_model.unit3.bn.running_mean f4 [12]
000000 f8 a4 83 bf 50 07 8d bf 89 4d 16 3e 14 e8 8b bf
       -1.028472 -1.1017857 0.14678015 -1.09302
000010 97 0b 1c bd 48 f5 84 be c9 01 8c be 0b 7d 74 bf
       -0.03809699 -0.25968385 -0.27345112 -0.955033
000020 60 77 5f bd 54 66 67 3c 6d fc c0 be ba 6f b8 bf
       -0.054557204 0.014123518 -0.37692586 -1.4409096

nested_model.unit3.bn.running_var f4 [12]
000000 72 11 50 3f dd e3 66 3f 5d 95 19 3f ea 49 81 3f
       0.8127662 0.9019144 0.59993535 1.0100682
000010 16 55 76 3f 87 6e 4e 3f 44 f6 4f 3f 43 74 9c 3f
       0.9622358 0.806374 0.81235147 1.222298
000020 63 27 4e 3f f6 41 2a 3f 7a 1d 2b 3f 0e 5b 89 3f
       0.8052885 0.665069 0.6684185 1.0730913

nested_model.unit4.conv.weight f4 [12, 12, 5, 5]
000000 af b5 05 3c 5f 29 53 bb 21 ac 45 3d c2 31 ad 3d
       0.0081609925 -0.0032220704 0.048259858 0.08456756
000010 43 e9 c5 3d e5 0f 01 bc 1e 7f e4 bd 97 e0 46 be
       0.09663632 -0.007877325 -0.11157058 -0.19421612
000020 a0 ea e7 bc 2d 12 6c 3d cd 5c 8c 3d 47 9c 02 bd
       -0.02831012 0.05763452 0.06853638 -0.03188732
000030 5e af c3 bd cc 96 87 bd f0 4c f5 bc e0 71 78 3c
       -0.09554933 -0.06620559 -0.029943913 0.015163869
000040 a8 50 94 3d 64 83 b7 3d 1f be fe bb c4 8d 57 3d
       0.072419465 0.08960608 -0.007774129 0.052625433
000050 58 7e 9e 3c 10 7d 0f 3e 5e 3d 70 3e 71 86 42 3e
       0.019347355 0.14012551 0.2346091 0.18996598
000060 14 b1 30 3e 1d 3e f3 bd 3a 93 77 3c b2 e8 13 3e
       0.1725505 -0.118770815 0.015110785 0.14444235
000070 7e 49 47 3e 76 30 f9 3d b2 9b 37 be ac fb a2 bd
       0.19461629 0.12167446 -0.17930487 -0.07958159
000080 a9 c2 b4 3d 99 41 53 3e a1 f3 0f 3e 12 53 0e be
       0.08826191 0.20630492 0.14057781 -0.13898876
000090 90 fc f3 bd 9c fc 57 3d 0c 64 c1 3d 5c 69 0e 3e
       -0.11913407 0.05273114 0.094429106 0.13907379
0000a0 2e c2 34 be f3 dd da bd c8 65 9b bd fb e5 96 3d
       -0.17652199 -0.10686865 -0.075877726 0.07368084
0000b0 ff 79 12 3e ba a5 4b be 8c 50 38 be 06 b9 fb bd
       0.1430435 -0.19887438 -0.17999476 -0.1229115
0000c0 e6 e7 a9 bd a9 67 04 bc 0b 36 56 3e a4 42 2d 3e
       -0.08296184 -0.008081355 0.20919053 0.16919953
0000d0 f3 54 80 3e 62 a2 8e 3e d6 72 00 3e a4 e3 5f 3e
       0.2506481 0.27858263 0.12543806 0.21864182
0000e0 95 35 7a 3d 72 05 85 3d 61 cf 00 3e ec 31 24 3e
       0.061086256 0.06495179 0.12579109 0.16034669
0000f0 3c b1 68 3e 88 53 9c 3d d2 74 e3 3c 5c 03 0e 3a
       0.2272386 0.0763312 0.027765665 0.00054173707
000100 96 c2 19 3d b1 68 23 3e 8b 0b 06 3e e1 cd d1 3d
       0.037539087 0.15957905 0.13090341 0.102443464
000110 04 55 7b bd 70 61 4e be 4c e6 d5 bc d7 04 d0 3d
       -0.061360374 -0.20154357 -0.02611079 0.10157173
000120 c7 27 16 3e 73 6e b0 3d 39 58 2e be bb 33 90 bd
       0.14663611 0.086148165 -0.17025842 -0.07041117
000130 1c c9 15 be 47 16 8a bc 27 7a 18 3d c0 6f 36 bd
       -0.14627498 -0.016856326 0.03722587 -0.044540167
000140 c3 13 db 3d 25 ca da bd 19 7e 80 bd 41 02 0e 3d
       0.106971286 -0.10683087 -0.06274051 0.03467012
000150 37 a7 c6 bd 98 7f 48 3e 24 ed 27 3e 2f 43 b5 3d
       -0.096998625 0.19579923 0.16399056 0.08850705
000160 63 f4 b0 3d da 5d ef bb 0b c2 92 3d 36 81 b0 3d
       0.08640363 -0.007304889 0.07165917 0.08618395
000170 75 fb 50 3e e2 5c e5 3d 3e a0 09 3c a3 7c 75 bd
       0.20408423 0.111993566 0.008400021 -0.059933316
000180 e8 9c ac bd 76 32 9f bc 6a fc 5b bc 43 d4 06 3c
       -0.08428365 -0.019433241 -0.013426879 0.008229318
000190 e6 be bb bd ae 9f f1 bc 8d 96 41 ba 70 ab 5b 3c
       -0.0916727 -0.029495087 -0.00073847995 0.013407573
0001a0 3e 1b 30 3c 73 dd 31 bc 74 fc ad bc fb a2 65 bc
       0.010748683 -0.01085602 -0.021238543 -0.014015908
0001b0 24 09 f0 bc 0b f3 b4 bc ce 3f 26 be 77 4d e1 bd
       -0.029301234 -0.022088548 -0.16235277 -0.11001103
0001c0 ee 3c a5 3c 5a 32 40 3d 24 bf 8d 3b 34 75 43 be
       0.020170655 0.04692302 0.0043257643 -0.19087678
0001d0 12 90 2f be 8d e1 fb bc cd 57 58 3d 2e 5f 8d 3d
       -0.17144802 -0.0307472 0.05281811 0.0690292
0001e0 fc c2 10 be 86 ce 23 be aa 9c e9 bd f3 fb 8b 3c
       -0.1413688 -0.15996751 -0.114068344 0.017087912
0001f0 86 2d 49 bc a1 29 0d 3e 60 27 1c 3d 16 a4 c0 bd
       -0.01227892 0.13785411 0.03812349 -0.09406297
000200 94 da 22 be 91 17 01 bd f2 16 27 3e b2 b6 8c 3d
       -0.15903693 -0.031516615 0.16317347 0.06870784
000210 6c 75 65 bd fb 28 0d be 5a 0a 47 bd 9c c2 1c 3b
       -0.056020185 -0.13785164 -0.048593856 0.0023919707
000220 cd ac 87 bc ee 6a b0 bd be d5 1b be 15 e8 1c be
       -0.01656189 -0.08614145 -0.15218255 -0.15322907
000230 a3 73 86 bd 92 8e 48 bd bf be f7 3c 4a 9e 06 3e
       -0.06565025 -0.04896409 0.030242322 0.1314632
000240 9e f9 69 3d 3f 39 0e bd 74 99 cc 3c f1 0d a1 3d
       0.05712282 -0.034722563 0.024975516 0.07863987
000250 ee 5a fd 3d c7 b3 db bd cb 40 72 3e c7 cd 2f 3e
       0.12370859 -0.10727649 0.23657529 0.17168342
000260 8d 62 21 3e 78 74 6f 3e 0c a2 8f 3e 87 a2 4d 3e
       0.1576025 0.23384273 0.2805332 0.2008153
000270 ff 80 d6 3d 83 ba 30 3b 80 96 b7 3c 56 89 91 3d
       0.10473823 0.0026966638 0.022410631 0.07106273
000280 d1 44 c1 3d 00 8d ec 3c f1 89 bc bb 76 cb 12 3d
       0.09436954 0.028875828 -0.0057537486 0.035838567
000290 5d 72 ed 3d cd 3f 44 be ba c2 7d be ef a5 ee bd
       0.11594079 -0.19164963 -0.24781314 -0.11652743
0002a0 d6 05 a6 bc ba 98 f3 3d 37 d3 2a be e2 fb 24 be
       -0.020266455 0.11894365 -0.16682135 -0.1611171
0002b0 42 6d b6 bd cf 66 59 3d 52 7c 14 3e 46 95 2b be
       -0.08907558 0.05307656 0.1450055 -0.16756162
0002c0 41 ec 40 be 45 59 bc bd ee d9 8f 3c 98 e8 30 3c
       -0.18840124 -0.09196714 0.017559972 0.010797642
0002d0 15 bb bb 3d 82 d2 b9 3d 5a 6e 07 3e c4 ba ff 3d
       0.091665424 0.09073354 0.1322569 0.124867946
0002e0 44 e4 27 3e 2f bf 88 3e 79 89 a8 3e e6 86 b9 3e
       0.1639567 0.26708362 0.32917383 0.36235732
0002f0 42 4e 95 3e bd 91 83 3e 52 59 69 3e 7e 4e a3 3e
       0.29161268 0.25697127 0.22787979 0.31895822
000300 25 15 a3 3e e4 ca 70 3e 1f 74 93 3d 3c f1 97 3e
       0.3185207 0.23514897 0.07199883 0.29676235
000310 f2 93 98 3e ec c4 52 3e d0 23 86 3d 4a f1 70 bd
       0.29800373 0.20582932 0.065497994 -0.05882386
000320 a7 43 80 bc d8 6d ad bd ab 80 1c 3d 84 ec c5 3d
       -0.01565726 -0.08468217 0.038208645 0.096642524
000330 49 3a e6 3d 36 98 a0 bd 93 a2 9c bd 20 56 83 3d
       0.11241586 -0.07841532 -0.07648196 0.064129114
000340 84 79 77 3d 3e e0 20 3e f0 03 e2 bc 41 40 c6 bd
       0.06041862 0.15710542 -0.027589768 -0.09680224
000350 90 b7 01 be f1 6b 11 be af 87 41 bc b0 d7 0c 3e
       -0.1266768 -0.14201333 -0.011812135 0.13754153
000360 99 20 b4 3c 76 27 f5 bd fe 02 05 be a5 7b db bd
       0.0219882 -0.11970417 -0.12989423 -0.10716943
000370 62 80 8b 3e 27 68 3e 3e 20 f0 b6 3c c7 4f 30 bd
       0.27246386 0.18594418 0.022331297 -0.04304483
000380 40 73 56 bc c9 ef 3a be 2b 6c 59 be 0a 68 c0 bd
       -0.013089001 -0.18255533 -0.21232669 -0.09394844
000390 75 d0 99 bc 7c af ed 3b 2b 43 32 be 80 a2 5c bd
       -0.018776158 0.0072535854 -0.17408435 -0.05386591
0003a0 ca 2d d6 bd 54 76 a5 bd aa c3 11 be d9 e3 17 be
       -0.10457952 -0.0807921 -0.14234796 -0.1483301
0003b0 52 5a c2 bd bd 93 17 be 32 46 98 bd f6 17 5f be
       -0.094898835 -0.14802451 -0.07435264 -0.21786484
0003c0 cf d7 38 bd 8f 0d d0 3b e3 3d f7 bc c7 98 c0 bd
       -0.045127686 0.0063492726 -0.030180877 -0.0940414
0003d0 74 5e 1d be af 44 70 3d 34 ba 57 3d 2c f0 63 3c
       -0.15368062 0.05865925 0.05266781 0.013912242
0003e0 50 a6 af bc 8e 66 c5 bb f1 08 b3 3d 3a 9a 81 bd
       -0.021441609 -0.0060241884 0.0874194 -0.063282445
0003f0 fc 72 ae bd ec 01 26 bd 31 dd f4 3c ed a2 52 3e
       -0.08518025 -0.040529177 0.029890629 0.20569964

nested_model.unit4.conv.bias f4 [12]
000000 8f ae 86 b6 ea de 28 36 42 98 db 36 c1 3d 5b b6
       -4.0138325e-06 2.5163704e-06 6.5444337e-06 -3.2669489e-06
000010 c5 93 63 b6 c2 de 1c b6 26 96 4c 35 da d8 31 b5
       -3.391165e-06 -2.3375474e-06 7.6214417e-07 -6.62532e-07
000020 8e a0 29 b4 fb dd 1d b6 cb b5 04 37 1c 72 ac b6
       -1.5797761e-07 -2.3524033e-06 7.91014e-06 -5.1392835e-06

nested_model.unit4.bn.weight f4 [12]
000000 05 70 f2 3e e4 68 6e 3f 71 2a 0c 3f dc c4 1d 3f
       0.4735109 0.931288 0.5475226 0.6162851
000010 ea d8 c1 3e bf 66 fc 3e e9 b8 46 3f 62 61 09 3f
       0.37860805 0.4929714 0.776259 0.5366422
000020 32 20 20 3f dc cb 27 3f de 82 3c 3f e4 7e 3d 3f
       0.62549126 0.6554544 0.7363719 0.74021745

nested_model.unit4.bn.bias f4 [12]
000000 e2 a0 a9 be bf c8 df be dd 20 66 be f4 1d 67 be
       -0.33130556 -0.43707845 -0.22473474 -0.2257002
000010 a3 39 ce bd 5b e5 7f be c5 d2 34 be cb 52 80 be
       -0.10069587 -0.24989836 -0.17658527 -0.25063166
000020 36 75 95 be b5 4d 65 be 63 4f 7f be ed bd 6a be
       -0.29190987 -0.22392924 -0.24932627 -0.22924013

nested_model.unit4.bn.running_mean f4 [12]
000000 e7 6f 66 3d 8c 79 22 bf f2 04 aa bf 7e 34 08 be
       0.056259062 -0.63466716 -1.3282759 -0.13301274
000010 54 cc 94 be 65 69 04 bd b1 bb df bf e6 6f da be
       -0.2906214 -0.032327075 -1.7479154 -0.42663497
000020 e5 66 9a be 69 19 44 bf a9 42 16 bf 95 f8 d5 be
       -0.30156627 -0.7660127 -0.58695465 -0.41791216

nested_model.unit4.bn.running_var f4 [12]
000000 14 50 28 3f ea 5e 49 3f d0 41 43 3f 23 bc 4a 3f
       0.6574719 0.7866045 0.76272297 0.79193324
000010 42 98 33 3f dc 6b 18 3f ac 11 64 3f 15 67 34 3f
       0.701542 0.5953958 0.89089465 0.7046979
000020 ef 46 20 3f c7 9f 65 3f 27 b5 43 3f 52 2a 3f 3f
       0.62608236 0.89696926 0.7644829 0.7467395

nested_model.net.0.conv.weight f4 [12, 3, 5, 5]
000000 ec 8f 2d 3e 50 a1 8a 3e 25 97 a7 3d f3 d6 1c 3e
       0.16949433 0.27076197 0.081831254 0.15316372
000010 80 2b ba bd 39 f7 00 3e 92 20 8c be df 15 41 3d
       -0.09090328 0.12594308 -0.273686 0.04714
000020 60 2b 82 3e 39 fb 53 bd a3 91 07 3e c6 2c ff 3d
       0.25423717 -0.051753256 0.1323915 0.12459712
000030 25 51 27 be 44 3a 57 be cf 19 83 be 04 0d 80 bd
       -0.16339548 -0.2101832 -0.25605628 -0.062524825
000040 c1 65 4b 3e 43 50 a3 be 24 15 e4 bd c5 c8 a2 3c
       0.19863035 -0.31897172 -0.11136845 0.019871125
000050 15 76 b4 bc 0a c1 5c 3c 24 93 6e 3c e2 a0 84 bd
       -0.022028962 0.0134737585 0.014561448 -0.064759985
000060 95 c9 50 bd 09 41 3b be 84 04 b4 3d cc 58 02 be
       -0.050973494 -0.18286528 0.08789924 -0.12729186
000070 9b d5 51 3e a9 27 06 3e db 1d cb bc 50 8f e1 be
       0.2049164 0.13101067 -0.02479451 -0.4405465
000080 ae c9 23 3e 3a 7d 93 3e 71 20 bc 3a 14 f5 89 3d
       0.15994903 0.28806478 0.001435293 0.06736198
000090 ef 70 20 3e f4 d0 f5 bb 01 9c 5c bc 4f 12 93 3c
       0.15668081 -0.007501716 -0.013464929 0.017953066
0000a0 9c 6c 53 be 86 be ad 3d 5a 7c 47 be 95 8a d0 3d
       -0.206469 0.08483605 -0.1948103 0.101826824
0000b0 5e 9a aa 3d d6 99 94 bd 7d 0d 95 bd c0 57 44 3d
       0.083302245 -0.072559044 -0.07277963 0.047935247
0000c0 7f 1f ec 3b 15 a0 f1 bd 38 6c f9 bd ee d1 98 bd
       0.007205903 -0.11798111 -0.12178844 -0.07461916
0000d0 18 64 15 be 51 e4 bd bd c2 ba 35 be dc ae 39 3d
       -0.14588964 -0.092720635 -0.17747024 0.045332775
0000e0 17 8b f6 be e3 5b 83 3d 4d 91 ab 3e f0 5d 9b 3c
       -0.48152992 0.064140104 0.33509293 0.018965691
0000f0 ff 6b e7 3d cd f1 9f 3d fe 0c 76 bd 2e 0c 02 3e
       0.112998955 0.07809792 -0.060070984 0.12699959
000100 56 ee c5 bd 78 ab 8d bd 56 48 98 3e ca 49 cc bd
       -0.096645996 -0.06917471 0.29742688 -0.09975012
000110 d1 4c bb 3d e7 fd 3b 3d d3 c1 ed 3d d6 ae a4 3a
       0.09145511 0.045896437 0.11609235 0.0012564312
000120 65 ef 23 3c 04 70 13 3e 7a 1b 1e 3d fc 6f e4 3d
       0.010005807 0.143982 0.038600422 0.11154172
000130 7e dc 52 3e f8 bf a4 3d 03 80 dd 3d 40 de ab bb
       0.20591924 0.08044428 0.10815432 -0.005245
000140 da 79 6b bd b3 3c d9 3d f5 67 e4 3d 40 a9 25 be
       -0.057489254 0.106072806 0.11152641 -0.16177845
000150 3d c3 63 bd ef 37 38 bd 89 1c 2d 3e 95 cb 80 bd
       -0.055606116 -0.044975217 0.16905417 -0.0628883
000160 db c5 82 be d3 64 30 be 03 7b 6a 3d 01 eb 2b 3e
       -0.25541577 -0.17225961 0.05724622 0.16788866
000170 58 de b5 3c ef 4c c0 3c a5 37 7c 3c f6 36 74 bd
       0.022200748 0.023474185 0.015394126 -0.059622727
000180 48 b4 3c 3e 95 39 37 3e c0 62 59 3d c8 20 8a 3d
       0.18428147 0.1789306 0.05307269 0.06744534
000190 75 56 15 3c 73 5a a7 3d 61 95 c6 bd 2a 86 a7 be
       0.009114851 0.08171549 -0.096964605 -0.32719547
0001a0 0a 18 88 be 7d 42 81 3d 07 25 34 3d d4 cf 09 be
       -0.2658084 0.0631151 0.043980625 -0.13458186
0001b0 7f 0b 25 be 54 f3 45 be 6f fc c7 bb 0b eb 47 3e
       -0.16117667 -0.19331104 -0.0061030905 0.19523256
0001c0 14 35 1f 3d 99 34 ba be 7e 9b 69 be 8f d5 5c 3d
       0.03886898 -0.36368254 -0.22813222 0.053914603
0001d0 29 85 b5 3d 42 92 57 bc 62 db 83 be 92 0c 38 be
       0.08863289 -0.013157429 -0.25753313 -0.17973545
0001e0 4b a3 d5 3c 3f 4a 7e 3d de ce 95 bd c8 23 9c bd
       0.02607884 0.062082525 -0.073148474 -0.07624012
0001f0 02 3c d1 bc bf 81 4d 3d 7c 25 25 3e 89 10 f5 bd
       -0.02554131 0.050172564 0.1612758 -0.119660445
000200 7a 95 55 be fb 23 04 be 63 cd 2f 3e 27 d3 32 3e
       -0.20857802 -0.1290435 0.17168193 0.1746336
000210 39 b8 4b 3d ef f5 36 be d0 18 14 3d 2a 40 05 3e
       0.049736235 -0.17867254 0.036156476 0.13012758
000220 cb 92 48 3e 4b f9 8a 3d 67 f9 74 be da aa 1a be
       0.19587247 0.0678583 -0.23923264 -0.15104237
000230 7b 6f d1 ba a4 18 84 3e a7 f9 13 3e c5 d8 0b be
       -0.0015978658 0.2580005 0.14450704 -0.1365691
000240 44 ff ff bc e7 84 3a 3e 05 37 fa 3d 1f d9 79 3d
       -0.03124965 0.1821476 0.122175254 0.06099808
000250 31 25 47 3c 70 dd 61 bd ea 6e 7c 3c f9 3a 67 3e
       0.012154863 -0.05514282 0.015407303 0.2258109
000260 0c 78 4b 3e 25 fe 18 3d 45 74 19 3e b4 56 5a 3d
       0.19870013 0.037351746 0.1498576 0.053305343
000270 84 78 60 3e 45 47 52 3e 0d 29 cb 3d 09 bf 0a 3d
       0.21920973 0.20535 0.09919939 0.03387359
000280 76 c4 39 3e 8f 04 8e bd 5e 7f bc be 47 0d ae 3d
       0.1814135 -0.06934463 -0.36815923 0.08498626
000290 88 f8 56 3d 24 0d 65 3b 88 5d 00 bd 96 5e 84 be
       0.05248311 0.003495046 -0.0313392 -0.25853413
0002a0 14 f1 80 be eb e9 51 be 0c 64 02 3d 93 51 c6 bd
       -0.25183928 -0.20499389 0.031833693 -0.09683528
0002b0 0f 33 fa bc 0c c7 14 3d 3c a8 b6 bd 83 e3 8d bc
       -0.030541925 0.03632264 -0.08918807 -0.0173204
0002c0 c8 ff 4c 3e 49 0e f5 3c ce 43 68 bd be 4e d3 3c
       0.20019448 0.029914038 -0.05670529 0.025794383
0002d0 9c b2 22 3e 86 3e cc 3d 8b 4d 1d 3e 11 aa 44 3b
       0.15888447 0.09972863 0.15361612 0.0030008594
0002e0 9e b4 c4 bd 05 a6 6b 3e a5 db 97 bd 4e f7 f3 be
       -0.096047625 0.2301255 -0.07414941 -0.47649616
0002f0 82 9a 3b 3d b8 ff 95 bd 20 47 2d bd bc dd 09 be
       0.045801647 -0.07324165 -0.04230416 -0.13463491
000300 29 4e 6c be 0d 56 a4 bd 74 fc b4 bc dd f9 fd 3c
       -0.2307669 -0.080242254 -0.022093035 0.031002933
000310 e5 8d 58 bc 61 8f 11 be 6b ef 08 3e c8 62 81 3d
       -0.013217424 -0.14214851 0.1337258 0.06317669
000320 8c 17 7b bd db 9d 89 bd fe 42 ad be c8 43 42 be
       -0.061301753 -0.06719562 -0.33840173 -0.18971169
000330 f9 0d 9f bd 94 53 19 bd 9a 14 43 bd 37 87 f7 3c
       -0.07766337 -0.037433222 -0.04762707 0.030215843
000340 e0 bd b0 bd 22 10 bd bc a9 a3 37 3e 23 04 32 3d
       -0.08629966 -0.023078982 0.17933525 0.043460976
000350 3f 93 51 be a1 16 80 3e c1 b0 29 3d f0 2c 23 bd
       -0.20466326 0.25017264 0.04142833 -0.039837778
000360 e5 ca 20 3d 63 dc d2 3b 51 64 cb 3d 3f e2 e8 3d
       0.039255995 0.0064349636 0.09931243 0.11371278
000370 fb 82 88 3c 42 42 0d bd 0e 25 14 3e 0d 58 59 3e
       0.016664019 -0.034487016 0.1446726 0.21224995
000380 16 81 f7 3d 2a 90 c7 bd 14 a6 65 3d aa 3a 52 be
       0.12085168 -0.09744294 0.056066588 -0.20530191
000390 15 99 93 be 68 c5 79 be a2 ba ac bc 7c 7a 4d 3b
       -0.2882773 -0.24391711 -0.021085087 0.0031353524
0003a0 1e 5b 4b 3e 9a 9b db 3d 77 02 b7 3a 24 91 18 bd
       0.19858977 0.10723038 0.0013962527 -0.037247792
0003b0 50 fa 28 be 7d 6b df 3d ea 99 e8 3d da 3a 54 3d
       -0.16501737 0.10909174 0.11357482 0.051813938
0003c0 62 0c 41 be 46 36 e1 bd 44 36 82 3c 42 42 05 3e
       -0.1885238 -0.1099668 0.015895016 0.13013557
0003d0 b9 14 12 3e f3 5b 90 3d 7f eb 09 3e fb 81 b2 3d
       0.14265718 0.07048788 0.13468741 0.08716198
0003e0 d6 46 0f 3d f9 a8 8d 3d 71 b3 a0 3d 0c 04 27 3e
       0.034979664 0.069169946 0.07846726 0.16310138
0003f0 70 4c ff 3d 9d 9c 9c 3d 9a ef 0b 3d 2a 45 98 bd
       0.12465751 0.07647059 0.03416405 -0.07435067

nested_model.net.0.conv.bias f4 [12]
000000 ca 19 ab b7 cf 0c 7a b7 5f 71 38 38 33 95 43 b7
       -2.0396797e-05 -1.4904143e-05 4.3974604e-05 -1.1657644e-05
000010 aa d5 2f b7 b9 14 fe 35 1a 5d 06 b8 b0 48 30 38
       -1.048056e-05 1.8930506e-06 -3.2034797e-05 4.2029365e-05
000020 37 70 03 b6 4f 30 69 b6 b3 cc 5b 37 9e 2a e7 b6
       -1.9585839e-06 -3.4747825e-06 1.31010775e-05 -6.8892978e-06

nested_model.net.0.bn.weight f4 [12]
000000 a3 91 85 3f bc a2 0a 3f 56 a5 6c 3f c6 3f 28 3f
       1.043507 0.5415456 0.9243978 0.6572231
000010 5c 89 11 3f 0c f3 61 3e ad ee 05 3f 9b c8 3c 3f
       0.5685022 0.22065371 0.52317315 0.737436
000020 d8 f3 24 3f 38 bf 95 3e 5c 61 dd 3e 4c 33 1b 3f
       0.64434576 0.2924745 0.43238342 0.6062515

nested_model.net.0.bn.bias f4 [12]
000000 02 39 7f 3f f7 09 54 be cf 49 bc 3e ce 2f 23 3e
       0.9969636 -0.20706926 0.3677506 0.15936205
000010 14 70 29 be ca d5 9d 3d 99 fe cf 3d 78 11 a3 3e
       -0.1654666 0.07706793 0.101559825 0.31849265
000020 3e 8e eb bb 03 0a ce bd c4 ed 1a bd e9 64 5c be
       -0.0071885874 -0.10060503 -0.037824407 -0.21522869

nested_model.net.0.bn.running_mean f4 [12]
000000 e8 98 98 bb ca 6c 1f be 2e ed 2c bc 6d b3 36 bd
       -0.0046568997 -0.15568843 -0.010554595 -0.044604708
000010 b2 09 20 3e c0 3d 51 3f 4d 05 10 be 7f f2 8a 3d
       0.15628698 0.8173485 -0.14064522 0.06784534
000020 24 aa 5e bc 3e b6 2b 3f 9b d0 53 be b8 a0 b8 bf
       -0.013590369 0.67074955 -0.20685045 -1.4424047

nested_model.net.0.bn.running_var f4 [12]
000000 16 ec e9 3c 7c f9 cc 3e ec c3 80 3d ac da db 3d
       0.028554957 0.4003409 0.06287369 0.10735068
000010 84 d0 15 3e c7 13 00 3f 26 22 9f 3d 9d 0b 03 3e
       0.14630324 0.5003018 0.07770185 0.12797399
000020 45 2e 63 3e 30 ad b1 3e 17 85 da 3d 48 fc 6c 3f
       0.22185619 0.34702444 0.10669916 0.9257245

nested_model.net.1.conv.weight f4 [12, 12, 5, 5]
000000 55 66 02 00 62 7c 00 80 dc 32 00 00 32 06 00 80
       2.20381e-40 -4.462e-41 1.8245e-41 -2.222e-42
000010 f1 26 00 80 7b 5e 00 00 7e 55 00 00 ec 0d 00 00
       -1.397e-41 3.3893e-41 3.0669e-41 4.994e-42
000020 bf 01 01 80 8e a4 00 80 7b 60 00 80 b7 1b 00 80
       -9.2462e-41 -5.9031e-41 -3.461e-41 -9.942e-42
000030 67 0d 00 80 11 a2 01 00 9f 5c 00 80 e2 47 00 00
       -4.808e-42 1.49974e-40 -3.3226e-41 2.5787e-41
000040 80 b6 00 80 df 70 01 00 2e 36 00 80 38 80 00 80
       -6.5469e-41 1.32326e-40 -1.9436e-41 -4.5996e-41
000050 9d 05 02 80 4e 42 00 80 51 8d 02 00 40 e0 01 80
       -1.85685e-40 -2.3786e-41 2.34366e-40 -1.72281e-40
000060 6a 5f 00 00 34 a6 00 00 8b 7b 00 80 5a 8c 00 00
       3.4228e-41 5.9622e-41 -4.4319e-41 5.0349e-41
000070 b3 a6 00 00 fa 0b 00 80 3d 0d 00 00 ec 58 00 00
       5.98e-41 -4.296e-42 4.749e-42 3.1899e-41
000080 96 7e 00 00 85 2e 00 00 6f 62 00 80 9d 2a 00 80
       4.541e-41 1.6688e-41 -3.5311e-41 -1.5287e-41
000090 a4 7c 00 00 70 70 00 80 25 18 00 00 50 07 00 80
       4.4713e-41 -4.0335e-41 8.661e-42 -2.623e-42
0000a0 8c 6d 00 80 d8 0a 00 00 01 3a 00 00 70 38 00 00
       -3.9298e-41 3.89e-42 2.0808e-41 2.0246e-41
0000b0 b0 28 00 80 55 23 00 00 ee 30 00 00 0c 77 00 80
       -1.4596e-41 1.2675e-41 1.7553e-41 -4.2706e-41
0000c0 39 03 00 00 d7 a4 00 00 a6 38 00 00 6a 23 00 80
       1.156e-42 5.9133e-41 2.0322e-41 -1.2704e-41
0000d0 67 3f 01 00 c4 ab 00 80 30 20 02 00 3d 47 01 80
       1.1458e-40 -6.1618e-41 1.95218e-40 -1.17391e-40
0000e0 0d 18 00 80 08 3c 04 80 bb 84 01 80 1b de 01 00
       -8.628e-42 -3.88877e-40 -1.3945e-40 1.71512e-40
0000f0 01 a0 01 80 21 b9 00 00 8d d0 04 00 ca 9d 02 00
       -1.49234e-40 6.6412e-41 4.42156e-40 2.40275e-40
000100 6a b3 00 00 8c f2 01 00 7f 18 00 00 1f 03 01 00
       6.4362e-41 1.78845e-40 8.788e-42 9.2955e-41
000110 6c 21 06 80 f7 07 02 80 9c 18 00 00 e8 80 00 80
       -5.63002e-40 -1.86528e-40 8.828e-42 -4.6243e-41
000120 94 b2 04 80 51 9f 02 00 a8 ed 01 00 c9 9f 00 00
       -4.31404e-40 2.40823e-40 1.7709e-40 5.732e-41
000130 14 21 00 00 c1 8c 00 80 15 17 00 00 b4 4e 00 00
       1.1866e-41 -5.0493e-41 8.28e-42 2.8233e-41
000140 04 0c 00 00 59 48 00 80 d0 8f 00 80 b4 25 00 80
       4.31e-42 -2.5953e-41 -5.159e-41 -1.3525e-41
000150 32 23 00 80 81 0f 00 80 82 3f 00 00 c7 44 00 00
       -1.2626e-41 -5.562e-42 2.2782e-41 2.4673e-41
000160 29 18 00 00 76 ae 00 80 6c 1b 00 00 a1 72 00 80
       8.667e-42 -6.2585e-41 9.837e-42 -4.1121e-41
000170 56 3b 00 80 c0 73 00 80 37 55 00 80 6f 63 00 80
       -2.1286e-41 -4.1523e-41 -3.057e-41 -3.567e-41
000180 c5 1a 00 80 16 54 01 00 15 18 00 00 3e 20 00 80
       -9.603e-42 1.22e-40 8.639e-42 -1.1566e-41
000190 53 ab 00 80 20 04 00 00 0f 01 01 80 28 21 02 80
       -6.146e-41 1.48e-42 -9.2215e-41 -1.95565e-40
0001a0 78 cf 01 00 2a 0e 00 80 88 3b 00 00 b4 60 00 00
       1.66261e-40 -5.081e-42 2.1356e-41 3.469e-41
0001b0 b2 d3 00 00 f8 9c 01 80 71 31 02 00 3a 0a 00 00
       7.5942e-41 -1.48145e-40 2.01407e-40 3.669e-42
0001c0 69 5a 05 00 e2 9b 00 80 f7 ae 02 00 d6 59 00 00
       4.9161e-40 -5.592e-41 2.46437e-40 3.2227e-41
0001d0 a9 52 00 80 9e 60 00 00 79 75 03 80 83 3d 03 00
       -2.9653e-41 3.466e-41 -3.17648e-40 2.97573e-40
0001e0 39 58 00 00 ff f5 00 80 37 3a 00 00 2b 90 00 00
       3.1648e-41 -8.8247e-41 2.0884e-41 5.1718e-41
0001f0 08 45 00 00 e2 8a 00 00 4c 3a 00 80 63 66 00 00
       2.4764e-41 4.9822e-41 -2.0913e-41 3.673e-41
000200 96 62 00 00 0f 5f 00 00 48 1b 00 80 2c 28 00 00
       3.5366e-41 3.41e-41 -9.787e-42 1.4411e-41
000210 d8 60 00 00 47 1c 00 00 d6 5e 00 80 33 a2 00 80
       3.4741e-41 1.0144e-41 -3.4021e-41 -5.8186e-41
000220 6c 0d 00 80 af 4c 00 00 f9 65 00 80 bf aa 00 00
       -4.815e-42 2.7509e-41 -3.6581e-41 6.1252e-41
000230 68 48 00 00 8d a1 00 80 e1 74 00 00 61 66 00 80
       2.5974e-41 -5.7954e-41 4.1928e-41 -3.6727e-41
000240 7a 9d 00 80 93 15 00 80 91 83 00 00 0e 32 00 00
       -5.6492e-41 -7.74e-42 4.7197e-41 1.7956e-41
000250 c8 45 00 80 fd 33 00 80 22 c4 01 00 45 3a 01 80
       -2.5033e-41 -1.865e-41 1.62195e-40 -1.12739e-40
000260 46 9e 00 00 5b 09 00 80 4b 4e 00 80 ae af 00 80
       5.6778e-41 -3.356e-42 -2.8086e-41 -6.3022e-41
000270 d0 84 00 80 3c 37 01 00 ba cc 00 80 6e 8f 00 80
       -4.7644e-41 1.1165e-40 -7.3442e-41 -5.1453e-41
000280 d5 71 00 80 56 01 01 80 0b e8 02 80 59 6b 01 80
       -4.0835e-41 -9.2315e-41 -2.66912e-40 -1.30345e-40
000290 7e 5b 01 80 ac a2 02 00 1a 50 01 80 31 1d 03 80
       -1.24657e-40 2.42027e-40 -1.2057e-40 -2.85978e-40
0002a0 1c f2 00 00 27 12 02 80 a0 50 00 80 16 40 00 00
       8.6852e-41 -1.90183e-40 -2.8923e-41 2.299e-41
0002b0 eb ce 03 00 1a 25 00 00 69 6e 01 80 2b 51 00 00
       3.49735e-40 1.331e-41 -1.31443e-40 2.9118e-41
0002c0 a7 82 00 80 3f 00 00 00 eb 53 00 00 fb 7b 00 00
       -4.6869e-41 8.8e-44 3.0104e-41 4.4476e-41
0002d0 97 40 00 00 4c 5c 00 80 14 0b 00 80 52 51 00 00
       2.317e-41 -3.311e-41 -3.974e-42 2.9172e-41
0002e0 33 61 00 00 88 d3 00 80 49 6f 00 80 cc 2c 00 00
       3.4869e-41 -7.5883e-41 -3.9922e-41 1.607e-41
0002f0 d0 99 00 80 d5 72 00 80 0b 34 00 00 47 71 00 00
       -5.5178e-41 -4.1194e-41 1.867e-41 4.0636e-41
000300 21 09 00 00 5c 14 00 00 6f 49 00 00 ef 5a 00 00
       3.275e-42 7.304e-42 2.6343e-41 3.2621e-41
000310 2b 2e 00 00 30 6c 00 80 0d 61 00 00 dc 30 00 80
       1.6562e-41 -3.881e-41 3.4815e-41 -1.7527e-41
000320 65 1b 00 00 d6 3f 00 80 6f 93 00 00 28 21 03 80
       9.827e-42 -2.29e-41 5.2889e-41 -2.87401e-40
000330 f2 56 00 00 32 8e 00 00 1c 51 01 00 22 77 00 80
       3.119e-41 5.101e-41 1.20932e-40 -4.2737e-41
000340 52 74 00 80 a3 15 00 80 84 6a 00 00 64 33 00 00
       -4.1728e-41 -7.762e-42 3.821e-41 1.8435e-41
000350 5c 73 00 00 35 25 00 00 f4 77 00 00 17 37 00 00
       4.1383e-41 1.3347e-41 4.3031e-41 1.9763e-41
000360 a4 55 00 80 af 09 00 80 fc a0 00 00 59 2e 00 80
       -3.0722e-41 -3.474e-42 5.775e-41 -1.6626e-41
000370 bf 6f 00 80 a4 65 00 80 6b 0f 00 00 c1 7e 00 00
       -4.0087e-41 -3.6462e-41 5.531e-42 4.5471e-41
000380 4e 13 00 00 2d 77 00 80 b0 a5 00 80 e9 5d 00 80
       6.925e-42 -4.2752e-41 -5.9437e-41 -3.3689e-41
000390 02 74 00 00 a9 7c 00 00 2f 7c 00 00 dd 34 00 80
       4.1616e-41 4.472e-41 4.4549e-41 -1.8964e-41
0003a0 58 3b 00 00 bd 8e 00 80 bc 5d 00 00 1c 81 00 80
       2.1289e-41 -5.1205e-41 3.3626e-41 -4.6316e-41
0003b0 68 57 00 80 c5 a2 00 00 ae 8a 00 00 1d 96 00 00
       -3.1355e-41 5.8391e-41 4.9749e-41 5.385e-41
0003c0 c1 41 00 80 dd 43 00 00 bb 2c 00 00 04 13 00 80
       -2.3588e-41 2.4345e-41 1.6046e-41 -6.822e-42
0003d0 3c 7f 00 80 ca 33 00 00 b9 7a 00 00 cb 41 00 00
       -4.5643e-41 1.8578e-41 4.4025e-41 2.3602e-41
0003e0 64 51 00 00 cc 5c 00 80 69 ac 00 00 c6 03 03 00
       2.9197e-41 -3.3289e-41 6.1849e-41 2.7686e-40
0003f0 23 53 01 00 4c db 00 00 ec 32 01 00 07 8c 00 80
       1.2166e-40 7.8669e-41 1.10103e-40 -5.0232e-41
