experiment_outputs/feat_norm_outputs/2/featNRO_S_sigmoid_unfreeze_augment.model (torch_old, 109500 bytes, 62 tensors)

nested_model.unit1.conv.weight f4 [12, 3, 5, 5]
000000 49 b1 f3 3c 22 b9 d2 3c 85 ef 45 bd 7c 04 51 3d
       0.029747622 0.025723044 -0.048324127 0.051029667
000010 84 52 cc bd 08 40 48 3e 78 ca 12 3c a4 b0 da bc
       -0.09976676 0.19555676 0.008959405 -0.026695557
000020 a4 2a 49 3c 1f c1 0c 3a b1 5c 8f 3d 03 53 87 3e
       0.012278233 0.00053693535 0.07000101 0.2643052
000030 c5 a5 57 3e 0f 92 bc be ea 0c 17 3d 36 c8 14 3c
       0.2105933 -0.36830184 0.03687755 0.009080937
000040 c8 f1 64 3d e3 7e 1f be 31 a2 39 be 5f 29 43 3d
       0.055894643 -0.15575747 -0.18128277 0.047646876
000050 aa c5 85 3d 82 07 51 bd a1 08 34 be 49 88 32 bc
       0.06531842 -0.05103255 -0.17581417 -0.010896751
000060 85 8f 59 bd ca 16 99 3d cb 00 50 bc 78 f4 6b bd
       -0.053115387 0.0747505 -0.012695502 -0.05760619
000070 4f 79 10 3e 8d 45 22 3d 6e 0f 2b 3e b3 c5 87 bd
       0.14108776 0.03961711 0.16705105 -0.06629505
000080 9a f4 3e bb a4 b1 db 3d c4 f7 d1 3d 6c ac 56 bd
       -0.0029137493 0.10727242 0.10252336 -0.052410528
000090 65 fd 47 3e 1f fc 83 3e 04 29 a1 be 21 c8 fa 3d
       0.19530256 0.2577829 -0.31476605 0.12245203
0000a0 cf bd d0 bd 88 d1 95 bc a8 48 16 be 57 fb d0 bd
       -0.10192453 -0.018288389 -0.14676154 -0.10204189
0000b0 31 00 0c 3e 37 a4 54 bc 07 f9 0c be ed 5d 27 be
       0.13671948 -0.012978605 -0.13766871 -0.16344424
0000c0 29 3a ae 3d aa 65 96 bc 08 62 b3 bd 34 bc d9 bd
       0.08507187 -0.018359024 -0.08758932 -0.106316
0000d0 f2 c7 e0 bd 47 20 82 3d 6a de a3 bc 46 36 6f 3d
       -0.109756365 0.06353813 -0.020003516 0.05840137
0000e0 74 3d 4a be 3c 0a 09 be bc f8 62 3d 50 87 05 3e
       -0.19750005 -0.1338281 0.055412993 0.13039899
0000f0 6a 85 7c bd d3 8b 86 3d 07 c1 03 3e 9a fa 9f be
       -0.06165067 0.06569638 0.12866603 -0.3124588
000100 46 7c 3e 3e 90 cc 9e bd 99 0b 4f bd 1e af 2e be
       0.18602094 -0.07753861 -0.05054817 -0.1705899
000110 9f 8b 53 bd 21 fb 6f 3e 1f c7 35 3d eb f9 90 bd
       -0.051646825 0.23435642 0.04437935 -0.07078918
000120 56 9f cb bd e4 0c 26 3e af 90 12 3e 4c 46 f7 bc
       -0.099425 0.16215855 0.14313005 -0.030184887
000130 79 84 fd bc 9d 29 00 bd 76 72 fe bc 00 75 f2 bc
       -0.030946957 -0.031289686 -0.031060439 -0.029596806
000140 f8 b1 f8 bc 8b 9c fe bc 39 53 00 bd 4a ad fd bc
       -0.0303583 -0.031080505 -0.031329367 -0.03096642
000150 26 14 f1 bc 24 ba f5 bc 31 db fb bc 44 44 fe bc
       -0.029428553 -0.029995985 -0.030744167 -0.031038411
000160 9a a1 fa bc 8f 29 ed bc de 85 e8 bc 30 67 ed bc
       -0.030594636 -0.02895048 -0.028384145 -0.028979868
000170 e0 95 f0 bc fb 71 e9 bc 9d 09 d8 bc a2 42 d6 bc
       -0.029368341 -0.028496733 -0.026371771 -0.02615482
000180 23 7e d7 bc d0 b3 d8 bc 01 de ce bc d4 52 b7 bc
       -0.026305264 -0.026452929 -0.025252344 -0.022378363
000190 e9 a9 02 bd 68 08 06 bd 6d 4a 08 bd d8 08 09 bd
       -0.03190032 -0.03272286 -0.033274103 -0.0334557
0001a0 09 f3 04 bd c9 dd 02 bd a9 1f 06 bd 17 17 08 bd
       -0.03245834 -0.031949792 -0.032745037 -0.033225145
0001b0 08 a2 08 bd 40 9e 04 bd 37 92 01 bd cf ee 04 bd
       -0.03335765 -0.03237748 -0.031633582 -0.032454308
0001c0 7c 07 07 bd b3 69 07 bd 2b 8e 03 bd bc 20 f8 bc
       -0.032966122 -0.033059787 -0.032118004 -0.030289046
0001d0 3d 0b fe bc 57 b3 01 bd bf 1a 01 bd 26 da f8 bc
       -0.031011218 -0.031665172 -0.031519648 -0.030377459
0001e0 a4 8c e9 bc fe b8 ec bc 43 d9 f0 bc e0 4e ee bc
       -0.028509445 -0.028896805 -0.029400473 -0.029090345
0001f0 21 d0 e1 bc 70 e4 06 bd 2b 47 0d bd f1 e9 11 bd
       -0.027565064 -0.0329327 -0.0344917 -0.035623495
000200 05 e0 13 bd 15 61 0f bd 1e 27 07 bd 8b b0 0d bd
       -0.036102314 -0.035004694 -0.03299629 -0.034592193
000210 84 56 12 bd d3 40 14 bd 99 19 10 bd 8c 68 05 bd
       -0.03572704 -0.036194634 -0.03518066 -0.032570407
000220 4a 1d 0c bd 81 e5 10 bd 0a 15 13 bd 6c d1 0f bd
       -0.03420762 -0.035375122 -0.035908736 -0.03511183
000230 c1 14 fd bc 42 0f 05 bd b4 f6 0a bd da 0f 0d bd
       -0.030893685 -0.032485254 -0.03392668 -0.034438945
000240 09 3c 09 bd 0a 44 e8 bc df 28 f3 bc 2d 56 ff bc
       -0.03350452 -0.028352756 -0.029682575 -0.031169022
000250 88 9e 01 bd 5e 49 f7 bc a4 14 dc 3d 11 48 b2 3c
       -0.031645328 -0.030186351 0.107461244 0.02176288
000260 95 38 2c be 85 47 4d be ea 4c 35 bd 91 1e 27 3d
       -0.1681846 -0.20046814 -0.044262804 0.040800635
000270 8e f1 0b 3c 6c 90 30 be 79 73 7e be 56 ef e5 bd
       0.008541478 -0.17242593 -0.24848737 -0.1122729
000280 bf 49 93 3d 0f df b3 3d 86 8e 5d bd 5a 16 1e be
       0.071918 0.087827794 -0.054091 -0.15438214
000290 9b 06 bc bd c5 b9 f8 3d 70 3e 0f 3e d1 f3 d9 3c
       -0.091809474 0.12144808 0.13988662 0.026605519
0002a0 27 70 30 bd ee da 9b bc 53 57 15 3e cb 1c 21 3e
       -0.043075707 -0.019025292 0.14584093 0.1573364
0002b0 e3 4c 62 3d 2c cf 84 bb 4d 70 47 3b 72 cb 8a 3d
       0.055249106 -0.004053017 0.0030431927 0.06777085
0002c0 a0 6d dd 3a 2d 2e 31 be d9 18 5f be 67 3a ca bd
       0.0016893633 -0.17302771 -0.21786822 -0.098744206
0002d0 c0 00 c8 3b b6 be 03 bb d8 39 23 be 98 1a 78 be
       0.006103605 -0.0020102686 -0.15940034 -0.24228895
0002e0 4f 33 0b be fd 7f f3 3c f0 70 88 3d 4d 9b 69 bd
       -0.13593791 0.029724116 0.06662166 -0.057032872
0002f0 7d c9 24 be 5d 59 e6 bd 6e 4e 86 3d 68 fc c9 3d
       -0.16092487 -0.112475134 0.06557928 0.09862596
000300 e4 4a c3 bb 41 0a 9b bd 21 ab 3d bd e8 f6 b5 3d
       -0.0059598554 -0.07570315 -0.04630578 0.08884984
000310 c1 7c ee 3d 56 74 a8 3c b2 c2 1f bd c9 08 93 bc
       0.11644889 0.020563286 -0.039004035 -0.017948525
000320 0c 54 1b 3e fb 57 fb 3d 12 28 6e bd e2 78 f5 bd
       0.1516878 0.1227264 -0.058143683 -0.11985947
000330 d4 95 fc bc 47 df ca 3d 9e 81 0d 3e 39 dc 03 bd
       -0.030833162 0.09905868 0.13818976 -0.032192443
000340 0a c2 0b be aa cd 57 bd 7c 82 bf 3d ae 0d 3f 3e
       -0.13648239 -0.05268637 0.0935106 0.18657562
000350 72 27 4f 3d c2 c3 a0 bd da fb 3d bd 41 6a cd 3d
       0.050574727 -0.07849838 -0.046382762 0.10030032
000360 ab 06 50 3e 0c d2 cb 3d c9 52 1c 3c 2b b9 9e 3c
       0.20315044 0.09952173 0.009541222 0.019375404
000370 f7 1d a0 3d 31 01 41 3e 5a b1 00 3e 28 a0 82 3d
       0.07818215 0.1884811 0.12567654 0.06378204
000380 95 36 82 3d 47 ac 0f 3e e0 04 2d 3e 04 9d 62 3e
       0.06358067 0.14030562 0.16896391 0.22130209
000390 b3 98 87 3e 42 6e 51 3e 65 cf c2 3d b5 10 bd 3d
       0.26483688 0.20452216 0.095122136 0.09231702
0003a0 9d 9b 0d 3e 55 1c 59 3e 0a 35 42 3e 7b 6f 91 3d
       0.13828893 0.21202214 0.18965545 0.07101341
0003b0 0d 66 3f 3d 73 18 8f 3d a4 3e 1a 3e bf b6 29 3e
       0.046728183 0.06987085 0.15062958 0.16573618
0003c0 c3 57 84 3d 0b 60 03 3d 19 ef f7 3c 19 af b6 3d
       0.06462052 0.032074016 0.030265378 0.08920116
0003d0 a6 95 eb 3d b8 f0 8b 3d a5 8e 46 3d 9c 75 0f 3d
       0.115031525 0.06833023 0.04847588 0.03502427
0003e0 26 20 60 3d 94 17 7c 3d 74 6d af bd 80 5d a6 bd
       0.05471816 0.061545923 -0.085657984 -0.081233025
0003f0 80 dc 03 bd 92 c9 2f 3d 2d c9 83 3d 69 15 19 be
       -0.032192707 0.04291684 0.064348556 -0.14949574

nested_model.unit1.conv.bias f4 [12]
000000 44 53 a4 b8 5f 48 36 33 d3 4f 21 37 2b 53 fb 36
       -7.835639e-05 4.2441e-08 9.614933e-06 7.490065e-06
000010 4f 3e 00 80 e0 48 00 00 1a ab 00 00 f6 8b bc b7
       -2.2352e-41 2.6143e-41 6.138e-41 -2.247652e-05
000020 40 47 00 80 85 9a 00 80 a0 73 00 00 dd 45 14 b7
       -2.556e-41 -5.5431e-41 4.1478e-41 -8.837754e-06

nested_model.unit1.bn.weight f4 [12]
000000 dd 71 01 3f 81 bf 1d bc da de 66 3e c8 6c 7b 3d
       0.50564367 -0.009628178 0.22545949 0.06138304
000010 c0 07 d1 3c aa 42 00 00 20 2f 52 bb ca c9 59 3e
       0.02551639 2.3915e-41 -0.0032071546 0.21268383
000020 02 69 00 80 87 12 00 00 f2 82 00 00 2f 72 03 3e
       -3.767e-41 6.646e-42 4.6974e-41 0.12836526

nested_model.unit1.bn.bias f4 [12]
000000 9d 71 c5 3e 54 75 c7 bc 93 57 53 bd fa ce de 3c
       0.38563243 -0.024347939 -0.05159719 0.027198303
000010 fa 81 47 bd 92 0a ee b8 16 20 38 bd 22 41 a9 b9
       -0.04870794 -0.00011350693 -0.044952475 -0.0003228272
000020 b8 d7 27 b9 9a 09 85 ba 62 75 df b8 4c 38 e8 bd
       -0.00016006723 -0.0010149956 -0.00010655333 -0.11338863

nested_model.unit1.bn.running_mean f4 [12]
000000 be 64 70 bd 74 82 6e bf 8f 62 e8 bd 53 e0 5f 3f
       -0.058689825 -0.93167806 -0.113469236 0.87451667
000010 c8 49 ce b3 76 69 00 80 c0 1b 12 38 35 45 32 bf
       -9.606043e-08 -3.7832e-41 3.4834957e-05 -0.6963685
000020 a8 c6 02 80 b5 95 04 80 5b 59 00 00 dd d6 1b bf
       -2.54935e-40 -4.21047e-40 3.2055e-41 -0.6087473

nested_model.unit1.bn.running_var f4 [12]
000000 ca 7e 3f 3d 57 2e 77 3e f7 1c b9 3e 77 e9 95 3e
       0.046751775 0.24138771 0.3615491 0.29279682
000010 76 e1 73 27 04 00 00 00 c4 41 a2 30 d2 e2 a0 3e
       3.3845247e-15 6e-45 1.1805743e-09 0.3142305
000020 04 00 00 00 04 00 00 00 04 00 00 00 9b 3a 52 3e
       6e-45 6e-45 6e-45 0.20530169

nested_model.unit2.conv.weight f4 [12, 12, 5, 5]
000000 66 c7 25 be e8 b6 e6 bd fb be 87 bd 63 2f 51 bd
       -0.16189346 -0.11265355 -0.066282235 -0.051070582
000010 12 34 26 be 23 e3 5f bd d0 4d 04 bd 49 06 cd bd
       -0.16230801 -0.054659974 -0.03230077 -0.100109644
000020 b5 f4 a1 bd cf e3 3c bc 1f b6 9c bd 5f 57 b0 bd
       -0.07908002 -0.011528923 -0.07651924 -0.08610415
000030 e9 f8 1b bd c5 c2 6a 3d 1a 14 2c 3d 59 db b7 bc
       -0.038079176 0.057314653 0.042011358 -0.02244346
000040 77 51 02 3d 36 97 fb 3d 9e 06 19 3e 18 da bf bc
       0.031815972 0.122847006 0.1494393 -0.023419425
000050 64 ac 85 3d 32 84 3c 3e 86 94 23 3e 7a bf c1 bb
       0.065270215 0.18409804 0.15974626 -0.0059127184
000060 1b 98 b9 bd cb 0b 18 bd 4d 36 ef bc 42 41 16 bd
       -0.09062215 -0.03712062 -0.029200697 -0.03668333
000070 ce 7a e7 b8 28 55 62 3b 05 28 0c bd ad 6c e5 bc
       -0.000110378125 0.003453562 -0.034217853 -0.028005922
000080 73 26 d0 bc 0a 7e 93 3b fc 66 bc 3b 25 a5 03 bd
       -0.025408959 0.004501109 0.0057495814 -0.032139916
000090 16 d3 da bc a0 f6 89 bc 92 0d e2 3b 2e b2 a7 3b
       -0.026711982 -0.016841233 0.0068985904 0.005117676
0000a0 da 62 2d bd 94 7c 0d bd 1e 8d 04 bd ee ad fd 3b
       -0.0423306 -0.034542635 -0.032361142 0.0077416813
0000b0 cc cf 0c 3c c8 76 2a bd b0 6b f0 bc 7f 03 08 bd
       0.0085944645 -0.041617185 -0.029348224 -0.03320646
0000c0 4c 83 06 bc 8c 5f 8d b9 2d ad ec bd 3a d8 6b bd
       -0.008210015 -0.00026964804 -0.11556468 -0.057579257
0000d0 0e 5f d9 bd 16 76 00 be 7c ee e5 bb bf c2 23 be
       -0.10613833 -0.12545046 -0.007016955 -0.15992258
0000e0 e4 eb c4 bd 54 80 0b be 40 82 0c be 05 e6 a3 3c
       -0.09615305 -0.13623172 -0.13721561 0.020007143
0000f0 15 76 50 be ab ee 17 be 03 17 39 be cb 8e 22 be
       -0.20357545 -0.14837138 -0.18075185 -0.15874784
000100 ea 30 9a 3c 21 9e c0 bd ef f7 35 bd 4e 2f a6 bd
       0.018822152 -0.09405161 -0.0444259 -0.081144914
000110 b7 8e c8 bd 1a cf 83 3d e6 0e 5e bd c7 b9 64 3b
       -0.09792846 0.06435986 -0.054213427 0.003490077
000120 18 ee aa bc e7 66 b0 bd f6 a7 b4 3c 46 b5 98 bd
       -0.020865485 -0.08613377 0.022052746 -0.0745645
000130 95 99 96 bd 75 23 8c bd d5 5e 4b bd d1 ce 6b bc
       -0.07353512 -0.068427004 -0.049650986 -0.014392571
000140 d0 6e e2 bd 58 af d7 bd b1 d6 d5 bd dc bd c8 bd
       -0.11056292 -0.10531491 -0.1044134 -0.09801838
000150 0e fe 9d bd be 48 12 be 3f d7 0a be 8d 96 0c be
       -0.07714473 -0.14285561 -0.13558672 -0.13729306
000160 5d 67 0f be e2 4e 07 be dd 11 37 be b5 40 2f be
       -0.14004274 -0.13213685 -0.17877908 -0.17114528
000170 91 06 35 be 79 45 3f be 64 37 3d be 8b 1c 64 be
       -0.17678286 -0.18678845 -0.18478161 -0.22276513
000180 d7 b4 5b be 4c b2 5f be 12 9f 68 be 88 2d 67 be
       -0.21455704 -0.21845359 -0.2271693 -0.22575963
000190 98 87 00 00 52 62 00 80 7e 4b 00 00 c7 81 00 00
       4.8642e-41 -3.527e-41 2.7081e-41 4.6555e-41
0001a0 5d 34 00 00 6c 70 00 00 43 4a 00 80 a6 18 00 00
       1.8784e-41 4.033e-41 -2.664e-41 8.842e-42
0001b0 f0 09 00 80 9f 21 00 80 7f 28 00 80 44 6c 00 00
       -3.565e-42 -1.2061e-41 -1.4527e-41 3.8838e-41
0001c0 71 97 00 00 2c 84 00 80 5b 69 00 00 ed 6d 00 00
       5.4327e-41 -4.7414e-41 3.7794e-41 3.9434e-41
0001d0 9a 11 00 00 26 10 00 00 e5 48 00 00 a3 47 00 80
       6.314e-42 5.793e-42 2.615e-41 -2.5698e-41
0001e0 46 68 00 00 ca 0f 00 00 6f 86 00 00 44 85 00 80
       3.7406e-41 5.664e-42 4.8226e-41 -4.7807e-41
0001f0 6e 3d 00 80 63 f3 23 9b b6 cf b3 19 80 d2 40 17
       -2.2037e-41 -1.3561686e-22 1.859206e-23 6.2304234e-25
000200 53 d6 80 1a e2 f9 75 19 80 97 aa 17 53 bf 2f 19
       5.328582e-23 1.27166666e-23 1.1024236e-24 9.0859256e-24
000210 0c fd c0 96 ae 5a 27 1a 2a 65 a8 9b c1 b8 a2 19
       -3.1178968e-25 3.460804e-23 -2.7858644e-22 1.6825029e-23
000220 15 c1 67 18 38 44 ab 90 6a 82 07 1b 81 d5 1d 99
       2.9953532e-24 -6.7552715e-29 1.1209077e-22 -8.1598265e-24
000230 a7 9c 88 1a cd f8 96 16 63 c2 5d 16 04 e2 1b 9b
       5.650137e-23 2.4390822e-25 1.7913575e-25 -1.2894329e-22
000240 5a 62 82 1a f8 2c b6 1a a6 5d be 1a f4 cf bd 9a
       5.3925635e-23 7.5346087e-23 7.8733455e-23 -7.8504534e-23
000250 dc b6 eb 9a 97 b1 f7 9b 39 9b 00 00 7d 2f 00 00
       -9.748915e-23 -4.0977487e-22 5.5683e-41 1.7036e-41
000260 a6 1f 00 80 22 61 00 80 c5 84 00 80 40 29 00 80
       -1.1353e-41 -3.4845e-41 -4.7629e-41 -1.4798e-41
000270 3b 0d 00 80 83 52 00 00 15 36 00 80 20 8f 00 80
       -4.746e-42 2.96e-41 -1.9401e-41 -5.1344e-41
000280 0d 87 00 00 a9 73 00 00 34 86 00 00 d4 52 00 00
       4.8447e-41 4.1491e-41 4.8143e-41 2.9713e-41
000290 d8 a2 00 00 e2 0f 00 00 f1 2a 00 80 7e 94 00 80
       5.8417e-41 5.698e-42 -1.5404e-41 -5.3269e-41
0002a0 9b 8c 00 80 86 2f 00 00 94 68 00 80 cf 20 00 00
       -5.044e-41 1.7048e-41 -3.7516e-41 1.177e-41
0002b0 3e 46 00 00 09 29 00 00 80 82 00 00 60 97 a8 bd
       2.5198e-41 1.472e-41 4.6815e-41 -0.082319975
0002c0 64 8f 86 bd 51 ef cb bc 18 ba 33 3c b2 5c ea bc
       -0.06570318 -0.024894388 0.010969661 -0.028608654
0002d0 53 9d a4 bd 9d 47 6f bd 86 ea 00 bd 70 7c 75 bc
       -0.0803782 -0.058417905 -0.03147366 -0.0149832815
0002e0 02 64 7b bd 62 bc 08 be 53 05 ef bd f8 7b 04 be
       -0.06137467 -0.13353112 -0.116709374 -0.12937915
0002f0 e8 dc 11 be 17 16 41 be 4e 1d ba bd a2 a6 c9 bd
       -0.14244425 -0.18856083 -0.09087621 -0.09846236
000300 7d c6 0c be bc e0 0b be fd 06 1e be b6 21 29 be
       -0.13747592 -0.13659948 -0.15432353 -0.16516766
000310 b0 89 5b be 27 52 8f be 23 2e 83 be 12 93 47 be
       -0.21439242 -0.27992365 -0.25621137 -0.19489697
000320 16 fd c0 9c 2e 35 97 1c fb 24 47 9d 0e 7a 07 9f
       -1.2770915e-21 1.0006088e-21 -2.635655e-21 -2.8688323e-20
000330 ef b0 ac 9d 2c f3 40 9f eb 82 ed 9b 75 1e 05 1b
       -4.5710966e-21 -4.085873e-20 -3.9292965e-22 1.1011343e-22
000340 c2 d3 9b 11 41 2a 25 9b 92 fe 1c 1f 5d 54 9e 91
       2.4585194e-28 -1.3662133e-22 3.324486e-20 -2.4979997e-28
000350 33 ea af 0a 75 d7 c7 1b 30 72 1c 91 61 c4 2a 1f
       1.6939983e-32 3.3061024e-22 -1.2341417e-28 3.616134e-20
000360 e0 2d 26 0e 46 aa a9 0e fa 6a fc 1c a4 53 e4 10
       2.0483168e-30 4.1825684e-30 1.6703614e-21 9.005901e-29
000370 34 ef 18 1e d1 ee 72 16 ae 30 3d 98 74 94 26 1b
       8.096279e-21 1.9623961e-25 -2.4452254e-24 1.3779166e-22
000380 f0 7b 2d 96 a5 6f 00 80 d9 1d 00 80 77 4d 00 00
       -1.4013936e-25 -4.005e-41 -1.0707e-41 2.7789e-41
000390 64 31 00 80 6d 4b 00 00 81 37 00 80 d1 4d 00 80
       -1.7718e-41 2.7058e-41 -1.9911e-41 -2.7915e-41
0003a0 fb 54 00 80 23 57 00 00 9a 46 00 00 08 34 00 00
       -3.0485e-41 3.1259e-41 2.5327e-41 1.8665e-41
0003b0 35 21 00 80 03 0b 00 00 92 59 00 80 e3 6e 00 80
       -1.1912e-41 3.95e-42 -3.2132e-41 -3.9779e-41
0003c0 1c 84 00 00 52 9d 00 00 06 09 00 00 fe 27 00 80
       4.7392e-41 5.6436e-41 3.237e-42 -1.4346e-41
0003d0 b9 6a 00 00 27 14 00 00 a9 30 00 80 57 99 00 80
       3.8285e-41 7.229e-42 -1.7456e-41 -5.5008e-41
0003e0 9a ac 00 80 7d 95 00 00 e4 a7 33 a1 86 0a 06 22
       -6.1918e-41 5.3626e-41 -6.086976e-19 1.8165957e-18
0003f0 de 0d 84 2a 37 2b 8a ad 44 dc 01 2c e3 a7 a5 26
       2.3457533e-13 -1.5707975e-11 1.8454275e-12 1.1494681e-15

nested_model.unit2.conv.bias f4 [12]
000000 7c d3 c0 b7 fb 4d 00 00 ae 49 00 80 0c fa 84 37
       -2.2986664e-05 2.7974e-41 -2.6431e-41 1.5852063e-05
000010 ba ba e6 37 13 21 00 80 c7 83 00 80 65 0a 00 80
       2.7505088e-05 -1.1865e-41 -4.7273e-41 -3.729e-42
000020 2d 5c 00 00 bf e5 4c 8c ca 6d 00 80 50 18 36 b7
       3.3066e-41 -1.5784725e-31 -3.9385e-41 -1.0853706e-05

nested_model.unit2.bn.weight f4 [12]
000000 22 b4 f9 3d cb c2 f2 ba f2 a6 00 80 28 87 60 3e
       0.12192561 -0.0018521188 -5.9889e-41 0.21926558
000010 f4 47 54 3e f6 b6 45 a6 e4 9a 00 00 8c 45 00 00
       0.20730573 -6.8596063e-16 5.5564e-41 2.4949e-41
000020 45 e2 ab 39 a1 4f a6 bb b6 c6 19 34 55 9a 39 3e
       0.00032784246 -0.0050754105 1.4321526e-07 0.18125279

nested_model.unit2.bn.bias f4 [12]
000000 10 82 b5 3d fb db a2 bc 48 ef bb bc 3a b2 04 be
       0.08862698 -0.019880285 -0.022941247 -0.12958613
000010 ff 8f ce bd d3 a7 7b a9 b1 ff cb ba 2c 71 f0 b5
       -0.10086059 -5.587876e-14 -0.0015563873 -1.7914331e-06
000020 0b 6d 71 b8 59 f5 04 bd a8 2d 82 af 7a 57 bd bd
       -5.756043e-05 -0.032460544 -2.3679303e-10 -0.092452005

nested_model.unit2.bn.running_mean f4 [12]
000000 2c 7a 0f bf 63 3b 0a b7 ba a6 00 80 7c 46 38 be
       -0.56045794 -8.239268e-06 -5.981e-41 -0.17995638
000010 e9 f5 0a be 8d aa 00 80 88 96 00 80 1f 26 00 80
       -0.1357037 -6.1182e-41 -5.4e-41 -1.3675e-41
000020 df fb 7c 9f 95 99 78 ba c9 e5 00 80 8e de d2 3d
       -5.357142e-20 -0.0009483335 -8.2431e-41 0.10296355

nested_model.unit2.bn.running_var f4 [12]
000000 92 08 f9 3d bd 97 0e 2e 04 00 00 00 54 40 72 3d
       0.12159838 3.2421833e-11 6e-45 0.05914338
000010 01 9f 23 3e 04 00 00 00 04 00 00 00 04 00 00 00
       0.15978624 6e-45 6e-45 6e-45
000020 0f 30 1a 00 db 37 4a 37 04 00 00 00 95 d0 15 3e
       2.404963e-39 1.2053143e-05 6e-45 0.14630349

nested_model.unit3.conv.weight f4 [12, 12, 5, 5]
000000 42 c6 23 bd 4e 40 51 bd 5a 27 43 bd b4 e7 7b bd
       -0.039983995 -0.051086716 -0.04764495 -0.061500266
000010 2d 1d a2 bc 70 dd ad bd 10 c1 ad bd 05 ef be bd
       -0.019789303 -0.084895015 -0.084840894 -0.09322933
000020 94 f1 d7 bd 7b b3 07 bd 80 69 bc bd b7 17 d5 bd
       -0.10544124 -0.03313015 -0.0919981 -0.10404914
000030 f5 3c a8 bd 06 bf ca bd f3 81 5b bc 8a 9d 1d bd
       -0.08214752 -0.09899716 -0.0133976815 -0.03848032
000040 86 0a 67 bc 85 91 50 3d af e8 58 3d 89 0a 3c 3d
       -0.01410163 0.05092003 0.05295628 0.045908485
000050 f3 d9 80 3d a2 bd 08 3e 6f f4 62 3e 30 9e 37 3e
       0.062915705 0.13353589 0.22163557 0.17931437
000060 a4 b4 04 3e 7c 73 76 99 a7 83 6b 91 9c f8 d1 0f
       0.12959534 -1.2741224e-23 -1.85788e-28 2.0704752e-29
000070 6b 2f 89 99 c6 d4 0e 9f dd 38 1d 1b 01 5f 8e 10
       -1.418462e-23 -3.0245672e-20 1.3005109e-22 5.61555e-29
000080 fc 22 0b 10 3a 76 16 9b db 35 b7 a0 87 f4 8c 1b
       2.7439867e-29 -1.244591e-22 -3.1037044e-19 2.331908e-22
000090 1a db 86 11 53 e0 9f 15 fe 5d 19 1c 87 a9 0f a3
       2.1276504e-28 6.457351e-26 5.0744936e-22 -7.787944e-18
0000a0 8e 4c d4 1a b0 2d 54 97 a4 0c 05 1b 69 14 45 1f
       8.7804826e-23 -6.855856e-25 1.1005587e-22 4.1733256e-20
0000b0 0d 5d 9c a4 a3 8b 80 1a 02 7f ab 9c f4 0c 33 1e
       -6.781185e-17 5.3165154e-23 -1.1348662e-21 9.47886e-21
0000c0 9e 38 b5 a1 9a 4c 2d a6 06 d5 f2 32 a0 0a 91 2e
       -1.2280024e-18 -6.0125247e-16 2.826938e-08 6.595724e-11
0000d0 10 f4 51 23 8c 17 90 30 94 88 7d 35 4a fa ae 31
       1.1381595e-17 1.0484071e-09 9.444859e-07 5.092521e-09
0000e0 d2 06 8d 2c 91 95 40 14 11 b7 1a 2f ef a2 4e 35
       4.0082182e-12 9.7230196e-27 1.4071257e-10 7.697808e-07
0000f0 ca 5e d4 2a 82 cc 1b 15 f9 64 00 00 7d 78 52 24
       3.7724538e-13 3.146333e-26 3.6222e-41 4.563855e-17
000100 ef 36 a9 33 c9 96 00 2f 06 a1 38 27 0d 0f 03 00
       7.879668e-08 1.1695102e-10 2.562242e-15 2.80906e-40
000110 5f 97 52 2c c3 32 03 35 ba a9 f5 31 04 0b 3d 2e
       2.9926823e-12 4.887517e-07 7.149734e-09 4.298341e-11
000120 8c b3 d7 1d e3 51 dc 30 39 31 22 36 e2 11 8c 3d
       5.7095673e-21 1.603038e-09 2.4168532e-06 0.068393484
000130 75 91 8c bb 82 12 1c bd 38 48 3d bd d2 82 93 3d
       -0.0042898008 -0.038103588 -0.04621145 0.07202686
000140 12 9c 3b bd 5e 64 3c bd 16 ee 29 bb cb 26 13 bd
       -0.045803137 -0.045994155 -0.0025929264 -0.035925668
000150 77 d8 61 3d b0 53 0d be 0b a5 d6 bc 07 2b be bc
       0.055138078 -0.13801455 -0.026201745 -0.023213876
000160 44 e1 29 bd 73 e1 c1 3c ce da b7 bd 96 15 a2 bd
       -0.041474596 0.023667073 -0.089772806 -0.079142734
000170 73 a5 28 bd c1 45 74 bc 03 7a 27 3d 97 d3 68 3d
       -0.04117341 -0.014909209 0.040887844 0.056842413
000180 84 ea ea 3d 9e 68 38 3e 01 f1 22 3e 68 3b 77 3e
       0.114705116 0.18008658 0.15912248 0.24143755
000190 12 4c 6e be bb a4 bf be 1f 30 7f be 84 a6 f8 bd
       -0.23271206 -0.37430367 -0.249207 -0.12141135
0001a0 7a 2b a3 be 62 35 28 be 1b 12 bc be c6 61 6e be
       -0.31869107 -0.16426614 -0.36732563 -0.23279485
0001b0 12 25 ef bd db 19 9e be 44 ca 1f be 66 b4 a8 be
       -0.116769925 -0.308791 -0.15604502 -0.32950133
0001c0 83 62 5b be 8f 57 22 be 97 15 8f be b7 a0 f5 bc
       -0.21424298 -0.15853713 -0.2794616 -0.029983861
0001d0 d6 e5 38 be 04 e1 f8 bd 11 ca 2d bd cf 85 8c bd
       -0.18056425 -0.12152293 -0.042429034 -0.068614595
0001e0 db a4 aa 3d c2 2d b5 bd bd cf bb bc c8 41 f7 3d
       0.08332225 -0.08846618 -0.022926206 0.12073094
0001f0 60 f5 ee 3d 84 13 00 80 96 50 00 00 c6 2c 00 00
       0.11667895 -7.001e-42 2.8909e-41 1.6062e-41
000200 0c 40 00 80 31 76 00 80 ee 6e 00 00 3b 72 00 00
       -2.2976e-41 -4.2399e-41 3.9794e-41 4.0978e-41
000210 a1 32 00 80 e3 33 00 00 4c 5a 00 00 a8 90 00 80
       -1.8162e-41 1.8613e-41 3.2392e-41 -5.1893e-41
000220 b8 0b 00 00 17 08 00 80 91 85 00 00 37 92 00 80
       4.204e-42 -2.902e-42 4.7915e-41 -5.2452e-41
000230 b6 30 00 80 13 10 00 80 e4 3a 00 00 cd 0e 00 80
       -1.7474e-41 -5.766e-42 2.1126e-41 -5.31e-42
000240 e0 19 00 00 56 8d 00 00 b0 95 00 80 51 58 00 00
       9.282e-42 5.0702e-41 -5.3698e-41 3.1682e-41
000250 c2 39 00 80 87 5a 00 00 55 0e 00 80 95 31 00 00
       -2.072e-41 3.2475e-41 -5.141e-42 1.7787e-41
000260 fb 2c 00 80 ee 2d 00 80 7b 5f 00 80 5d 9e 00 00
       -1.6136e-41 -1.6476e-41 -3.4252e-41 5.681e-41
000270 18 2d 00 00 ad a2 00 00 53 29 00 00 8e 71 00 80
       1.6177e-41 5.8357e-41 1.4824e-41 -4.0736e-41
000280 af 0f 00 00 da ab 00 00 e4 3d 00 00 c4 03 00 80
       5.626e-42 6.1649e-41 2.2202e-41 -1.351e-42
000290 31 07 00 80 59 72 00 00 c5 13 00 80 78 7b 00 00
       -2.58e-42 4.102e-41 -7.092e-42 4.4292e-41
0002a0 eb 6e 00 00 fd 9a 00 00 f9 47 00 00 6f 97 00 80
       3.979e-41 5.56e-41 2.5819e-41 -5.4324e-41
0002b0 ae 85 00 80 fe 90 00 00 a7 4c 00 80 d5 7f 21 8a
       -4.7955e-41 5.2013e-41 -2.7498e-41 -7.7759106e-33
0002c0 fc 9d 86 89 37 84 24 09 dd ba cb 88 93 6b 96 87
       -3.2407894e-33 1.9802949e-33 -1.2261549e-33 -2.2632718e-34
0002d0 48 37 35 88 fe e2 1f 85 ee be f0 80 94 10 40 00
       -5.453269e-34 -7.517836e-36 -2.2109012e-38 5.883419e-39
0002e0 b0 16 00 80 52 bc 3b 04 de a0 02 00 07 42 00 00
       -8.139e-42 2.2068217e-36 2.41379e-40 2.3686e-41
0002f0 b3 a9 09 00 ca aa 9a 80 40 6d 11 81 20 50 00 00
       8.87396e-40 -1.4203934e-38 -2.6710677e-38 2.8743e-41
000300 db 53 07 00 08 19 0f 00 91 bf 1f 02 08 ea 2a 80
       6.7293e-40 1.386512e-39 1.1736452e-37 -3.941045e-39
000310 d8 27 00 00 00 42 0f 00 66 c9 0b 80 f5 12 16 85
       1.4293e-41 1.401209e-39 -1.082439e-39 -7.056448e-36
000320 97 5c 00 80 31 3e 00 00 5e 03 00 00 7b 28 00 00
       -3.3215e-41 2.231e-41 1.208e-42 1.4522e-41
000330 ea 2f 00 00 71 69 00 80 f1 5a 00 80 0e a6 00 00
       1.7188e-41 -3.7825e-41 -3.2624e-41 5.9569e-41
000340 4f 9c 00 00 b3 0e 00 00 65 4e 00 00 b0 43 00 00
       5.6073e-41 5.273e-42 2.8123e-41 2.4282e-41
000350 3d 22 00 80 6f 78 00 00 f2 5b 00 00 38 35 00 00
       -1.2282e-41 4.3203e-41 3.2984e-41 1.9091e-41
000360 c1 8f 00 00 16 57 00 00 51 9b 00 00 3b 34 00 00
       5.1569e-41 3.124e-41 5.5717e-41 1.8737e-41
000370 b5 17 00 00 ce 90 00 80 cb 1b 00 00 d5 7d 00 80
       8.504e-42 -5.1946e-41 9.97e-42 -4.514e-41
000380 56 55 00 80 30 40 e7 b5 8b 63 9d b4 27 20 3e b4
       -3.0613e-41 -1.7229522e-06 -2.9315956e-07 -1.7706826e-07
000390 ad 42 08 b4 70 75 0f b3 bd c1 16 b4 f4 66 5e b4
       -1.2690244e-07 -3.340159e-08 -1.404032e-07 -2.0712815e-07
0003a0 f0 7b 04 b4 1e 27 0b b5 3e 53 08 35 df 06 83 b4
       -1.2338546e-07 -5.183846e-07 5.078508e-07 -2.440565e-07
0003b0 d6 8c 19 b3 f2 c7 8b b3 4f c6 b3 33 6a 06 64 34
       -3.5751178e-08 -6.509062e-08 8.371409e-08 2.1236488e-07
0003c0 c2 c7 50 b5 bc 62 62 b3 6b 11 57 b3 75 5c 78 35
       -7.7776724e-07 -5.2709524e-08 -5.007443e-08 9.252174e-07
0003d0 a9 66 f5 34 6f a8 1f b4 33 40 9a b2 08 33 70 b4
       4.57095e-07 -1.4869305e-07 -1.7957154e-08 -2.2370307e-07
0003e0 36 90 cf b4 4a f4 0a 35 65 5b 00 80 3a 3d 00 00
       -3.8661682e-07 5.1764493e-07 -3.2786e-41 2.1964e-41
0003f0 cf 6b 00 00 99 7a 00 80 bd 01 00 00 7d 66 00 80
       3.8674e-41 -4.398e-41 6.24e-43 -3.6766e-41

nested_model.unit3.conv.bias f4 [12]
000000 51 1f ad b6 04 36 00 80 ee 84 0a 0f 1f 3a 9a 37
       -5.1594475e-06 -1.9377e-41 6.829527e-30 1.8385295e-05
000010 da 1e 00 00 cd 49 82 b6 de 4b 00 00 00 31 6b 08
       1.1067e-41 -3.8828935e-06 2.7216e-41 7.077534e-34
000020 c1 a7 00 36 c8 b2 0f b6 e1 47 00 80 f8 9a 5d b7
       1.9171132e-06 -2.1412725e-06 -2.5785e-41 -1.3208708e-05

nested_model.unit3.bn.weight f4 [12]
000000 f5 6a 94 3e 06 2d 00 80 a1 a2 28 bc 1c c1 49 3e
       0.28987852 -1.6151e-41 -0.01029268 0.19702572
000010 f1 17 cc 3a 4e 93 66 3e 1c 9a 00 80 b7 4a 7e bc
       0.00155711 0.2251713 -5.5284e-41 -0.015520743
000020 67 78 5b 3e 9f df 73 3e dd 78 00 80 ee 3b 30 3e
       0.21432649 0.23815773 -4.3358e-41 0.17210361

nested_model.unit3.bn.bias f4 [12]
000000 1a ce af bc d1 e3 c4 bb 09 fa 48 bd 13 22 55 3c
       -0.021460582 -0.006008603 -0.049066577 0.013008612
000010 86 2e 98 bc a3 ee 99 3c e6 46 57 b7 31 fe 43 bd
       -0.018576872 0.018790549 -1.2831506e-05 -0.047849838
000020 06 9b 35 bc 2a fc b6 bd ac 5f 82 bc 58 2f af bd
       -0.011084324 -0.08934815 -0.01591476 -0.08553952

nested_model.unit3.bn.running_mean f4 [12]
000000 9d af 80 be 1c 81 00 80 dd 1b 30 3a f4 6d 99 3d
       -0.25133982 -4.6316e-41 0.0006718019 0.07491675
000010 d3 92 fa 37 2c 73 53 be 87 9c 00 00 ef a2 86 3b
       2.9870693e-05 -0.20649403 5.6151e-41 0.0041087787
000020 97 65 0e bd 06 71 f0 3e 7e 73 00 80 ad 57 30 3d
       -0.034764852 0.4696123 -4.1431e-41 0.043052364

nested_model.unit3.bn.running_var f4 [12]
000000 51 a3 8e 3d 04 00 00 00 57 d3 8a 36 9a 6b 1f 3d
       0.06964744 6e-45 4.1373237e-06 0.038920976
000010 af 66 e9 2f 51 d9 97 3d 04 00 00 00 2b 03 b4 36
       4.2455414e-10 0.07414497 6e-45 5.364787e-06
000020 6b 2f 84 3d 26 38 18 3d 04 00 00 00 77 9f 16 3d
       0.06454357 0.037162922 6e-45 0.03677317

nested_model.unit4.conv.weight f4 [12, 12, 5, 5]
000000 ce 2a af bc 1b 96 2e bc 16 ef f4 bc 59 15 dc b8
       -0.021382716 -0.010655905 -0.029899161 -0.00010494394
000010 92 34 aa 3d 2c e3 da bd 11 8e 87 bd 30 1d 89 bd
       0.08310808 -0.10687861 -0.06618894 -0.0669502
000020 b1 91 2d bd c9 23 da 3c f4 ad 19 be 8e 41 9b bd
       -0.04237527 0.026628392 -0.15007764 -0.07580863
000030 8c 8a 8f bd 74 ec 44 bd b1 9c 0e 3b 6d 4f 3b be
       -0.070088476 -0.04807706 0.0021760876 -0.18292017
000040 98 35 10 be e8 a9 0b be d8 bc e3 bd 8f ba 54 bd
       -0.14082944 -0.13639033 -0.111200035 -0.05193573
000050 6b bf f0 bd 2b ac 9b bd b1 ca 22 bd 5d 34 48 bc
       -0.1175526 -0.07601198 -0.039744083 -0.012219516
000060 05 b1 d4 3c 6f 40 00 00 3b 52 00 00 55 31 00 80
       0.025963316 2.3114e-41 2.9499e-41 -1.7697e-41
000070 25 64 00 80 c8 7f 00 80 7f 4e 00 00 2f 28 00 80
       -3.5925e-41 -4.5839e-41 2.8159e-41 -1.4415e-41
000080 f0 a6 00 80 f8 23 00 00 e5 57 00 00 4e 0e 00 80
       -5.9886e-41 1.2903e-41 3.153e-41 -5.132e-42
000090 6e 41 00 80 f4 a4 00 80 2a 6b 00 80 96 3b 00 80
       -2.3472e-41 -5.9174e-41 -3.8443e-41 -2.1375e-41
0000a0 c1 60 00 80 d6 58 00 80 89 0c 00 00 17 8a 00 00
       -3.4709e-41 -3.1868e-41 4.497e-42 4.9537e-41
0000b0 7d 9d 00 00 ba 0e 00 00 13 39 00 00 41 73 00 00
       5.6496e-41 5.283e-42 2.0474e-41 4.1345e-41
0000c0 b2 a7 00 80 d7 4d 00 80 15 6f 83 33 b3 c9 ea 33
       -6.0158e-41 -2.7924e-41 6.1203686e-08 1.0933163e-07
0000d0 f4 69 8c 34 b0 21 3e 33 94 4d 48 33 9c 7a 37 b3
       2.6154123e-07 4.426846e-08 4.6636686e-08 -4.271952e-08
0000e0 22 5b 8a b3 97 46 33 34 a8 78 6e 33 3a fe 01 34
       -6.442703e-08 1.6696355e-07 5.552343e-08 1.2106548e-07
0000f0 51 d0 a5 b2 d6 20 ce b2 8d c0 0d 34 78 b8 8d 34
       -1.930326e-08 -2.3996488e-08 1.3201698e-07 2.6397515e-07
000100 65 ee d9 33 b3 ac 03 31 e5 da 13 31 e7 b3 b9 33
       1.0148214e-07 1.9161177e-09 2.1515743e-09 8.647458e-08
000110 6b dd 21 34 e5 9b 02 34 a2 74 cb 30 26 00 33 31
       1.5074845e-07 1.2163908e-07 1.4803343e-09 2.6048013e-09
000120 57 c3 f5 33 0c a6 4c 34 31 d9 fe 33 d3 84 6d bd
       1.1444234e-07 1.9059388e-07 1.18673036e-07 -0.057988
000130 48 24 7c bd 1d b7 e4 bb 17 18 a1 3c 47 3a 53 3d
       -0.061558038 -0.0069798366 0.019664807 0.05156925
000140 cc 56 4a bd a7 91 00 bd 94 47 4a 3d e1 79 95 3d
       -0.049399182 -0.031388905 0.04938467 0.07298637
000150 5d 9e cb 3d 75 1c e4 bc ff 2f e3 bb 63 56 b2 3d
       0.09942315 -0.0278456 -0.006933212 0.08707883
000160 96 e3 f8 3d 67 14 13 3e a1 5e ed bb 12 ec 17 3d
       0.121527836 0.14363252 -0.0072439467 0.03709037
000170 f7 70 42 3e ea d4 68 3e e3 8f 73 3e 56 51 83 bc
       0.18988405 0.2273747 0.23785357 -0.016029995
000180 2e 5b 91 3c 04 7f 19 3e 7b 5e 5b 3e 8e 9a 93 3e
       0.017743673 0.14989859 0.2142276 0.28828853
000190 ee 0a 00 80 d9 7b 00 00 10 af 00 80 b5 a9 00 00
       -3.921e-42 4.4428e-41 -6.28e-41 6.088e-41
0001a0 24 54 00 80 2a ac 00 80 c1 00 00 00 a9 8e 00 00
       -3.0184e-41 -6.1761e-41 2.7e-43 5.1177e-41
0001b0 44 89 00 80 83 31 00 00 e7 0d 00 80 e0 71 00 80
       -4.9242e-41 1.7761e-41 -4.987e-42 -4.085e-41
0001c0 5b 42 00 00 3d 9d 00 00 7d 0b 00 00 74 aa 00 00
       2.3804e-41 5.6406e-41 4.121e-42 6.1147e-41
0001d0 ab 96 00 00 88 17 00 80 f3 6c 00 80 1b 70 00 80
       5.405e-41 -8.441e-42 -3.9084e-41 -4.0216e-41
0001e0 88 ae 00 80 eb 14 00 80 df 9e 00 00 24 00 00 80
       -6.261e-41 -7.504e-42 5.6992e-41 -5e-44
0001f0 57 69 00 00 ea e6 5a bc 6c 11 25 bd 59 f4 c5 bc
       3.7789e-41 -0.013360718 -0.040299818 -0.024164366
000200 9f 10 f0 bc e7 85 c1 3b 34 c8 68 3c 31 32 b4 3a
       -0.0293048 0.005905855 0.014207888 0.0013747868
000210 cd 71 11 3d b3 54 e6 3c 21 fe 8d 3d d6 db 7e 3b
       0.03550892 0.02811656 0.06933237 0.0038888357
000220 83 ed 72 bb f3 2f 4c 3d c6 63 5d 3d c9 69 c4 3d
       -0.0037067838 0.049850415 0.05405023 0.095904894
000230 14 68 5b bd 41 76 8a bd 46 02 d3 bb b2 c9 10 3c
       -0.053566054 -0.067608364 -0.00643948 0.00883715
000240 fd 56 74 3d 50 b6 1b be 1b 62 47 be b9 d2 0e be
       0.05965327 -0.15206265 -0.19471018 -0.13947572
000250 d3 11 ab bd 3c 8b d6 3b df 15 00 00 91 86 00 80
       -0.08353009 0.0065473597 7.846e-42 -4.8273e-41
000260 79 3d 00 00 7f 13 00 80 d4 1b 00 80 d4 0b 00 00
       2.2052e-41 -6.994e-42 -9.983e-42 4.243e-42
000270 fe 54 00 00 fd 18 00 80 91 57 00 00 72 93 00 80
       3.049e-41 -8.964e-42 3.1413e-41 -5.2893e-41
000280 af 2c 00 80 f7 aa 00 00 33 52 00 80 6d 1f 00 00
       -1.603e-41 6.133e-41 -2.9488e-41 1.1273e-41
000290 fc 18 00 80 18 20 00 80 b1 7a 00 80 3d 54 00 00
       -8.963e-42 -1.1513e-41 -4.4013e-41 3.0219e-41
0002a0 a0 02 00 00 67 29 00 80 f4 48 00 80 02 7e 00 80
       9.42e-43 -1.4852e-41 -2.617e-41 -4.5203e-41
0002b0 df 70 00 80 0f 8e 00 80 67 98 00 00 a3 2c 70 2f
       -4.049e-41 -5.0961e-41 5.4672e-41 2.1843731e-10
0002c0 d5 0d 37 b1 d7 96 0c 33 89 d5 6f 31 82 41 79 ac
       -2.6637867e-09 3.2733478e-08 3.4900458e-09 -3.5421392e-12
0002d0 7a 93 d2 af 91 ac b4 b1 b8 7f 1d 33 98 79 9d 31
       -3.8303566e-10 -5.258308e-09 3.667057e-08 4.583125e-09
0002e0 d1 d7 0a ad ac 73 24 32 d4 da 96 32 ba a0 ab b2
       -7.892313e-12 9.572357e-09 1.756181e-08 -1.998011e-08
0002f0 b0 5f ab b1 d6 86 81 ae 72 3b 4a 32 ed 18 a4 32
       -4.9876334e-09 -5.8901925e-11 1.1771464e-08 1.9103448e-08
000300 f5 13 19 b2 5a 52 33 b1 09 76 3d ae a9 30 a0 b1
       -8.91031e-09 -2.609474e-09 -4.307846e-11 -4.662145e-09
000310 04 08 da b1 08 35 c1 b3 9c 56 72 b2 d4 07 ff ac
       -6.3455463e-09 -8.996909e-08 -1.4105947e-08 -7.248405e-12
000320 88 d1 1a be c8 e5 d5 bd c8 5b 39 bd b7 5a 66 bc
       -0.15118992 -0.10444218 -0.045253545 -0.014059714
000330 f6 e5 88 bc 2e bf 17 be ac 89 c2 bd d5 ca 3a bd
       -0.016711216 -0.14819023 -0.09498915 -0.045603592
000340 d9 49 29 bc a9 b1 d1 bc 8c b4 bc bd 59 73 54 bd
       -0.010332548 -0.02559741 -0.09214124 -0.051867817
000350 7f 8d e3 bc 24 5b ff bb cf 6d e6 bc 2a e3 89 bd
       -0.027777432 -0.007792847 -0.028128533 -0.06732781
000360 21 d7 2b bd 0e 42 37 bd 74 13 02 bd 77 52 5a bd
       -0.04195321 -0.04474073 -0.031756833 -0.0533013
000370 c2 40 a0 bd b9 7c 15 bd 87 bf 36 bc 20 42 8f 3c
       -0.078248516 -0.036495898 -0.011154062 0.017487586
000380 62 9b 45 3c ad 39 fa 3d 29 a0 92 bb 3b f2 81 bd
       0.012060972 0.12218032 -0.004474659 -0.0634503
000390 3a f7 e7 bd 42 54 18 be 0e 4c 02 3e f0 ca 39 3c
       -0.113264516 -0.14875892 0.12724325 0.011339888
0003a0 3b c0 28 bd 34 07 9e bd eb 47 9e bd ef 14 1b 3e
       -0.04119895 -0.07716218 -0.07728561 0.15144704
0003b0 dc 00 09 3d 23 b0 01 bd c4 1e 85 bd 46 78 eb bc
       0.033448085 -0.031662118 -0.06500009 -0.028743874
0003c0 ea b8 2a 3e d0 20 16 3d 1c 52 2d bd b4 92 b9 bd
       0.16672102 0.036652386 -0.042314634 -0.090611845
0003d0 5e 7d 69 bd 91 47 fd 3d bf 21 f7 3a e4 81 3f bd
       -0.057004325 0.12367166 0.0018854662 -0.046754733
0003e0 c3 11 94 bd e3 8b 21 bd 4e 9a 81 ac ef 22 d6 ac
       -0.0722995 -0.039440047 -3.6835318e-12 -6.0861242e-12
0003f0 21 64 3e 2d 93 67 0b 2e 0d cf fe 32 e9 b6 8a 2d
       1.0822483e-11 3.1696933e-11 2.9663648e-08 1.5770012e-11

nested_model.unit4.conv.bias f4 [12]
000000 3d 97 31 b6 47 bf 68 35 b5 d3 10 36 7d 69 44 35
       -2.6463088e-06 8.670508e-07 2.1580902e-06 7.3169196e-07
000010 1a 47 0e b6 dc 84 dd 35 cd 96 1d b7 66 62 45 b5
       -2.1201035e-06 1.650445e-06 -9.39304e-06 -7.353141e-07
000020 37 4e 1e b5 3f 3a 11 b6 7f f9 b1 b5 ca c2 d0 b5
       -5.8973404e-07 -2.1640587e-06 -1.3260141e-06 -1.5553899e-06

nested_model.unit4.bn.weight f4 [12]
000000 34 b1 5e 3f 34 ec 9d 3f 44 e9 60 3f d8 84 51 3f
       0.8698914 1.2337708 0.87855935 0.8184333
000010 1f 56 58 3f 5b b5 5c 3f 80 75 9f 3f d8 3a 94 3f
       0.8450641 0.86214226 1.2457733 1.1580458
000020 d4 a0 4c 3f 69 a1 99 3f bb 15 76 3f 54 c9 67 3f
       0.79932904 1.2002383 0.9612691 0.9054158

nested_model.unit4.bn.bias f4 [12]
000000 c0 26 e2 3e 17 25 04 3f eb c7 fa 3e eb f3 e6 3e
       0.4417019 0.51619095 0.4898065 0.4510797
000010 ff e7 e9 3e f3 7e db 3e ee f3 37 3f 37 d9 1a 3f
       0.4568481 0.42870292 0.7185658 0.60487694
000020 95 89 b6 3e aa b7 2e 3f c4 5d 14 3f 5c ed 08 3f
       0.35651842 0.68249 0.57955575 0.5348718

nested_model.unit4.bn.running_mean f4 [12]
000000 92 2a d8 bd 7b d8 88 be e0 d5 52 3e 07 2b 05 3e
       -0.10554995 -0.26727661 0.205894 0.13004695
000010 a1 6a fa 3d 69 f0 53 bd ef dc d0 3d 65 91 5d 3a
       0.12227369 -0.051742945 0.1019839 0.00084521464
000020 e0 a7 19 3e 01 31 ad 3d b7 f9 20 3a ed 56 3e 3d
       0.15005445 0.084566124 0.0006140726 0.046469618

nested_model.unit4.bn.running_var f4 [12]
000000 dd 78 98 3d d0 c4 d9 3d d1 8a 89 3d 12 c0 9b 3d
       0.07444928 0.10633242 0.0671593 0.07604994
000010 30 d6 b8 3d 05 67 92 3d 60 d3 09 3e ba a2 7d 3d
       0.09025228 0.07148556 0.1345954 0.061922766
000020 59 fb 45 3d ca ea ec 3d 2a e7 8a 3d 25 de 8d 3d
       0.048335407 0.1156822 0.06782372 0.06927136

nested_model.net.0.conv.weight f4 [12, 3, 5, 5]
000000 49 b1 f3 3c 22 b9 d2 3c 85 ef 45 bd 7c 04 51 3d
       0.029747622 0.025723044 -0.048324127 0.051029667
000010 84 52 cc bd 08 40 48 3e 78 ca 12 3c a4 b0 da bc
       -0.09976676 0.19555676 0.008959405 -0.026695557
000020 a4 2a 49 3c 1f c1 0c 3a b1 5c 8f 3d 03 53 87 3e
       0.012278233 0.00053693535 0.07000101 0.2643052
000030 c5 a5 57 3e 0f 92 bc be ea 0c 17 3d 36 c8 14 3c
       0.2105933 -0.36830184 0.03687755 0.009080937
000040 c8 f1 64 3d e3 7e 1f be 31 a2 39 be 5f 29 43 3d
       0.055894643 -0.15575747 -0.18128277 0.047646876
000050 aa c5 85 3d 82 07 51 bd a1 08 34 be 49 88 32 bc
       0.06531842 -0.05103255 -0.17581417 -0.010896751
000060 85 8f 59 bd ca 16 99 3d cb 00 50 bc 78 f4 6b bd
       -0.053115387 0.0747505 -0.012695502 -0.05760619
000070 4f 79 10 3e 8d 45 22 3d 6e 0f 2b 3e b3 c5 87 bd
       0.14108776 0.03961711 0.16705105 -0.06629505
000080 9a f4 3e bb a4 b1 db 3d c4 f7 d1 3d 6c ac 56 bd
       -0.0029137493 0.10727242 0.10252336 -0.052410528
000090 65 fd 47 3e 1f fc 83 3e 04 29 a1 be 21 c8 fa 3d
       0.19530256 0.2577829 -0.31476605 0.12245203
0000a0 cf bd d0 bd 88 d1 95 bc a8 48 16 be 57 fb d0 bd
       -0.10192453 -0.018288389 -0.14676154 -0.10204189
0000b0 31 00 0c 3e 37 a4 54 bc 07 f9 0c be ed 5d 27 be
       0.13671948 -0.012978605 -0.13766871 -0.16344424
0000c0 29 3a ae 3d aa 65 96 bc 08 62 b3 bd 34 bc d9 bd
       0.08507187 -0.018359024 -0.08758932 -0.106316
0000d0 f2 c7 e0 bd 47 20 82 3d 6a de a3 bc 46 36 6f 3d
       -0.109756365 0.06353813 -0.020003516 0.05840137
0000e0 74 3d 4a be 3c 0a 09 be bc f8 62 3d 50 87 05 3e
       -0.19750005 -0.1338281 0.055412993 0.13039899
0000f0 6a 85 7c bd d3 8b 86 3d 07 c1 03 3e 9a fa 9f be
       -0.06165067 0.06569638 0.12866603 -0.3124588
000100 46 7c 3e 3e 90 cc 9e bd 99 0b 4f bd 1e af 2e be
       0.18602094 -0.07753861 -0.05054817 -0.1705899
000110 9f 8b 53 bd 21 fb 6f 3e 1f c7 35 3d eb f9 90 bd
       -0.051646825 0.23435642 0.04437935 -0.07078918
000120 56 9f cb bd e4 0c 26 3e af 90 12 3e 4c 46 f7 bc
       -0.099425 0.16215855 0.14313005 -0.030184887
000130 79 84 fd bc 9d 29 00 bd 76 72 fe bc 00 75 f2 bc
       -0.030946957 -0.031289686 -0.031060439 -0.029596806
000140 f8 b1 f8 bc 8b 9c fe bc 39 53 00 bd 4a ad fd bc
       -0.0303583 -0.031080505 -0.031329367 -0.03096642
000150 26 14 f1 bc 24 ba f5 bc 31 db fb bc 44 44 fe bc
       -0.029428553 -0.029995985 -0.030744167 -0.031038411
000160 9a a1 fa bc 8f 29 ed bc de 85 e8 bc 30 67 ed bc
       -0.030594636 -0.02895048 -0.028384145 -0.028979868
000170 e0 95 f0 bc fb 71 e9 bc 9d 09 d8 bc a2 42 d6 bc
       -0.029368341 -0.028496733 -0.026371771 -0.02615482
000180 23 7e d7 bc d0 b3 d8 bc 01 de ce bc d4 52 b7 bc
       -0.026305264 -0.026452929 -0.025252344 -0.022378363
000190 e9 a9 02 bd 68 08 06 bd 6d 4a 08 bd d8 08 09 bd
       -0.03190032 -0.03272286 -0.033274103 -0.0334557
0001a0 09 f3 04 bd c9 dd 02 bd a9 1f 06 bd 17 17 08 bd
       -0.03245834 -0.031949792 -0.032745037 -0.033225145
0001b0 08 a2 08 bd 40 9e 04 bd 37 92 01 bd cf ee 04 bd
       -0.03335765 -0.03237748 -0.031633582 -0.032454308
0001c0 7c 07 07 bd b3 69 07 bd 2b 8e 03 bd bc 20 f8 bc
       -0.032966122 -0.033059787 -0.032118004 -0.030289046
0001d0 3d 0b fe bc 57 b3 01 bd bf 1a 01 bd 26 da f8 bc
       -0.031011218 -0.031665172 -0.031519648 -0.030377459
0001e0 a4 8c e9 bc fe b8 ec bc 43 d9 f0 bc e0 4e ee bc
       -0.028509445 -0.028896805 -0.029400473 -0.029090345
0001f0 21 d0 e1 bc 70 e4 06 bd 2b 47 0d bd f1 e9 11 bd
       -0.027565064 -0.0329327 -0.0344917 -0.035623495
000200 05 e0 13 bd 15 61 0f bd 1e 27 07 bd 8b b0 0d bd
       -0.036102314 -0.035004694 -0.03299629 -0.034592193
000210 84 56 12 bd d3 40 14 bd 99 19 10 bd 8c 68 05 bd
       -0.03572704 -0.036194634 -0.03518066 -0.032570407
000220 4a 1d 0c bd 81 e5 10 bd 0a 15 13 bd 6c d1 0f bd
       -0.03420762 -0.035375122 -0.035908736 -0.03511183
000230 c1 14 fd bc 42 0f 05 bd b4 f6 0a bd da 0f 0d bd
       -0.030893685 -0.032485254 -0.03392668 -0.034438945
000240 09 3c 09 bd 0a 44 e8 bc df 28 f3 bc 2d 56 ff bc
       -0.03350452 -0.028352756 -0.029682575 -0.031169022
000250 88 9e 01 bd 5e 49 f7 bc a4 14 dc 3d 11 48 b2 3c
       -0.031645328 -0.030186351 0.107461244 0.02176288
000260 95 38 2c be 85 47 4d be ea 4c 35 bd 91 1e 27 3d
       -0.1681846 -0.20046814 -0.044262804 0.040800635
000270 8e f1 0b 3c 6c 90 30 be 79 73 7e be 56 ef e5 bd
       0.008541478 -0.17242593 -0.24848737 -0.1122729
000280 bf 49 93 3d 0f df b3 3d 86 8e 5d bd 5a 16 1e be
       0.071918 0.087827794 -0.054091 -0.15438214
000290 9b 06 bc bd c5 b9 f8 3d 70 3e 0f 3e d1 f3 d9 3c
       -0.091809474 0.12144808 0.13988662 0.026605519
0002a0 27 70 30 bd ee da 9b bc 53 57 15 3e cb 1c 21 3e
       -0.043075707 -0.019025292 0.14584093 0.1573364
0002b0 e3 4c 62 3d 2c cf 84 bb 4d 70 47 3b 72 cb 8a 3d
       0.055249106 -0.004053017 0.0030431927 0.06777085
0002c0 a0 6d dd 3a 2d 2e 31 be d9 18 5f be 67 3a ca bd
       0.0016893633 -0.17302771 -0.21786822 -0.098744206
0002d0 c0 00 c8 3b b6 be 03 bb d8 39 23 be 98 1a 78 be
       0.006103605 -0.0020102686 -0.15940034 -0.24228895
0002e0 4f 33 0b be fd 7f f3 3c f0 70 88 3d 4d 9b 69 bd
       -0.13593791 0.029724116 0.06662166 -0.057032872
0002f0 7d c9 24 be 5d 59 e6 bd 6e 4e 86 3d 68 fc c9 3d
       -0.16092487 -0.112475134 0.06557928 0.09862596
000300 e4 4a c3 bb 41 0a 9b bd 21 ab 3d bd e8 f6 b5 3d
       -0.0059598554 -0.07570315 -0.04630578 0.08884984
000310 c1 7c ee 3d 56 74 a8 3c b2 c2 1f bd c9 08 93 bc
       0.11644889 0.020563286 -0.039004035 -0.017948525
000320 0c 54 1b 3e fb 57 fb 3d 12 28 6e bd e2 78 f5 bd
       0.1516878 0.1227264 -0.058143683 -0.11985947
000330 d4 95 fc bc 47 df ca 3d 9e 81 0d 3e 39 dc 03 bd
       -0.030833162 0.09905868 0.13818976 -0.032192443
000340 0a c2 0b be aa cd 57 bd 7c 82 bf 3d ae 0d 3f 3e
       -0.13648239 -0.05268637 0.0935106 0.18657562
000350 72 27 4f 3d c2 c3 a0 bd da fb 3d bd 41 6a cd 3d
       0.050574727 -0.07849838 -0.046382762 0.10030032
000360 ab 06 50 3e 0c d2 cb 3d c9 52 1c 3c 2b b9 9e 3c
       0.20315044 0.09952173 0.009541222 0.019375404
000370 f7 1d a0 3d 31 01 41 3e 5a b1 00 3e 28 a0 82 3d
       0.07818215 0.1884811 0.12567654 0.06378204
000380 95 36 82 3d 47 ac 0f 3e e0 04 2d 3e 04 9d 62 3e
       0.06358067 0.14030562 0.16896391 0.22130209
000390 b3 98 87 3e 42 6e 51 3e 65 cf c2 3d b5 10 bd 3d
       0.26483688 0.20452216 0.095122136 0.09231702
0003a0 9d 9b 0d 3e 55 1c 59 3e 0a 35 42 3e 7b 6f 91 3d
       0.13828893 0.21202214 0.18965545 0.07101341
0003b0 0d 66 3f 3d 73 18 8f 3d a4 3e 1a 3e bf b6 29 3e
       0.046728183 0.06987085 0.15062958 0.16573618
0003c0 c3 57 84 3d 0b 60 03 3d 19 ef f7 3c 19 af b6 3d
       0.06462052 0.032074016 0.030265378 0.08920116
0003d0 a6 95 eb 3d b8 f0 8b 3d a5 8e 46 3d 9c 75 0f 3d
       0.115031525 0.06833023 0.04847588 0.03502427
0003e0 26 20 60 3d 94 17 7c 3d 74 6d af bd 80 5d a6 bd
       0.05471816 0.061545923 -0.085657984 -0.081233025
0003f0 80 dc 03 bd 92 c9 2f 3d 2d c9 83 3d 69 15 19 be
       -0.032192707 0.04291684 0.064348556 -0.14949574

nested_model.net.0.conv.bias f4 [12]
000000 44 53 a4 b8 5f 48 36 33 d3 4f 21 37 2b 53 fb 36
       -7.835639e-05 4.2441e-08 9.614933e-06 7.490065e-06
000010 4f 3e 00 80 e0 48 00 00 1a ab 00 00 f6 8b bc b7
       -2.2352e-41 2.6143e-41 6.138e-41 -2.247652e-05
000020 40 47 00 80 85 9a 00 80 a0 73 00 00 dd 45 14 b7
       -2.556e-41 -5.5431e-41 4.1478e-41 -8.837754e-06

nested_model.net.0.bn.weight f4 [12]
000000 dd 71 01 3f 81 bf 1d bc da de 66 3e c8 6c 7b 3d
       0.50564367 -0.009628178 0.22545949 0.06138304
000010 c0 07 d1 3c aa 42 00 00 20 2f 52 bb ca c9 59 3e
       0.02551639 2.3915e-41 -0.0032071546 0.21268383
000020 02 69 00 80 87 12 00 00 f2 82 00 00 2f 72 03 3e
       -3.767e-41 6.646e-42 4.6974e-41 0.12836526

nested_model.net.0.bn.bias f4 [12]
000000 9d 71 c5 3e 54 75 c7 bc 93 57 53 bd fa ce de 3c
       0.38563243 -0.024347939 -0.05159719 0.027198303
000010 fa 81 47 bd 92 0a ee b8 16 20 38 bd 22 41 a9 b9
       -0.04870794 -0.00011350693 -0.044952475 -0.0003228272
000020 b8 d7 27 b9 9a 09 85 ba 62 75 df b8 4c 38 e8 bd
       -0.00016006723 -0.0010149956 -0.00010655333 -0.11338863

nested_model.net.0.bn.running_mean f4 [12]
000000 be 64 70 bd 74 82 6e bf 8f 62 e8 bd 53 e0 5f 3f
       -0.058689825 -0.93167806 -0.113469236 0.87451667
000010 c8 49 ce b3 76 69 00 80 c0 1b 12 38 35 45 32 bf
       -9.606043e-08 -3.7832e-41 3.4834957e-05 -0.6963685
000020 a8 c6 02 80 b5 95 04 80 5b 59 00 00 dd d6 1b bf
       -2.54935e-40 -4.21047e-40 3.2055e-41 -0.6087473

nested_model.net.0.bn.running_var f4 [12]
000000 ca 7e 3f 3d 57 2e 77 3e f7 1c b9 3e 77 e9 95 3e
       0.046751775 0.24138771 0.3615491 0.29279682
000010 76 e1 73 27 04 00 00 00 c4 41 a2 30 d2 e2 a0 3e
       3.3845247e-15 6e-45 1.1805743e-09 0.3142305
000020 04 00 00 00 04 00 00 00 04 00 00 00 9b 3a 52 3e
       6e-45 6e-45 6e-45 0.20530169
