experiment_outputs/feat_norm_outputs/2/featNPO_Smax_ch_relu_unfreeze_augment.model (torch_old, 109506 bytes, 62 tensors)

nested_model.unit1.conv.weight f4 [12, 3, 5, 5]
00000000: abdf 3c3e df4b 8e3e 7059 903d bab8 253e
00000010: bb3a cebd 3058 203e 4b52 7dbe 296f a53d
00000020: a5a9 903e 70d2 93bd d0a9 233e 1a4a 6f3d
00000030: 5438 34be dcea 48be cb1d 8cbe 390d 8abd
00000040: 0117 203e 2d81 a2be 00fe adbd dd08 0c3d
00000050: 127d 79bc 69fd aa3b 1d02 edbc f5ed 76bd
00000060: c96f 59bd 75df 57be 5d43 9d3d 8726 23be
00000070: 5723 3f3e 9d5a e93d 41f3 19bd 458d dcbe
00000080: b950 3d3e ba13 a53e 24eb 5b3c c5ba ac3d
00000090: 55e2 003e aa08 b43b 30dc a23c 533f 343c
000000a0: 0834 4cbe e162 c73d c34e 1fbe aa7c 113e
000000b0: 45b8 d23d 1c17 a3bd e78d 4fbd ad6c 613d
000000c0: 69b3 293d 7d74 bebd 06ce c7bd d962 20bd
000000d0: 9fe2 fbbd 499c 85bd 2fc6 37be 3905 803d
000000e0: bd42 f4be 6ff0 9c3d e9d8 b03e 8b1e 31bc
000000f0: 1dff c23d d4d2 0d3c 2fb2 aebd b3a1 0b3e
00000100: bc37 06be 244c ddbd 6460 823e 1144 f7bd
00000110: 1f75 983d 568c 003c 620a e63d cb52 b73c
00000120: cebf a7bb 3867 ea3d 73d3 36bc af97 933d
00000130: a7f9 5c3e 1055 be3d deaa c73d ea49 87bc
00000140: 57c4 edbd 50bf 093e 8385 0b3e 6850 26be
00000150: 6ebd 86bd 2ff1 05be f747 413e b2b5 d73c
00000160: a841 6abe 1c6e 1abe f72c 54bd 0fbc 153e
00000170: 6b68 ba3d 5163 4a3d 97bc 0f3d 0b5e 02be
00000180: 5405 0a3e 5d1c 313e b21b 813d d8b2 963d
00000190: 8d1f 8abb e473 b83d 7c82 87bd 2641 91be
000001a0: 0d08 6abe 8423 573b 0e1e 6f3d a6b1 bebd
000001b0: dd6b 20be f4e1 26be 88d4 9bbd 0129 523e
000001c0: d0c8 e13d 8e10 acbe a7ee 37be f399 fabc
000001d0: 4e83 873d 3e56 183d df7e 70be 3bd6 13be
000001e0: 6d9d 36bc 977d f03c c940 8abd 3301 92bd
000001f0: d601 8cbc 08a7 0e3d b4f9 3e3e b863 69bd
00000200: 59f5 3cbe c27a 1ebe d6d7 b83d 0ffb 3e3e
00000210: 179f ca3d ed0e 31be add0 423b b06e d53c
00000220: a08c 493e 0fb8 143e a9ca 60be 35ec 10be
00000230: a791 b7bd e34e 693e aae3 503e 5ac0 f3bd
00000240: 3d44 1dbd 36fe fa3d a80c e33d 3553 c73d
00000250: bce2 d83c 38ec 8abd d44b 3c3d ac0e 563e
00000260: dbc3 563e 1fdc b93d 61fd 353e d7d1 aa3d
00000270: 76b2 6b3e b198 5b3e 3638 173e 3032 af3d
00000280: 96db 223e 0305 d1bd 4c70 cbbe 0488 503d
00000290: c243 0c3d ea65 3c3d 574c 4fbd 3aeb 8bbe
000002a0: ce08 7fbe 7bb5 33be 2638 01bd cf69 f7bd
000002b0: 35de a9bc 1698 80bc f64e d4bd 7eb2 843b
000002c0: 3883 293e c07d b53c dfdd 1fbd 1b4c e83b
000002d0: 638f 253e bb0c da3d 0a1d 293e 6ef6 d53c
000002e0: f5f4 e0bd f419 493e 413a cbbd bfba f1be
000002f0: 792b 243c 6338 07be d879 073c 097f 13be
00000300: 090b 69be 6dcf a2bd eee4 dbbb 8d49 d73b
00000310: e458 dfbc 7e17 01be 30d6 963d a255 493d
00000320: b3b4 51bd b5e7 9bbd 30ce adbe 1695 48be
00000330: 6012 ebbd 0fd8 e0bc eede 88bc 7fed 573d
00000340: 4c9e 99bd 1826 89bd 3606 0d3e d20e 213d
00000350: 481a 30be 55ae 653e 20f6 1abd 6a5c 7e3a
00000360: e0a6 143d db08 0c3d 05ee ec3d 5e03 cc3d
00000370: edad 1d3d c9db c63b 1381 4f3e 5f85 3d3e
00000380: 71ff f53d 83b2 0ebe b2da e63c a507 4dbe
00000390: 6521 93be 47a7 6bbe 81e4 11bd b754 753c
000003a0: 0db3 643e 738a c53d 6fdb 14bc 3db8 99bd
000003b0: 139d 3dbe af90 d13d eba1 7a3d b809 bb3c
000003c0: 932e f8bd c3c8 88bd 9f8b 853d 4d4c f83d
000003d0: fcc3 223e 7a7f a93d a1a9 0d3e d7e1 c23d
000003e0: 4b4e e43c 6d7c 643d e91e 5f3d 9ed4 133e
000003f0: d1cd fa3d 4729 763d a8c7 183d 5181 58bd
0.18444698 0.2779226 0.07048309 0.16183749 -0.10069796 0.15658641 -0.24738424 0.08077843
0.28254429 -0.07217872 0.15982747 0.058420278 -0.17599612 -0.19620842 -0.2736648 -0.06740803
0.15633775 -0.31739178 -0.08495712 0.03418814 -0.015227573 0.005218197 -0.028931672 -0.060285527
-0.053085122 -0.21081336 0.07678864 -0.15932666 0.18665825 0.11394236 -0.0375855 -0.4307653
0.18487824 0.32241613 0.013422761 0.08434061 0.12586339 0.005494197 0.019880384 0.011001426
-0.19941723 0.097356565 -0.15557389 0.14207712 0.10289053 -0.07963392 -0.050672438 0.055035282
0.041430864 -0.09299562 -0.09756093 -0.03915677 -0.12299084 -0.0652395 -0.17946695 0.06250996
-0.47707167 0.076630466 0.3454049 -0.010810505 0.09521315 0.008656222 -0.085300796 0.13635902
-0.13107198 -0.10805538 0.25464165 -0.120735295 0.07444214 0.007845959 0.11232449 0.022378346
-0.0051193004 0.11445469 -0.011158812 0.07206666 0.2157961 0.09293568 0.09749387 -0.016514737
-0.116097145 0.13451886 0.1362515 -0.1624161 -0.065790996 -0.13080285 0.18875109 0.026331756
-0.22876608 -0.15081066 -0.051800694 0.1462252 0.091019474 0.04941112 0.035091963 -0.12731187
0.13478595 0.17295976 0.063041106 0.073583305 -0.004215187 0.090064794 -0.06616685 -0.28370017
-0.22854634 0.0032827565 0.05837827 -0.093112275 -0.15666147 -0.16297132 -0.076088965 0.20523454
0.1102463 -0.3360638 -0.17962132 -0.030590987 0.06616841 0.037191622 -0.23485897 -0.14437191
-0.011145932 0.02935676 -0.06750638 -0.07129135 -0.01709072 0.034827262 0.18649942 -0.056979865
-0.18452968 -0.15476516 0.090255424 0.18650459 0.09893625 -0.1729085 0.0029726431 0.026053756
0.1968255 0.14523338 -0.21952309 -0.14152606 -0.08963328 0.22783999 0.20399347 -0.119019225
-0.038395155 0.12255518 0.11086398 0.09732667 0.026475303 -0.067833364 0.045970753 0.20904034
0.2097315 0.09075188 0.17772438 0.08340805 0.23017296 0.21444966 0.14767537 0.085544944
0.15904078 -0.10206034 -0.39734113 0.050910965 0.034244306 0.04599563 -0.050609913 -0.273279
-0.24905702 -0.17549698 -0.031547688 -0.12080728 -0.02073584 -0.01569752 -0.10366623 0.0040495982
0.16553962 0.022154689 -0.039029952 0.0070891506 0.16167979 0.106469594 0.16514984 0.026118483
-0.10984222 0.19638807 -0.099232204 -0.47212788 0.01002013 -0.13205104 0.008268796 -0.14403929
-0.22758116 -0.079497196 -0.00671064 0.0065700472 -0.027264066 -0.12606618 0.07365072 0.04915393
-0.05119772 -0.07612554 -0.3394637 -0.19588122 -0.11478114 -0.027446775 -0.016707864 0.05271673
-0.07500896 -0.06696719 0.137719 0.039320774 -0.17197526 0.22429784 -0.03783238 0.0009703102
0.036291957 0.034188133 0.11568836 0.0996158 0.038495947 0.006068681 0.20264082 0.18507908
0.12011612 -0.13935284 0.028180454 -0.20022447 -0.28736416 -0.2301303 -0.03561831 0.014973811
0.22333927 0.09645548 -0.00908552 -0.07505844 -0.1851695 0.10232674 0.061189573 0.022831783
-0.12118258 -0.06678917 0.06520771 0.12123928 0.15895075 0.08276267 0.1383424 0.09515732
0.027869364 0.055782724 0.054472838 0.14436576 0.122462876 0.06009796 0.037299782 -0.0528577

nested_model.unit1.conv.bias f4 [12]
00000000: 5cdc e7b8 68bc 09b7 ea1a 16b9 30c2 a337
00000010: 7fe1 80b6 44c1 02b7 3cc9 32b7 d692 29b8
00000020: 14e4 6937 e87d 0db6 688c 4f37 ab14 00b7
-0.000110559835 -8.209703e-06 -0.00014315141 1.952154e-05 -3.8409485e-06 -7.793602e-06 -1.065648e-05 -4.042949e-05
1.3940986e-05 -2.1083924e-06 1.2370852e-05 -7.634207e-06

nested_model.unit1.bn.weight f4 [12]
00000000: bff1 823f 15e3 0b3f 1f12 783f 140b 283f
00000010: 56bc 113f ee92 493e 6070 e33e 8c98 423f
00000020: bf49 273f 17b4 783e 6f61 d23e 1a15 113f
1.0230025 0.54643375 0.9690265 0.65641904 0.56928 0.19684955 0.44421673 0.7601402
0.653469 0.24287449 0.4108996 0.56672823

nested_model.unit1.bn.bias f4 [12]
00000000: e8a5 673f 3b69 58be 2fd4 7c3e cd55 333e
00000010: 7490 18be 8446 cf3d 2681 833c 732f 363e
00000020: 27a4 7d3a f700 09be 7ef5 d5bd f011 57be
0.9048753 -0.21133892 0.24690317 0.17513199 -0.14898854 0.10120872 0.016052794 0.17791538
0.00096756447 -0.13379274 -0.104472145 -0.21002936

nested_model.unit1.bn.running_mean f4 [12]
00000000: 3baa 76bc f1c7 0dbe 3c7e 82bd fde5 febc
00000010: 8558 6b3e e599 5c3f 4dea 39bd 7714 20bd
00000020: 01eb dabc 481b 243f b1ad 4fbe d2c6 c1bf
-0.015055235 -0.13845803 -0.063717335 -0.031115526 0.22982986 0.86172324 -0.045389462 -0.039082017
-0.026723387 0.6410413 -0.20281102 -1.51388

nested_model.unit1.bn.running_var f4 [12]
00000000: 5ff9 023d 5342 803e 54ea 9b3d 8464 bd3d
00000010: c39c f33d 7441 0d3f 227a 793d be63 f83d
00000020: 7480 533e 90fe c33e 59ce a53d f764 753f
0.0319761 0.250506 0.07613054 0.092476875 0.11895134 0.55178 0.06090749 0.12128399
0.2065447 0.38280153 0.08095998 0.95857185

nested_model.unit2.conv.weight f4 [12, 12, 5, 5]
00000000: 8c18 753d c163 353d 0fb8 83bc 03e8 833d
00000010: f98e 333c 16be e33d 866a 0e3e 4521 8c3b
00000020: 2e36 5c3d c442 25bd 4ebe b43d 1bbf b23d
00000030: b662 643b a83b ac3c cb99 73bd 0c12 a0bc
00000040: b0e1 8a3d 4991 97bd 9859 c5bc 50c9 0fbe
00000050: 4294 69bd a2f4 853d 3ac2 44bd 0a6d 12bc
00000060: 2cac ffbd 5076 eabd b4ec 41bd 89bd 71bb
00000070: d653 c6ba bfe3 ce3d 0576 bbbd 5fe3 0bbd
00000080: 665b 1a3c acde b7ba 03e9 c43d 8392 9cbd
00000090: 7abd 1ebc 9755 8e3c f58d 033c 08d5 cb3d
000000a0: ef91 bebd 0694 e7bc 6e8d 33bc d0fd 94bc
000000b0: 14e0 853d ac94 d3bd 5da9 28bd 2947 b2bc
000000c0: 9b33 70bd bc21 723c 478c f5bd 6dfc 22bd
000000d0: 2f4b 043d f181 053d fe1c 2dbc 1d13 dcbc
000000e0: 810b 473c d0a0 043d 09f5 4f3d dc9b b2bb
000000f0: e1df 5a3d aa40 563d fcef 803d 2b16 513d
00000100: 9cf6 ee3c f97b a3bb 82e3 753c 6c79 2e3d
00000110: 862b c53a 1456 59bd 7bdd 193c 5fe2 29bc
00000120: ba75 a43c ce48 c4ba 25f0 a9bd acca 4abd
00000130: 259c bebc 05f1 1cbd e8d9 61bd 19e7 93bd
00000140: f9d1 173d f23c 143d 5e2c 6a3c 1518 17bd
00000150: 0cf6 8bbd c818 563d 9073 413d 7706 da3c
00000160: 6e71 56bd f96d adbd 6026 0a3b e88f 45bc
00000170: 93a5 3abc d8c2 8fbd 52e6 b7bd a746 2d3c
00000180: 8f31 71bc de76 56bd 3766 f5bd b8a0 6cbd
00000190: 37a9 4a3d 0d1a 483d 41be c43d b84a de3c
000001a0: a7dc 9f3c 6d50 ba3c 1f0c 1a3d 7353 7e3d
000001b0: 91d0 393c 4fa4 aebc 7a77 cc3d e221 c63d
000001c0: b69f 8a3d 67f2 1fbb 8573 a9bc 2e65 e23d
000001d0: 4032 cf3d f5b8 913d 5e45 893b 0353 25ba
000001e0: 37ac 8a3d 70bd 673d 807b 513d f0a1 473b
000001f0: ad8e b8bc 9257 703d 5fe1 613d fd2a 3f3d
00000200: 5701 ed3c 5f5a b83b 4038 a73d 77a1 8f3d
00000210: 2b43 7d3d 959f 543d 71c7 063d 1f47 8f3d
00000220: 81a2 833d 418b 803d 7512 5c3d 9749 183d
00000230: 456e f73c 0568 f63c e39f 073d 8981 af3c
00000240: ea56 603c 6a35 233d e1a0 353d 487f 3d3d
00000250: 57f3 133d b69c 073d 50bd c0bc 6fe3 2abb
00000260: 6848 613c b011 153c ef6e 8cbb 1b77 07bd
00000270: 5a29 a4bb c915 de3c a001 683c 8851 593b
00000280: 3e9f fa3b 4fbf 273d 7bea 8a3d 5668 823d
00000290: bfd5 453d c2f8 16bd 6e93 6e3c da01 3a3d
000002a0: d32a cb3c 95e2 263b 1d39 9abd f62c efbc
000002b0: a9db f63b 6013 42bc 26aa 3cbd 61a3 cabc
000002c0: c122 d4bd 0307 f4bd 9098 5a3b 2e6e 0f3d
000002d0: 5cb0 88bd 0ad3 f4bd 9cf9 d4bd 5e10 bebc
000002e0: e217 603d e49d a0bd ad9b 0abe 3dbe d6bd
000002f0: 1ab2 50bd 9a5a b13d a6be 12be 4555 19be
00000300: 7d4b 29be a73d 8ebd 6443 383d ca08 91bd
00000310: 9841 ccbd f7a2 b8bd 8885 0e3c d7d9 f83d
00000320: 8dd5 07be 350a 2dbe e5da 3ebe acff 2fbe
00000330: c921 49be bc4f 14be c146 47be 08e7 3abe
00000340: 307a 16be 14ae 2ebe 53e2 92b9 92a8 02bd
00000350: 5ae8 2bbb 70ef c13c 0952 54bb 4630 afbd
00000360: 9fed 08be 3e92 f3bd 12f2 bebd 0c4c 01be
00000370: 68d7 72be 95e8 81be fb6d 6fbe 20ff 59be
00000380: c321 62be 9744 6e3d cb2d 453d 085a 663d
00000390: 43bb e93c 8a29 85bc 40f8 183d 5f1c 303d
000003a0: 6121 5f3d a798 943c 65c8 f8bc 5f4c 303d
000003b0: eb93 683d 552c 703d 2a0f 933c f774 edbc
000003c0: 7567 3c3d f333 7e3d ca19 5b3d cde9 6d3c
000003d0: b323 bbbc 22ae ef3c 512c 1e3d f638 ec3c
000003e0: 7ec7 16bc 0646 21bd f17c 2f3d 71e0 283d
000003f0: e8f0 cb3c 8332 88bc 10db b8bd 48ce bf3d
0.059837863 0.044284586 -0.016078977 0.06440737 0.01095938 0.111202404 0.13907823 0.004276427
0.053762607 -0.040346876 0.0882536 0.08727857 0.0034848875 0.02102454 -0.05947284 -0.019539855
0.06781328 -0.07400758 -0.024090573 -0.14041638 -0.057026155 0.06540801 -0.04803679 -0.00893713
-0.12484011 -0.114483476 -0.04734488 -0.0036886653 -0.0015131186 0.10102033 -0.0915337 -0.034152385
0.009421205 -0.0014028153 0.09614756 -0.076451324 -0.009688729 0.017374797 0.008029451 0.09952742
-0.093051784 -0.028268825 -0.010959012 -0.018187433 0.0653688 -0.10331091 -0.041177142 -0.021762447
-0.058642965 0.014778551 -0.119896464 -0.039791513 0.032298263 0.032594625 -0.010565994 -0.026864583
0.012148739 0.032379925 0.050770793 -0.005450709 0.053436164 0.052307762 0.062957734 0.05104653
0.029170327 -0.004989144 0.015007855 0.042596266 0.0015042878 -0.053060606 0.009391184 -0.0103689125
0.020075668 -0.0014975311 -0.08297757 -0.04950969 -0.023267815 -0.03831579 -0.055139452 -0.07221813
0.03706548 0.036190934 0.0142928045 -0.0368882 -0.06834039 0.052269727 0.04722935 0.02661441
-0.05235427 -0.08468241 0.0021080002 -0.012058236 -0.011392015 -0.07019585 -0.08979477 0.010575927
-0.014721288 -0.052359454 -0.119823866 -0.05777046 0.049477782 0.04885297 0.096066006 0.027135238
0.019514395 0.022743428 0.037609216 0.062091302 0.01134123 -0.021318583 0.09983726 0.096744314
0.06768744 -0.0024405958 -0.020684967 0.11054455 0.10117006 0.07115356 0.0041891774 -0.000630662
0.067711286 0.056577146 0.05114317 0.0030461513 -0.02252897 0.058677264 0.05514657 0.046671856
0.028931303 0.0056260074 0.08165026 0.07013219 0.061831634 0.05191 0.032905046 0.06995987
0.064274795 0.062765606 0.05372854 0.037179556 0.030203948 0.030078897 0.033111464 0.021424072
0.013692597 0.03984586 0.04434288 0.046263963 0.03612074 0.033108436 -0.023527771 -0.0026075502
0.013750173 0.009098455 -0.0042856853 -0.033072572 -0.0050098123 0.027109997 0.014160544 0.0033160169
0.0076483777 0.04095393 0.06783005 0.06367557 0.048299547 -0.036858328 0.014561517 0.045411922
0.024800694 0.0025464643 -0.07530425 -0.029196244 0.0075335097 -0.01184544 -0.046060704 -0.024736108
-0.10358191 -0.119154 0.0033355094 0.035017185 -0.06674263 -0.11954315 -0.10399172 -0.023201164
0.054710276 -0.07842615 -0.13535948 -0.10485504 -0.0509511 0.08659859 -0.14330539 -0.14973934
-0.16532703 -0.06945353 0.044986144 -0.070817545 -0.099734485 -0.09015458 0.0086988285 0.12150925
-0.13265057 -0.16898425 -0.18638189 -0.17187375 -0.19641794 -0.14483541 -0.19460584 -0.18252194
-0.14695048 -0.17058593 -0.00028015915 -0.031899042 -0.0026231022 0.023673743 -0.003239753 -0.08554129
-0.13371895 -0.11893128 -0.09323515 -0.12626666 -0.23714983 -0.25372759 -0.23381798 -0.21288729
-0.22083192 0.05817088 0.048139375 0.056238204 0.028531676 -0.016255159 0.037346125 0.042995807
0.054475192 0.018139197 -0.030368993 0.043041583 0.05678169 0.05863603 0.017951567 -0.028986437
0.0459971 0.06206126 0.05349139 0.0145210745 -0.022844171 0.029257838 0.038616482 0.028835755
-0.009202836 -0.03937342 0.042843763 0.04122967 0.024895146 -0.016625648 -0.09026158 0.09365517

nested_model.unit2.conv.bias f4 [12]
00000000: c667 89b4 ee62 9536 2184 5036 1e2d 20b5
00000010: 622a 59b6 62a3 68b6 9c7c f236 a93c acb6
00000020: 40ea d935 4cb5 cd36 9f3b e1b3 9b15 4a37
-2.5593744e-07 4.452063e-06 3.1071324e-06 -5.96703e-07 -3.236019e-06 -3.4665795e-06 7.2266685e-06 -5.133061e-06
1.6235936e-06 6.130582e-06 -1.0488224e-07 1.2045169e-05

nested_model.unit2.bn.weight f4 [12]
00000000: 3138 173d b5cd bc3e 5d9a 8d3e e1f1 273f
00000010: efe9 d23e ce95 bd3e e21f e73e 2a4d ab3e
00000020: 6764 013f 0e1f 813e 006c a73e 5047 2b3f
0.036918823 0.36875692 0.27656832 0.6560345 0.41194102 0.37028354 0.45141512 0.3345731
0.50543827 0.25219005 0.32699585 0.6690569

nested_model.unit2.bn.bias f4 [12]
00000000: 245f ab3d 3842 7bbe 0066 58be 4373 8cbe
00000010: ab5a 71be 76da 69be 9984 cabd fabd 4ebe
00000020: b168 8cbe 0d0d 12be 7cac 9bbe dae7 9dbe
0.08367756 -0.24536979 -0.2113266 -0.27431688 -0.23569743 -0.22837242 -0.09888572 -0.20189658
-0.27423623 -0.14262791 -0.30405033 -0.3084095

nested_model.unit2.bn.running_mean f4 [12]
00000000: 3123 edbe 4edb d13e 5f8b 32bf 7fb7 b3bf
00000010: 9cdc 7bbf 2683 d7bf 099b 80bf c6b7 6fbf
00000020: 535d 91bf e96d 06c0 8300 d13f a8cb 98bf
-0.4631591 0.4098763 -0.69743913 -1.4040374 -0.983835 -1.6836898 -1.0047313 -0.9363979
-1.1356605 -2.1004584 1.6328281 -1.1937151

nested_model.unit2.bn.running_var f4 [12]
00000000: a9a1 ac3f abcc 9d3f 26a2 0340 5be6 8840
00000010: 0222 2c40 af64 f83f 0dc9 2f40 7751 0240
00000020: 3ce9 1540 7174 0f40 2a98 d53f 4385 8d40
1.3486835 1.2328085 2.0567718 4.2781196 2.6895757 1.9405726 2.7466462 2.0362222
2.3423605 2.241482 1.6687062 4.4225173

nested_model.unit3.conv.weight f4 [12, 12, 5, 5]
00000000: f223 a7bd e698 61bd b6b8 13bd 6ca8 2dbd
00000010: c210 c0bd 1226 a2bd 8baf 64bd 727b 26bd
00000020: 0540 45bd dae4 c7bd 2402 7ebd 0915 c23c
00000030: c1e6 b53d f143 de3c 9715 1bbd b875 5dbd
00000040: 1f58 d83c 1166 703d 2395 ba3c 7dd0 0fbd
00000050: 8702 94bd 0165 1cbb 4905 ca3c a554 893c
00000060: 5952 debc 570e 0e3e d471 283d 2d75 fdbc
00000070: bf68 17bd 9343 583e 96d7 973d 8a19 c43d
00000080: efbb 3abd 6d16 413d 7a52 023e 8a5b ae3b
00000090: 64d0 f3ba 6143 44be 3081 78be 43f0 50bd
000000a0: 215c 17be c7fb 82be 83bf adbe c1da bbbe
000000b0: fbaf 32be a572 6a3e 1ce9 903d 94e8 ddbd
000000c0: 3310 6bbd c97a f93c da51 7bbd 7aa2 68bc
000000d0: bd8f 91bd df98 19be ff36 33be c370 17be
000000e0: d4f3 07be 2c37 60be 8514 2bbe 3472 48be
000000f0: cbc5 49be c96e 48be 1819 25be 6c22 763a
00000100: 97f6 06be ef35 33be b423 53be 89f7 e1bd
00000110: 09b1 143c 047c 20be 38c6 13be d552 3bbe
00000120: 9768 17be b090 89bd 17ba 43be f6fa 66bd
00000130: 69c0 e3bd 3be1 bdbe 30f5 90be 35b0 39be
00000140: ef73 dd3d c67c ff3c 2443 13bd 66dd 7fbd
00000150: 5fc9 62bc 066e 6b3e 6a32 073e ed10 ce3d
00000160: f31b 083e 8249 853d 0183 193e 298f ab3d
00000170: 2a3f 493d c201 c43c 7257 8b3d 9ae2 a83d
00000180: 85fd be3c 14be f6bd 224a bd3c 8f66 c93d
00000190: c223 26bc e9e3 223e 8a69 e83d 4a6a 08bd
000001a0: 57e3 183e 684c 2ebe e50a b93c 65ea 59bb
000001b0: 955f 36be b9a9 6cbd 5cfb 013e d897 893e
000001c0: 582c 8f3e 8c4f e13d 1687 2d3d 51f6 bd3c
000001d0: eeb3 383d d2b9 103e 3d11 0a3e 0115 f33a
000001e0: 04d9 ea3d c7e2 0a3e 0833 093e 999d 023e
000001f0: 16f6 b6bd 6d76 79be adc2 a7bd 94c1 debc
00000200: 6e3e b83c 8f5f a73d 98d5 88be 9339 c1bd
00000210: a07f 7cbd 07f9 f6bc 4a87 3a3d 07c0 abbe
00000220: d69a 9dbe 6fbc 0cbe c5d6 16be 484f cb3c
00000230: 1543 01be 002d bcbd f520 15be ca60 f8bc
00000240: cf88 d3bd fc28 463d 03cc e23d 4ea3 283e
00000250: 4abf 123e 0671 003e 8726 2d3c ef12 323e
00000260: e041 143e 306f db3c 9c55 2ebc 42e7 d43d
00000270: ff0b 693d 7179 ce3c 9efc 38be 6429 70be
00000280: a393 98be 2e32 3cbe fc6f 9bbd 6971 02be
00000290: 57f7 5cbd aeb9 a7bc 4b26 123e 924a 4e3d
000002a0: 9c72 aa3d f6c5 01bd 56bd 01be d691 a43c
000002b0: a2d5 6c3d b27b 053e e389 c7bd 7ad0 57b9
000002c0: ac0e 973c 0904 4fbd 3f4b 88be b21d 9cbe
000002d0: 8b91 6c3d 89db e5bd 5525 8bbe 0822 61be
000002e0: 4ee5 3ebe a5ac 473d 09a8 babd deb3 acbe
000002f0: 1573 04be 271b 88bd 7f6a 023d ddd9 95bd
00000300: 5a49 68be 754b f9bc 4148 a2bc 07d3 ad3d
00000310: 60bb b33d a139 87bc 27cb 443d caff 263d
00000320: a9a8 e93d fae7 503e 2be6 193e dfe4 573e
00000330: e910 163e 42d6 dc3d d019 1d3d f6aa 0e3b
00000340: 1201 17bd 3449 48bd 53ed c6bd 1d01 5abe
00000350: 001b a9be 78ab 8bbe 61c6 92be c196 aebd
00000360: a436 873d db6f e1bd 97c8 f2bd 6ca5 4dbe
00000370: b220 af3c 3711 5d3c a4a3 0cbd dfd2 ad3c
00000380: 3192 9fbd ea1a 4bbd dfeb 46bd a614 3abd
00000390: d3e7 c6bd f53d c0bd 33f5 4a3d 867d 67bd
000003a0: 046f 97bd 6353 8cbd 330e 45be ef8f d1bd
000003b0: 2911 6fbe 0de7 0ebe 1a68 fcbd 7f31 5bbe
000003c0: 325c 10bd 8261 66bd af0d 7e3d 7748 413d
000003d0: 53d2 46bd 430f a43d 7865 28bc ad8c 21bd
000003e0: d9da 4d3d d5a8 06bd 11b6 4dbd 3ba5 ac3d
000003f0: defd eb3d 84c5 9e3d f742 d2bb 7798 aa3a
-0.08161153 -0.055077456 -0.036064826 -0.042396948 -0.09378196 -0.079174176 -0.055831473 -0.04064507
-0.048156757 -0.09760447 -0.06201376 0.023691671 0.088819034 0.027132006 -0.037862387 -0.054067343
0.026409207 0.058691088 0.022776192 -0.03511094 -0.072270446 -0.0023863914 0.024660723 0.016763994
-0.027138876 0.13872658 0.04112418 -0.030939663 -0.036965128 0.21119528 0.07414167 0.09575184
-0.045589384 0.047140528 0.12726775 0.005320971 -0.0018601534 -0.19166328 -0.24268031 -0.05101038
-0.14781238 -0.25582716 -0.33935174 -0.36690333 -0.17449944 0.22895296 0.07075712 -0.108353764
-0.057388496 0.030454056 -0.061357357 -0.014198894 -0.07107494 -0.14999722 -0.17501448 -0.14789109
-0.13276607 -0.21896046 -0.16707046 -0.19574815 -0.19704358 -0.19573511 -0.16122854 0.00093892845
-0.13180004 -0.17501043 -0.20619088 -0.11033542 0.009075412 -0.15672308 -0.14431083 -0.18293317
-0.14785992 -0.0671705 -0.19113956 -0.05639168 -0.11120684 -0.370859 -0.28312063 -0.18133624
0.10813128 0.031187426 -0.035952702 -0.062467 -0.013841956 0.2299119 0.13202825 0.10061822
0.13291912 0.06508161 0.1499138 0.08376915 0.049132504 0.02392662 0.06803788 0.08246346
0.023314247 -0.12047973 0.023106638 0.098340146 -0.010140361 0.15907253 0.11348255 -0.03330449
0.14930473 -0.17021334 0.022588203 -0.0033251282 -0.17809899 -0.057779048 0.12693542 0.2687366
0.2796352 0.110015005 0.042365156 0.023188742 0.04509347 0.14133385 0.13483138 0.0018545688
0.11467174 0.13563071 0.13398373 0.12755431 -0.08933656 -0.24361582 -0.08191428 -0.027191915
0.022490706 0.08172523 -0.2672546 -0.094348095 -0.06164515 -0.030148042 0.045539178 -0.33544943
-0.30782193 -0.13743757 -0.14730366 0.024818078 -0.12623246 -0.091882706 -0.14563353 -0.03031959
-0.103288285 0.04837893 0.110740684 0.16468546 0.14330783 0.12543115 0.010568268 0.17390035
0.14478254 0.026786417 -0.010640528 0.103956714 0.056896206 0.025204392 -0.18065116 -0.2345329
-0.29800138 -0.18378517 -0.07589719 -0.12738575 -0.05394682 -0.020474281 0.1427242 0.050364085
0.08322641 -0.03168293 -0.12669882 0.020089071 0.057820924 0.13035467 -0.09743097 -0.00020581661
0.018439613 -0.050540958 -0.26619908 -0.30491406 0.057755988 -0.11223514 -0.2717692 -0.21985638
-0.1864216 0.04874863 -0.091140814 -0.33730978 -0.12934525 -0.06645804 0.031839844 -0.07316945
-0.22684231 -0.030431489 -0.019809844 0.08487516 0.08775973 -0.016506972 0.048045304 0.040771283
0.114091225 0.20400992 0.15029208 0.21083401 0.14654888 0.10783054 0.038354695 0.002176938
-0.036866255 -0.048897937 -0.09713235 -0.21289487 -0.33028412 -0.27279258 -0.28666976 -0.08524848
0.06602219 -0.11007663 -0.11854666 -0.20082635 0.021377895 0.013492874 -0.034335747 0.021218715
-0.07791556 -0.049586214 -0.048564788 -0.045429848 -0.09712186 -0.09386817 0.049550246 -0.056516193
-0.073942214 -0.06851842 -0.19243698 -0.10232531 -0.2334639 -0.13955326 -0.12324543 -0.214056
-0.035244174 -0.056245334 0.06202477 0.04718825 -0.048540425 0.080107234 -0.010278098 -0.0394408
0.050257538 -0.032875855 -0.05022246 0.08429953 0.11523031 0.07752517 -0.0064166742 0.0013015409

nested_model.unit3.conv.bias f4 [12]
00000000: 1b9a 88b7 abb3 6db6 1e8d aab6 f3aa b8b5
00000010: d195 d236 f68c 99b6 05c4 5eb7 0a7b 3537
00000020: 02a5 eb35 7212 0e37 c88b 8db5 df70 09b6
-1.6284224e-05 -3.5420333e-06 -5.082823e-06 -1.3758821e-06 6.2759286e-06 -4.5761653e-06 -1.32778705e-05 1.0817088e-05
1.7556888e-06 8.468154e-06 -1.0546e-06 -2.048029e-06

nested_model.unit3.bn.weight f4 [12]
00000000: 2685 3c3f 3ffc ee3e c9cf ec3e 2568 263f
00000010: db3b c53e e636 133f b54e b93e 4482 e93e
00000020: 8605 233f fc59 243f 2abb e43e db50 0a3f
0.7364067 0.46676823 0.46252277 0.6500266 0.3852223 0.57505643 0.3619286 0.45607197
0.63680303 0.64199805 0.44674045 0.54029626

nested_model.unit3.bn.bias f4 [12]
00000000: 7a00 acbe 4b4d 06be 2f0f e8be 64ab 1ebe
00000010: a336 d4bd 0f49 8abe 6853 94bd 1a5e 87be
00000020: 77d3 85be d19a 9dbe 7a97 93be 1880 78be
-0.33594114 -0.13115422 -0.45324084 -0.15495068 -0.103619836 -0.27008864 -0.07242471 -0.2643898
-0.26137897 -0.30782178 -0.28826505 -0.24267614

nested_model.unit3.bn.running_mean f4 [12]
00000000: 8df3 70bf 49e0 46bf b6d8 35be 97c0 24bf
00000010: 20d0 893e 4e39 e3bd a800 6dbe 972f 05bf
00000020: 5d2b b1be 9e20 7fbe 19b4 73be 67d8 8dbf
-0.9412163 -0.7768598 -0.1775845 -0.6435637 0.269166 -0.110949144 -0.23144782 -0.5202574
-0.34603396 -0.24914786 -0.2379917 -1.1081666

nested_model.unit3.bn.running_var f4 [12]
00000000: 8688 313f ab67 053f 3b88 b93e 1d0b 163f
00000010: b30a db3e 699d ea3e 78e1 de3e 0d04 103f
00000020: 8381 083f d441 d43e 42e1 f03e 0162 283f
0.69348943 0.5211131 0.36236748 0.5861071 0.427816 0.4582322 0.43531394 0.5625618
0.5332262 0.41456473 0.47046858 0.6577454

nested_model.unit4.conv.weight f4 [12, 12, 5, 5]
00000000: 4f22 cbbd c52c 7ebd a9dc 253a 0aff edba
00000010: 8408 7abd 67ed 96bd dc2c 55bd 0307 85bc
00000020: a32d 34bd 9f8a 64bd 80c4 173c e6e2 a13c
00000030: 370f 263d 3e76 17bd f926 c9bd 36d0 943d
00000040: 6537 b03d a992 b93d b903 b9bc bc62 a1bd
00000050: c05d df3d 4127 c13d 5e2c a63d 22ae 863d
00000060: a9be 9f3d 23f4 64be d9af e2bd 71c9 9e3c
00000070: 7bf5 233e 96ef 103e 91a0 2cbe d987 8fbd
00000080: 6574 db3c 67f9 333e 370c 333e 091f 26be
00000090: 7d8e 82bd 2282 053d 3eac ce3d 5091 273e
000000a0: f1cf 06be 53bb 7ebd b450 cdbc 964b 9d3d
000000b0: 8655 e53d 818d ddbc 6b97 68bd 3810 88bc
000000c0: 7d38 40bd 5619 47bd 5d83 77bd 740b bcbc
000000d0: 6cb9 4b3d 7f87 15bc c841 f7bc f6c2 0f3d
000000e0: f8d6 e83d 79de df3d 12c8 593d e9cc 733d
000000f0: 0080 813d b97c 233e d364 1c3e 5177 1b3d
00000100: bbba 31ba 1fb4 cf3a bf2a 2c3e e919 863e
00000110: aaea a53d 4014 cfbd 903d bdbd b7d1 d63c
00000120: a12c 4f3e fdc4 433e 9571 7c3c e6ec 5f3d
00000130: 3b14 c7bd ebfa e6bc 87aa 533d 2f43 0dbc
00000140: 7578 fc3d 6040 a1bd 0f7f 99bd cc93 fabb
00000150: 0e31 0cbd 1e94 0f3e 1640 ce3c 8e25 a5bd
00000160: cb0a 47bd 13d1 05bb eabd 303d 6993 62bd
00000170: 330c f0bd 0a62 a8bd 7674 f83c 1cd8 67bd
00000180: c57c 07be 363c 3dbe 1edf 1dbe 5ac9 0f3d
00000190: 7c50 833d f448 673d b716 e83d 5f29 1f3e
000001a0: bf01 563e 7e28 11bd 3807 9ebd 0425 85bc
000001b0: 2941 d23d 1417 8c3e 024f 93bd f78f ddbd
000001c0: abb9 89bd 2c05 1c3d 03b1 3b3e bae2 e0bb
000001d0: 6a90 913c 5e91 88bd c6cb e6bd 340a b1bd
000001e0: 6cea 00bd 6abf 01bd 4585 17bd bb0e 24bd
000001f0: bd7d cabd ea90 ed3c af40 eabd 3d57 93bd
00000200: 1cb1 623d 7ba0 143e 58bb d93d 0c08 193b
00000210: 028f 5bbc f85f 733d 1617 1d3e cd42 ce3d
00000220: d00e 803d f368 2dba c791 883c 76bf c43d
00000230: 8ff9 b83d 8de4 a23d 62da 033c e5f0 703d
00000240: 4c7e f03d 2a7f 973d 27a6 8c3d 8f1e 2b3d
00000250: dd61 013e 367d 243e 16fa afbd be6b c3bd
00000260: 1389 3ebd 6c82 3bbb db7a 553d 267f 32bc
00000270: 6e08 d2bd 2c92 91bd 6f23 f5bc 42e0 24bd
00000280: 3396 6bbd 1116 38be fc9d e7bd fddb a9bc
00000290: 6e3e 22bc 3640 3cbd b0c8 d8bd dd3d 153d
000002a0: 6f84 a33d bdb8 b43d 1e79 12bd e62f e0bd
000002b0: 25f4 573c 3bd2 223d 3e4c 733d 113e 6c3d
000002c0: 2011 66bd 67a4 e5bc ac74 1bbd b9bc bfbc
000002d0: 21b6 e23d 38cc 06bd 1c1b 503c efbd c43c
000002e0: d7e5 293d 4ae7 273e c47b 413d 0416 573d
000002f0: 32f0 e13d 155f 3c3e 5f40 823e 157e ad3d
00000300: a1c4 98bc 463e 703c 40cb e73d f096 523d
00000310: 6dd4 84bd 90b4 06be 379a f7bd 8f7d 4abd
00000320: 4555 1a3d 5c69 01be 2b33 6fbd 4711 8c3c
00000330: 05d0 dfbc 8117 fe3d 28f6 5cbb 1d9a d53a
00000340: 572d 993c 50ef e63c e1a6 e63d f889 083b
00000350: 7d99 cfbc 964a 75bd 4997 b8bd 1656 eb3d
00000360: 5cd3 223d 7d24 0f3d 9aa5 c8bc 6dda e8bd
00000370: 6ff1 403e 7423 3c3e 6475 353e 47d6 263c
00000380: bccb 3fbd f1bb 87bd 5e39 fabd 7e0d 08be
00000390: 5fb5 babd 8359 093c be9f 1dbd a3e0 9ebd
000003a0: 4425 ccbd 225c 11be 43ac e8bd 290b f0bc
000003b0: c14b 9cbd fc1a ffbd 7b6c 0cbe 4255 5fbe
000003c0: b9fe 2fbd f7c2 ff3b 2be4 043c d543 883b
000003d0: 1d93 b3bd 0c6f e7bd 531a 9dbd 8daf 69bd
000003e0: 3108 4cbc af50 94bc ea13 42be 019d 7ebe
000003f0: 02cb 5dbe f2f7 71be c224 43be 596e 01be
-0.09918653 -0.062054414 0.00063271314 -0.0018157673 -0.061043277 -0.073695 -0.052044734 -0.016238695
-0.043988835 -0.055796262 0.009263158 0.019761514 0.040541854 -0.036978 -0.098218866 0.072662756
0.08604316 0.09061176 -0.022584783 -0.0788016 0.10906553 0.09431315 0.08113931 0.06576182
0.078000374 -0.22358756 -0.110686965 0.019383164 0.16011612 0.14153895 -0.16858126 -0.07008333
0.0267889 0.17575608 0.17485128 -0.16222776 -0.06374834 0.032594807 0.10091446 0.16364026
-0.13165261 -0.062190365 -0.025062896 0.076804325 0.11197953 -0.027045013 -0.05678503 -0.016609296
-0.04692887 -0.048608147 -0.060428012 -0.02295468 0.04973738 -0.009126543 -0.030182734 0.03509804
0.11369127 0.10931105 0.053169318 0.05952159 0.06323242 0.15965547 0.15272836 0.037955586
-0.0006779839 0.0015846527 0.16813181 0.26191643 0.08101399 -0.10111284 -0.09240258 0.026223047
0.20231868 0.19118114 0.015407939 0.054669283 -0.097206555 -0.028195819 0.0516763 -0.008621975
0.12327663 -0.07873607 -0.07494938 -0.0076470133 -0.03422647 0.14021346 0.025177043 -0.080638036
-0.048594277 -0.0020418807 0.043149866 -0.055316363 -0.11721077 -0.082218245 0.03032897 -0.056602582
-0.1323119 -0.1848 -0.15417144 0.035104133 0.064118356 0.056466058 0.113324575 0.15543126
0.20899104 -0.035439007 -0.077162206 -0.016253002 0.102663346 0.27361357 -0.07192804 -0.10818475
-0.067248665 0.03809087 0.18329243 -0.0068629654 0.017769057 -0.066683516 -0.112693354 -0.08644524
-0.031473562 -0.031676687 -0.03699233 -0.04005311 -0.09887264 0.028999764 -0.11438119 -0.07194374
0.055344686 0.14514343 0.10631436 0.0023350744 -0.013400795 0.059417695 0.15340838 0.10071335
0.06252825 -0.0006615065 0.016671075 0.09606831 0.090319745 0.07953749 0.008047672 0.058823485
0.11742839 0.073973015 0.068676285 0.04177719 0.12634988 0.16063389 -0.08592622 -0.095420346
-0.046517443 -0.0028611673 0.052119117 -0.010894572 -0.10255514 -0.07107958 -0.029924123 -0.04025293
-0.057516288 -0.17977168 -0.1130943 -0.020734781 -0.00990258 -0.045959674 -0.10585153 0.03643595
0.07984244 0.088242985 -0.035760038 -0.10946636 0.013180767 0.039751273 0.059398882 0.05767638
-0.056168675 -0.028032495 -0.037953064 -0.02340542 0.110698946 -0.032909602 0.012701776 0.024016349
0.041478958 0.16396824 0.047237173 0.05251123 0.11032142 0.18395646 0.25439736 0.08471314
-0.018648447 0.014663285 0.11318064 0.051413476 -0.064858295 -0.13154817 -0.12089961 -0.04943615
0.037678976 -0.12637848 -0.058398407 0.017098082 -0.027320871 0.12406827 -0.0033716056 0.001629654
0.018698378 0.028190285 0.112622984 0.002083419 -0.025341744 -0.059885584 -0.0901323 0.11491029
0.03975235 0.034946907 -0.024493027 -0.113697864 0.188421 0.183729 0.17720562 0.010182924
-0.046825156 -0.06627644 -0.12217973 -0.13286397 -0.09116625 0.008383158 -0.03848242 -0.0775769
-0.09968045 -0.14195302 -0.11360981 -0.029302197 -0.076316364 -0.12456319 -0.13713257 -0.21809867
-0.04296753 0.007805224 0.00811104 0.004158477 -0.08768294 -0.113004774 -0.076710366 -0.057052184
-0.012453125 -0.01810488 -0.18952909 -0.2486458 -0.21659473 -0.2362974 -0.1905699 -0.1263975

nested_model.unit4.conv.bias f4 [12]
00000000: f707 4336 2057 2a36 5f2e 36b6 e6c6 10b6
00000010: a1e5 86b5 d85a 37b6 7e08 8bb6 ddf3 e635
00000020: 8972 bc36 2a63 6db5 5c10 f135 39eb e0b5
2.90619e-06 2.5382687e-06 -2.7147105e-06 -2.1573446e-06 -1.0050609e-06 -2.7322003e-06 -4.1435114e-06 1.7207309e-06
5.6161703e-06 -8.843368e-07 1.796066e-06 -1.6757759e-06

nested_model.unit4.bn.weight f4 [12]
00000000: 8ca1 773f f195 b43f aad3 6f3f 3ffd 923f
00000010: f380 813f ec19 693f ff80 933f 7473 793f
00000020: 1ac6 933f bc02 8a3f c333 913f 94d5 953f
0.96730876 1.4108258 0.9368235 1.1483535 1.0117477 0.9105518 1.1523741 0.9744179
1.1544831 1.0782084 1.1343921 1.1705804

nested_model.unit4.bn.bias f4 [12]
00000000: 8908 56bc 08e3 79be 34dd 85bd 7545 733d
00000010: 10f1 903e 6cd0 463d 7ad3 e6bb 75cf 723d
00000020: 5470 3e3e a9b1 d23d 00e8 5c3c 5b3b 143d
-0.013063558 -0.24403012 -0.06536332 0.05939241 0.28308916 0.04853861 -0.007044253 0.059279878
0.18597537 0.10287792 0.0134830475 0.03618942

nested_model.unit4.bn.running_mean f4 [12]
00000000: 5a59 d5be 4abc abbe 865d 75bf 7ae7 033e
00000010: f8fd e3be dd2b 263f 5694 04bf d520 2dbf
00000020: e461 d43d 933b 39bd 76fe 72be e32e 38bf
-0.41669732 -0.3354209 -0.9584583 0.1288127 -0.445297 0.6491068 -0.5178884 -0.6762822
0.10370234 -0.04522283 -0.23729882 -0.71946543

nested_model.unit4.bn.running_var f4 [12]
00000000: 358c 8f3e 30b2 ce3e c9ff 9d3e b07b d13e
00000010: 0c60 293f 1dc4 d33e f4a6 db3e c6ff f53e
00000020: f877 f93e 62b9 f03e cee2 f33e 937e f33e
0.28036657 0.4037032 0.3085921 0.4091468 0.6616218 0.4136056 0.42900813 0.48046702
0.4872434 0.47016436 0.47633976 0.47557506

nested_model.net.0.conv.weight f4 [12, 3, 5, 5]
00000000: abdf 3c3e df4b 8e3e 7059 903d bab8 253e
00000010: bb3a cebd 3058 203e 4b52 7dbe 296f a53d
00000020: a5a9 903e 70d2 93bd d0a9 233e 1a4a 6f3d
00000030: 5438 34be dcea 48be cb1d 8cbe 390d 8abd
00000040: 0117 203e 2d81 a2be 00fe adbd dd08 0c3d
00000050: 127d 79bc 69fd aa3b 1d02 edbc f5ed 76bd
00000060: c96f 59bd 75df 57be 5d43 9d3d 8726 23be
00000070: 5723 3f3e 9d5a e93d 41f3 19bd 458d dcbe
00000080: b950 3d3e ba13 a53e 24eb 5b3c c5ba ac3d
00000090: 55e2 003e aa08 b43b 30dc a23c 533f 343c
000000a0: 0834 4cbe e162 c73d c34e 1fbe aa7c 113e
000000b0: 45b8 d23d 1c17 a3bd e78d 4fbd ad6c 613d
000000c0: 69b3 293d 7d74 bebd 06ce c7bd d962 20bd
000000d0: 9fe2 fbbd 499c 85bd 2fc6 37be 3905 803d
000000e0: bd42 f4be 6ff0 9c3d e9d8 b03e 8b1e 31bc
000000f0: 1dff c23d d4d2 0d3c 2fb2 aebd b3a1 0b3e
00000100: bc37 06be 244c ddbd 6460 823e 1144 f7bd
00000110: 1f75 983d 568c 003c 620a e63d cb52 b73c
00000120: cebf a7bb 3867 ea3d 73d3 36bc af97 933d
00000130: a7f9 5c3e 1055 be3d deaa c73d ea49 87bc
00000140: 57c4 edbd 50bf 093e 8385 0b3e 6850 26be
00000150: 6ebd 86bd 2ff1 05be f747 413e b2b5 d73c
00000160: a841 6abe 1c6e 1abe f72c 54bd 0fbc 153e
00000170: 6b68 ba3d 5163 4a3d 97bc 0f3d 0b5e 02be
00000180: 5405 0a3e 5d1c 313e b21b 813d d8b2 963d
00000190: 8d1f 8abb e473 b83d 7c82 87bd 2641 91be
000001a0: 0d08 6abe 8423 573b 0e1e 6f3d a6b1 bebd
000001b0: dd6b 20be f4e1 26be 88d4 9bbd 0129 523e
000001c0: d0c8 e13d 8e10 acbe a7ee 37be f399 fabc
000001d0: 4e83 873d 3e56 183d df7e 70be 3bd6 13be
000001e0: 6d9d 36bc 977d f03c c940 8abd 3301 92bd
000001f0: d601 8cbc 08a7 0e3d b4f9 3e3e b863 69bd
00000200: 59f5 3cbe c27a 1ebe d6d7 b83d 0ffb 3e3e
00000210: 179f ca3d ed0e 31be add0 423b b06e d53c
00000220: a08c 493e 0fb8 143e a9ca 60be 35ec 10be
00000230: a791 b7bd e34e 693e aae3 503e 5ac0 f3bd
00000240: 3d44 1dbd 36fe fa3d a80c e33d 3553 c73d
00000250: bce2 d83c 38ec 8abd d44b 3c3d ac0e 563e
00000260: dbc3 563e 1fdc b93d 61fd 353e d7d1 aa3d
00000270: 76b2 6b3e b198 5b3e 3638 173e 3032 af3d
00000280: 96db 223e 0305 d1bd 4c70 cbbe 0488 503d
00000290: c243 0c3d ea65 3c3d 574c 4fbd 3aeb 8bbe
000002a0: ce08 7fbe 7bb5 33be 2638 01bd cf69 f7bd
000002b0: 35de a9bc 1698 80bc f64e d4bd 7eb2 843b
000002c0: 3883 293e c07d b53c dfdd 1fbd 1b4c e83b
000002d0: 638f 253e bb0c da3d 0a1d 293e 6ef6 d53c
000002e0: f5f4 e0bd f419 493e 413a cbbd bfba f1be
000002f0: 792b 243c 6338 07be d879 073c 097f 13be
00000300: 090b 69be 6dcf a2bd eee4 dbbb 8d49 d73b
00000310: e458 dfbc 7e17 01be 30d6 963d a255 493d
00000320: b3b4 51bd b5e7 9bbd 30ce adbe 1695 48be
00000330: 6012 ebbd 0fd8 e0bc eede 88bc 7fed 573d
00000340: 4c9e 99bd 1826 89bd 3606 0d3e d20e 213d
00000350: 481a 30be 55ae 653e 20f6 1abd 6a5c 7e3a
00000360: e0a6 143d db08 0c3d 05ee ec3d 5e03 cc3d
00000370: edad 1d3d c9db c63b 1381 4f3e 5f85 3d3e
00000380: 71ff f53d 83b2 0ebe b2da e63c a507 4dbe
00000390: 6521 93be 47a7 6bbe 81e4 11bd b754 753c
000003a0: 0db3 643e 738a c53d 6fdb 14bc 3db8 99bd
000003b0: 139d 3dbe af90 d13d eba1 7a3d b809 bb3c
000003c0: 932e f8bd c3c8 88bd 9f8b 853d 4d4c f83d
000003d0: fcc3 223e 7a7f a93d a1a9 0d3e d7e1 c23d
000003e0: 4b4e e43c 6d7c 643d e91e 5f3d 9ed4 133e
000003f0: d1cd fa3d 4729 763d a8c7 183d 5181 58bd
0.18444698 0.2779226 0.07048309 0.16183749 -0.10069796 0.15658641 -0.24738424 0.08077843
0.28254429 -0.07217872 0.15982747 0.058420278 -0.17599612 -0.19620842 -0.2736648 -0.06740803
0.15633775 -0.31739178 -0.08495712 0.03418814 -0.015227573 0.005218197 -0.028931672 -0.060285527
-0.053085122 -0.21081336 0.07678864 -0.15932666 0.18665825 0.11394236 -0.0375855 -0.4307653
0.18487824 0.32241613 0.013422761 0.08434061 0.12586339 0.005494197 0.019880384 0.011001426
-0.19941723 0.097356565 -0.15557389 0.14207712 0.10289053 -0.07963392 -0.050672438 0.055035282
0.041430864 -0.09299562 -0.09756093 -0.03915677 -0.12299084 -0.0652395 -0.17946695 0.06250996
-0.47707167 0.076630466 0.3454049 -0.010810505 0.09521315 0.008656222 -0.085300796 0.13635902
-0.13107198 -0.10805538 0.25464165 -0.120735295 0.07444214 0.007845959 0.11232449 0.022378346
-0.0051193004 0.11445469 -0.011158812 0.07206666 0.2157961 0.09293568 0.09749387 -0.016514737
-0.116097145 0.13451886 0.1362515 -0.1624161 -0.065790996 -0.13080285 0.18875109 0.026331756
-0.22876608 -0.15081066 -0.051800694 0.1462252 0.091019474 0.04941112 0.035091963 -0.12731187
0.13478595 0.17295976 0.063041106 0.073583305 -0.004215187 0.090064794 -0.06616685 -0.28370017
-0.22854634 0.0032827565 0.05837827 -0.093112275 -0.15666147 -0.16297132 -0.076088965 0.20523454
0.1102463 -0.3360638 -0.17962132 -0.030590987 0.06616841 0.037191622 -0.23485897 -0.14437191
-0.011145932 0.02935676 -0.06750638 -0.07129135 -0.01709072 0.034827262 0.18649942 -0.056979865
-0.18452968 -0.15476516 0.090255424 0.18650459 0.09893625 -0.1729085 0.0029726431 0.026053756
0.1968255 0.14523338 -0.21952309 -0.14152606 -0.08963328 0.22783999 0.20399347 -0.119019225
-0.038395155 0.12255518 0.11086398 0.09732667 0.026475303 -0.067833364 0.045970753 0.20904034
0.2097315 0.09075188 0.17772438 0.08340805 0.23017296 0.21444966 0.14767537 0.085544944
0.15904078 -0.10206034 -0.39734113 0.050910965 0.034244306 0.04599563 -0.050609913 -0.273279
-0.24905702 -0.17549698 -0.031547688 -0.12080728 -0.02073584 -0.01569752 -0.10366623 0.0040495982
0.16553962 0.022154689 -0.039029952 0.0070891506 0.16167979 0.106469594 0.16514984 0.026118483
-0.10984222 0.19638807 -0.099232204 -0.47212788 0.01002013 -0.13205104 0.008268796 -0.14403929
-0.22758116 -0.079497196 -0.00671064 0.0065700472 -0.027264066 -0.12606618 0.07365072 0.04915393
-0.05119772 -0.07612554 -0.3394637 -0.19588122 -0.11478114 -0.027446775 -0.016707864 0.05271673
-0.07500896 -0.06696719 0.137719 0.039320774 -0.17197526 0.22429784 -0.03783238 0.0009703102
0.036291957 0.034188133 0.11568836 0.0996158 0.038495947 0.006068681 0.20264082 0.18507908
0.12011612 -0.13935284 0.028180454 -0.20022447 -0.28736416 -0.2301303 -0.03561831 0.014973811
0.22333927 0.09645548 -0.00908552 -0.07505844 -0.1851695 0.10232674 0.061189573 0.022831783
-0.12118258 -0.06678917 0.06520771 0.12123928 0.15895075 0.08276267 0.1383424 0.09515732
0.027869364 0.055782724 0.054472838 0.14436576 0.122462876 0.06009796 0.037299782 -0.0528577

nested_model.net.0.conv.bias f4 [12]
00000000: 5cdc e7b8 68bc 09b7 ea1a 16b9 30c2 a337
00000010: 7fe1 80b6 44c1 02b7 3cc9 32b7 d692 29b8
00000020: 14e4 6937 e87d 0db6 688c 4f37 ab14 00b7
-0.000110559835 -8.209703e-06 -0.00014315141 1.952154e-05 -3.8409485e-06 -7.793602e-06 -1.065648e-05 -4.042949e-05
1.3940986e-05 -2.1083924e-06 1.2370852e-05 -7.634207e-06

nested_model.net.0.bn.weight f4 [12]
00000000: bff1 823f 15e3 0b3f 1f12 783f 140b 283f
00000010: 56bc 113f ee92 493e 6070 e33e 8c98 423f
00000020: bf49 273f 17b4 783e 6f61 d23e 1a15 113f
1.0230025 0.54643375 0.9690265 0.65641904 0.56928 0.19684955 0.44421673 0.7601402
0.653469 0.24287449 0.4108996 0.56672823

nested_model.net.0.bn.bias f4 [12]
00000000: e8a5 673f 3b69 58be 2fd4 7c3e cd55 333e
00000010: 7490 18be 8446 cf3d 2681 833c 732f 363e
00000020: 27a4 7d3a f700 09be 7ef5 d5bd f011 57be
0.9048753 -0.21133892 0.24690317 0.17513199 -0.14898854 0.10120872 0.016052794 0.17791538
0.00096756447 -0.13379274 -0.104472145 -0.21002936

nested_model.net.0.bn.running_mean f4 [12]
00000000: 3baa 76bc f1c7 0dbe 3c7e 82bd fde5 febc
00000010: 8558 6b3e e599 5c3f 4dea 39bd 7714 20bd
00000020: 01eb dabc 481b 243f b1ad 4fbe d2c6 c1bf
-0.015055235 -0.13845803 -0.063717335 -0.031115526 0.22982986 0.86172324 -0.045389462 -0.039082017
-0.026723387 0.6410413 -0.20281102 -1.51388

nested_model.net.0.bn.running_var f4 [12]
00000000: 5ff9 023d 5342 803e 54ea 9b3d 8464 bd3d
00000010: c39c f33d 7441 0d3f 227a 793d be63 f83d
00000020: 7480 533e 90fe c33e 59ce a53d f764 753f
0.0319761 0.250506 0.07613054 0.092476875 0.11895134 0.55178 0.06090749 0.12128399
0.2065447 0.38280153 0.08095998 0.95857185

nested_model.net.1.conv.weight f4 [12, 12, 5, 5]
00000000: 8c18 753d c163 353d 0fb8 83bc 03e8 833d
00000010: f98e 333c 16be e33d 866a 0e3e 4521 8c3b
00000020: 2e36 5c3d c442 25bd 4ebe b43d 1bbf b23d
00000030: b662 643b a83b ac3c cb99 73bd 0c12 a0bc
00000040: b0e1 8a3d 4991 97bd 9859 c5bc 50c9 0fbe
00000050: 4294 69bd a2f4 853d 3ac2 44bd 0a6d 12bc
00000060: 2cac ffbd 5076 eabd b4ec 41bd 89bd 71bb
00000070: d653 c6ba bfe3 ce3d 0576 bbbd 5fe3 0bbd
00000080: 665b 1a3c acde b7ba 03e9 c43d 8392 9cbd
00000090: 7abd 1ebc 9755 8e3c f58d 033c 08d5 cb3d
000000a0: ef91 bebd 0694 e7bc 6e8d 33bc d0fd 94bc
000000b0: 14e0 853d ac94 d3bd 5da9 28bd 2947 b2bc
000000c0: 9b33 70bd bc21 723c 478c f5bd 6dfc 22bd
000000d0: 2f4b 043d f181 053d fe1c 2dbc 1d13 dcbc
000000e0: 810b 473c d0a0 043d 09f5 4f3d dc9b b2bb
000000f0: e1df 5a3d aa40 563d fcef 803d 2b16 513d
00000100: 9cf6 ee3c f97b a3bb 82e3 753c 6c79 2e3d
00000110: 862b c53a 1456 59bd 7bdd 193c 5fe2 29bc
00000120: ba75 a43c ce48 c4ba 25f0 a9bd acca 4abd
00000130: 259c bebc 05f1 1cbd e8d9 61bd 19e7 93bd
00000140: f9d1 173d f23c 143d 5e2c 6a3c 1518 17bd
00000150: 0cf6 8bbd c818 563d 9073 413d 7706 da3c
00000160: 6e71 56bd f96d adbd 6026 0a3b e88f 45bc
00000170: 93a5 3abc d8c2 8fbd 52e6 b7bd a746 2d3c
00000180: 8f31 71bc de76 56bd 3766 f5bd b8a0 6cbd
00000190: 37a9 4a3d 0d1a 483d 41be c43d b84a de3c
000001a0: a7dc 9f3c 6d50 ba3c 1f0c 1a3d 7353 7e3d
000001b0: 91d0 393c 4fa4 aebc 7a77 cc3d e221 c63d
000001c0: b69f 8a3d 67f2 1fbb 8573 a9bc 2e65 e23d
000001d0: 4032 cf3d f5b8 913d 5e45 893b 0353 25ba
000001e0: 37ac 8a3d 70bd 673d 807b 513d f0a1 473b
000001f0: ad8e b8bc 9257 703d 5fe1 613d fd2a 3f3d
00000200: 5701 ed3c 5f5a b83b 4038 a73d 77a1 8f3d
00000210: 2b43 7d3d 959f 543d 71c7 063d 1f47 8f3d
00000220: 81a2 833d 418b 803d 7512 5c3d 9749 183d
00000230: 456e f73c 0568 f63c e39f 073d 8981 af3c
00000240: ea56 603c 6a35 233d e1a0 353d 487f 3d3d
00000250: 57f3 133d b69c 073d 50bd c0bc 6fe3 2abb
00000260: 6848 613c b011 153c ef6e 8cbb 1b77 07bd
00000270: 5a29 a4bb c915 de3c a001 683c 8851 593b
00000280: 3e9f fa3b 4fbf 273d 7bea 8a3d 5668 823d
00000290: bfd5 453d c2f8 16bd 6e93 6e3c da01 3a3d
000002a0: d32a cb3c 95e2 263b 1d39 9abd f62c efbc
000002b0: a9db f63b 6013 42bc 26aa 3cbd 61a3 cabc
000002c0: c122 d4bd 0307 f4bd 9098 5a3b 2e6e 0f3d
000002d0: 5cb0 88bd 0ad3 f4bd 9cf9 d4bd 5e10 bebc
000002e0: e217 603d e49d a0bd ad9b 0abe 3dbe d6bd
000002f0: 1ab2 50bd 9a5a b13d a6be 12be 4555 19be
00000300: 7d4b 29be a73d 8ebd 6443 383d ca08 91bd
00000310: 9841 ccbd f7a2 b8bd 8885 0e3c d7d9 f83d
00000320: 8dd5 07be 350a 2dbe e5da 3ebe acff 2fbe
00000330: c921 49be bc4f 14be c146 47be 08e7 3abe
00000340: 307a 16be 14ae 2ebe 53e2 92b9 92a8 02bd
00000350: 5ae8 2bbb 70ef c13c 0952 54bb 4630 afbd
00000360: 9fed 08be 3e92 f3bd 12f2 bebd 0c4c 01be
00000370: 68d7 72be 95e8 81be fb6d 6fbe 20ff 59be
00000380: c321 62be 9744 6e3d cb2d 453d 085a 663d
00000390: 43bb e93c 8a29 85bc 40f8 183d 5f1c 303d
000003a0: 6121 5f3d a798 943c 65c8 f8bc 5f4c 303d
000003b0: eb93 683d 552c 703d 2a0f 933c f774 edbc
000003c0: 7567 3c3d f333 7e3d ca19 5b3d cde9 6d3c
000003d0: b323 bbbc 22ae ef3c 512c 1e3d f638 ec3c
000003e0: 7ec7 16bc 0646 21bd f17c 2f3d 71e0 283d
000003f0: e8f0 cb3c 8332 88bc 10db b8bd 48ce bf3d
0.059837863 0.044284586 -0.016078977 0.06440737 0.01095938 0.111202404 0.13907823 0.004276427
0.053762607 -0.040346876 0.0882536 0.08727857 0.0034848875 0.02102454 -0.05947284 -0.019539855
0.06781328 -0.07400758 -0.024090573 -0.14041638 -0.057026155 0.06540801 -0.04803679 -0.00893713
-0.12484011 -0.114483476 -0.04734488 -0.0036886653 -0.0015131186 0.10102033 -0.0915337 -0.034152385
0.009421205 -0.0014028153 0.09614756 -0.076451324 -0.009688729 0.017374797 0.008029451 0.09952742
-0.093051784 -0.028268825 -0.010959012 -0.018187433 0.0653688 -0.10331091 -0.041177142 -0.021762447
-0.058642965 0.014778551 -0.119896464 -0.039791513 0.032298263 0.032594625 -0.010565994 -0.026864583
0.012148739 0.032379925 0.050770793 -0.005450709 0.053436164 0.052307762 0.062957734 0.05104653
0.029170327 -0.004989144 0.015007855 0.042596266 0.0015042878 -0.053060606 0.009391184 -0.0103689125
0.020075668 -0.0014975311 -0.08297757 -0.04950969 -0.023267815 -0.03831579 -0.055139452 -0.07221813
0.03706548 0.036190934 0.0142928045 -0.0368882 -0.06834039 0.052269727 0.04722935 0.02661441
-0.05235427 -0.08468241 0.0021080002 -0.012058236 -0.011392015 -0.07019585 -0.08979477 0.010575927
-0.014721288 -0.052359454 -0.119823866 -0.05777046 0.049477782 0.04885297 0.096066006 0.027135238
0.019514395 0.022743428 0.037609216 0.062091302 0.01134123 -0.021318583 0.09983726 0.096744314
0.06768744 -0.0024405958 -0.020684967 0.11054455 0.10117006 0.07115356 0.0041891774 -0.000630662
0.067711286 0.056577146 0.05114317 0.0030461513 -0.02252897 0.058677264 0.05514657 0.046671856
0.028931303 0.0056260074 0.08165026 0.07013219 0.061831634 0.05191 0.032905046 0.06995987
0.064274795 0.062765606 0.05372854 0.037179556 0.030203948 0.030078897 0.033111464 0.021424072
0.013692597 0.03984586 0.04434288 0.046263963 0.03612074 0.033108436 -0.023527771 -0.0026075502
0.013750173 0.009098455 -0.0042856853 -0.033072572 -0.0050098123 0.027109997 0.014160544 0.0033160169
0.0076483777 0.04095393 0.06783005 0.06367557 0.048299547 -0.036858328 0.014561517 0.045411922
0.024800694 0.0025464643 -0.07530425 -0.029196244 0.0075335097 -0.01184544 -0.046060704 -0.024736108
-0.10358191 -0.119154 0.0033355094 0.035017185 -0.06674263 -0.11954315 -0.10399172 -0.023201164
0.054710276 -0.07842615 -0.13535948 -0.10485504 -0.0509511 0.08659859 -0.14330539 -0.14973934
-0.16532703 -0.06945353 0.044986144 -0.070817545 -0.099734485 -0.09015458 0.0086988285 0.12150925
-0.13265057 -0.16898425 -0.18638189 -0.17187375 -0.19641794 -0.14483541 -0.19460584 -0.18252194
-0.14695048 -0.17058593 -0.00028015915 -0.031899042 -0.0026231022 0.023673743 -0.003239753 -0.08554129
-0.13371895 -0.11893128 -0.09323515 -0.12626666 -0.23714983 -0.25372759 -0.23381798 -0.21288729
-0.22083192 0.05817088 0.048139375 0.056238204 0.028531676 -0.016255159 0.037346125 0.042995807
0.054475192 0.018139197 -0.030368993 0.043041583 0.05678169 0.05863603 0.017951567 -0.028986437
0.0459971 0.06206126 0.05349139 0.0145210745 -0.022844171 0.029257838 0.038616482 0.028835755
-0.009202836 -0.03937342 0.042843763 0.04122967 0.024895146 -0.016625648 -0.09026158 0.09365517

nested_model.net.1.conv.bias f4 [12]
00000000: c667 89b4 ee62 9536 2184 5036 1e2d 20b5
00000010: 622a 59b6 62a3 68b6 9c7c f236 a93c acb6
00000020: 40ea d935 4cb5 cd36 9f3b e1b3 9b15 4a37
-2.5593744e-07 4.452063e-06 3.1071324e-06 -5.96703e-07 -3.236019e-06 -3.4665795e-06 7.2266685e-06 -5.133061e-06
1.6235936e-06 6.130582e-06 -1.0488224e-07 1.2045169e-05

nested_model.net.1.bn.weight f4 [12]
00000000: 3138 173d b5cd bc3e 5d9a 8d3e e1f1 273f
00000010: efe9 d23e ce95 bd3e e21f e73e 2a4d ab3e
00000020: 6764 013f 0e1f 813e 006c a73e 5047 2b3f
0.036918823 0.36875692 0.27656832 0.6560345 0.41194102 0.37028354 0.45141512 0.3345731
0.50543827 0.25219005 0.32699585 0.6690569

nested_model.net.1.bn.bias f4 [12]
00000000: 245f ab3d 3842 7bbe 0066 58be 4373 8cbe
00000010: ab5a 71be 76da 69be 9984 cabd fabd 4ebe
00000020: b168 8cbe 0d0d 12be 7cac 9bbe dae7 9dbe
0.08367756 -0.24536979 -0.2113266 -0.27431688 -0.23569743 -0.22837242 -0.09888572 -0.20189658
-0.27423623 -0.14262791 -0.30405033 -0.3084095

nested_model.net.1.bn.running_mean f4 [12]
00000000: 3123 edbe 4edb d13e 5f8b 32bf 7fb7 b3bf
00000010: 9cdc 7bbf 2683 d7bf 099b 80bf c6b7 6fbf
00000020: 535d 91bf e96d 06c0 8300 d13f a8cb 98bf
-0.4631591 0.4098763 -0.69743913 -1.4040374 -0.983835 -1.6836898 -1.0047313 -0.9363979
-1.1356605 -2.1004584 1.6328281 -1.1937151

nested_model.net.1.bn.running_var f4 [12]
00000000: a9a1 ac3f abcc 9d3f 26a2 0340 5be6 8840
00000010: 0222 2c40 af64 f83f 0dc9 2f40 7751 0240
00000020: 3ce9 1540 7174 0f40 2a98 d53f 4385 8d40
1.3486835 1.2328085 2.0567718 4.2781196 2.6895757 1.9405726 2.7466462 2.0362222
2.3423605 2.241482 1.6687062 4.4225173
