experiment_outputs/regularization/regularized_reg_tanh_at-l1-0.1.model (torch_old, 96095 bytes, 56 tensors)

nested_model.unit1.conv.weight f4 [12, 3, 5, 5]
000000 98 06 1d 3e ed 7d 2c 3e db 9f a1 3d b6 17 1c 3e
       0.15334547 0.16844912 0.07891818 0.1524342
000010 e6 29 b2 bd ca 62 de 3d 5a 41 49 be ba fa 0c 3d
       -0.08699398 0.10858686 -0.19653836 0.0344188
000020 53 89 5d 3e b6 e3 2f bd 26 36 0f 3e cf 82 49 3d
       0.21634416 -0.04294177 0.139855 0.049197014
000030 63 3b 06 be 83 00 04 be c0 25 5d be b9 2e 48 bd
       -0.13108592 -0.1289082 -0.21596432 -0.048872683
000040 eb b7 24 3e 9f 47 83 be c9 3d 9d bd 75 54 70 3d
       0.16085784 -0.2564058 -0.076778 0.058674295
000050 4f ec 26 bd 35 a9 b0 bb d4 a6 f2 bb 06 85 74 bd
       -0.040752705 -0.005391265 -0.0074051414 -0.059697174
000060 e3 84 1f bd 45 99 0f be 01 5d 8e 3d c6 e8 e5 bd
       -0.03894509 -0.14023311 0.06951333 -0.11226039
000070 c6 b1 21 3e 87 dd bd 3d e8 96 5f 3b e2 29 a0 be
       0.15790471 0.092707686 0.0034117047 -0.31281954
000080 4b 5c 12 3e 82 1f 45 3e ef ad 00 bd 8c c3 c7 3d
       0.1429302 0.192503 -0.031415876 0.097540945
000090 c2 9a dc 3d 63 f3 b7 3c d6 9f 4f 3c 26 85 4c ba
       0.10771705 0.022454923 0.012672385 -0.0007801823
0000a0 c9 bb 26 be be 3f 99 3d 9d 91 0c be c6 69 ae 3d
       -0.16282572 0.07482861 -0.13727422 0.085162684
0000b0 87 6e 9d 3d de 5d 74 bd bc a5 96 bd d8 bf 33 3d
       0.07687097 -0.05965983 -0.0735583 0.04388413
0000c0 46 e0 8f 3c 70 b5 cd bd 3b 3b df bd 2c c5 ca bd
       0.017562997 -0.10044372 -0.10899969 -0.09900889
0000d0 66 8b b9 bd 10 f6 9d bd 4f 01 e8 bd 09 a1 3d 3d
       -0.09059791 -0.07712948 -0.113283746 0.046296153
0000e0 76 79 b0 be 04 77 1c 3d 08 10 71 3e f6 02 74 3d
       -0.34467667 0.03819944 0.23541272 0.059573136
0000f0 59 df 9c 3d 3e 63 f5 3c f4 a9 83 bd 50 4b eb 3d
       0.07659788 0.029954549 -0.064289 0.11488974
000100 cf 6a b5 bd fd 6a b6 bd a5 4f 77 3e a2 97 62 bd
       -0.08858263 -0.08907125 0.24151476 -0.05532039
000110 16 2a 37 3d 70 e7 77 3c 8d 68 fb 3d fb b7 79 bc
       0.04471787 0.015130863 0.12275801 -0.015241618
000120 16 10 e4 3b 5b cb 14 3e 12 c9 30 3d 5d 35 c9 3d
       0.0069599254 0.14530699 0.043160506 0.09824631
000130 bb 94 28 3e d9 b3 6f 3d 1e dc e1 3d aa f6 a1 3b
       0.16462986 0.058521125 0.11028312 0.0049427347
000140 13 44 ac bd de 79 40 3d 38 8d b8 3d c9 eb 1b be
       -0.084114216 0.04699122 0.0901131 -0.15226664
000150 11 ec 2f bd c2 80 7d bd 33 51 d5 3d 7d 45 8f bd
       -0.04294974 -0.06189037 0.10415878 -0.06995676
000160 42 e5 57 be 17 5c 16 be 43 4a 77 3d 7c 92 e9 3d
       -0.21083549 -0.14683567 0.060373556 0.11404893
000170 5f df d8 3b eb d3 49 3d 6b c2 6f 3b e2 bd 3b bd
       0.006618425 0.049274366 0.0036584388 -0.045835383
000180 b3 1f 1f 3e 3e 81 21 3e 5a 83 80 3d 66 06 46 3d
       0.15539436 0.15771958 0.06275053 0.048345946
000190 1f b8 94 3c b0 65 c7 3d 16 0e 29 bd ad 94 84 be
       0.018154202 0.09736192 -0.0412732 -0.2589468
0001a0 2a 44 61 be 73 39 4c 3d 2f 29 cd 3c bc 14 cf bd
       -0.21998659 0.049859475 0.025044052 -0.10111377
0001b0 14 a6 89 bd 54 6f f9 bd 65 a9 f7 bc 10 0d 20 3e
       -0.0672113 -0.12179437 -0.03023214 0.15629983
0001c0 37 60 a5 3d 94 80 86 be 26 00 0b be c8 47 03 3d
       0.08074992 -0.26269972 -0.13574275 0.032050878
0001d0 d8 03 19 3d 7f 68 a3 bb b5 9c 54 be 28 62 20 be
       0.03735718 -0.004986822 -0.20762904 -0.15662444
0001e0 d3 cb aa 3b 0d 57 bb 3c e2 78 b7 bd ed e8 44 bd
       0.005212286 0.022868657 -0.089586034 -0.048073698
0001f0 bf c1 9c bc e4 ff be bc bd ac ef 3d 1e 4a d2 bd
       -0.019135354 -0.023315378 0.11702869 -0.10268043
000200 db 98 20 be d6 7e d2 bd f8 ab be 3d 44 44 ef 3d
       -0.1568331 -0.10278098 0.09310144 0.116829425
000210 11 e6 9a 3d 13 b7 c8 bd 75 c0 d6 3d 54 0c 46 3d
       0.07563413 -0.09800544 0.10485927 0.0483516
000220 c0 da da 3d 27 83 ae 3d fb e8 11 be d9 fa 94 bd
       0.106862545 0.08521109 -0.14249031 -0.07274408
000230 31 6b a4 bd 6d c4 2d 3e 25 44 0e 3e de 5a ac bd
       -0.08028258 0.16969462 0.13893183 -0.08415769
000240 f9 f1 53 bc 2c 1e 00 3e c8 48 57 3d ea 0e 08 3d
       -0.012936109 0.1251151 0.052559644 0.03321735
000250 45 aa 0d 3d 9b 20 86 bd 31 6a 9c 3c eb 45 12 3e
       0.03458621 -0.06549188 0.019093605 0.14284484
000260 f7 f4 33 3e 86 cf 4f 3d 7b 52 10 3e 54 03 0a 3d
       0.17573915 0.05073502 0.14093964 0.03369458
000270 23 81 05 3e 3e 26 fd 3d dc 65 3c 3d 0f 13 df 3c
       0.13037543 0.1236081 0.04599558 0.027230768
000280 e7 4a 1d 3e 1e d0 72 bd ae c9 77 be 12 fd 6b 3d
       0.15360604 -0.059280507 -0.24198028 0.057614394
000290 d9 d0 48 3d cd 21 0b 3d 32 ef 6c bc 65 ed 3c be
       0.049027298 0.03396778 -0.0144613255 -0.18449934
0002a0 f0 2f 40 be 04 33 1b be 15 8d 8e 3d e1 fa 54 bd
       -0.18768287 -0.1515618 0.06960503 -0.05199707
0002b0 a7 cf 88 bc 90 e2 5f 3c 88 d1 b4 bd 89 6b 81 bd
       -0.016700579 0.013664857 -0.088290274 -0.06319339
0002c0 de 60 11 3e 54 16 1b 3d 5e 88 42 bd e0 ed ca bc
       0.14197108 0.03786309 -0.04749333 -0.02477163
0002d0 bd 90 ed 3d d1 fa 68 3d 74 36 06 3e 34 65 02 bd
       0.11599872 0.056879822 0.1310671 -0.031834796
0002e0 e4 a2 fc bd 53 53 5b 3e b6 b9 cd bc ee d8 a0 be
       -0.123357564 0.21418504 -0.025112968 -0.31415504
0002f0 11 b0 94 3c 17 c3 c5 bd 6f 04 01 bc c2 2c eb bd
       0.018150361 -0.09656351 -0.007874592 -0.11483146
000300 50 91 13 be e1 28 07 bd 6c 5c 3e 3b 13 1e c4 3c
       -0.14410901 -0.03299797 0.0029046787 0.023940122
000310 84 67 17 3c c5 c1 08 be 55 7c c8 3d e7 72 06 3d
       0.009240989 -0.13355167 0.097893395 0.032824423
000320 28 c2 7c bd 7a 3b 49 bd 15 78 83 be 3a c4 ec bd
       -0.0617086 -0.049128987 -0.25677553 -0.11560865
000330 54 8b 91 bd 3a d5 24 bd 78 82 89 bd 5c 2b 00 3d
       -0.07106653 -0.04024241 -0.06714338 0.03129135
000340 ce d6 a3 bd 15 b9 2f bb c2 97 19 3e aa 98 7f 3d
       -0.07999955 -0.0026813198 0.14999297 0.06240145
000350 8c 83 b7 bd 60 c8 3d 3e 86 a1 b4 3c 62 60 8c bd
       -0.089606375 0.18533468 0.022049677 -0.06854321
000360 0c 40 6f bc 90 8b 93 3c e4 e7 4c 3d 37 1e a5 3d
       -0.014602672 0.018010885 0.050025836 0.08062404
000370 54 e9 2e bc 41 0b 69 bd 6a 12 da 3d d1 71 f7 3d
       -0.010675747 -0.0568955 0.106480435 0.12082256
000380 7f a2 81 3d d8 c7 d8 bd fb 26 64 3d 10 32 20 be
       0.06329822 -0.10584992 0.055701237 -0.15644097
000390 20 1b 74 be 65 e6 29 be f2 d1 00 bd ab 5b a5 bc
       -0.23838472 -0.16591795 -0.03145022 -0.020185312
0003a0 fc 82 1e 3e 22 be aa 3d a9 51 8d 3b 4c 58 56 3b
       0.15479654 0.08337046 0.004312713 0.0032706438
0003b0 f3 2c e6 bd 72 c6 8b 3d 70 da bf 3d 73 50 ea 3b
       -0.11239042 0.0682496 0.093678355 0.0071507036
0003c0 f0 ef 01 be a0 90 66 bd 80 fe d3 bb 46 ab dc 3d
       -0.12689185 -0.05629027 -0.0064695477 0.10774855
0003d0 9d 33 b0 3d 2d 55 b6 3d 6d f0 f8 3d b3 61 6e 3d
       0.086035945 0.08902965 0.121552326 0.058198642
0003e0 11 ed a3 3c 20 e8 7b 3d 5d b2 c7 3d 7b 3b 13 3e
       0.020010503 0.06150067 0.09750817 0.14378159
0003f0 c5 32 d8 3d 75 6b 13 3d 37 e4 1d 3d a1 6e 94 bd
       0.105565585 0.03599115 0.03854772 -0.07247663

nested_model.unit1.conv.bias f4 [12]
000000 dc f8 48 b8 be 8d 12 36 75 1a 67 b6 10 9e 17 b8
       -4.7915484e-05 2.18382e-06 -3.4437082e-06 -3.6148413e-05
000010 e9 3b 65 b6 a0 6d 79 38 54 c6 f5 37 dd bf 94 b8
       -3.4158531e-06 5.9468322e-05 2.929863e-05 -7.092927e-05
000020 3b 4d f7 b6 3b f2 fd 36 70 40 9f 37 2a c1 9a b7
       -7.3701644e-06 7.568187e-06 1.8984283e-05 -1.844818e-05

nested_model.unit1.bn.weight f4 [12]
000000 24 34 84 3f 22 cb 15 3f 96 14 4c 3f 9d a9 1f 3f
       1.0328412 0.5851308 0.7971891 0.62368184
000010 7f 3e 2a 3f b6 10 67 3e 20 09 27 3f 91 37 56 3f
       0.6650161 0.22564968 0.652483 0.8367854
000020 35 22 26 3f a3 26 92 3e a6 00 c9 3e 61 5f 1c 3f
       0.64895946 0.28545102 0.39258307 0.61083037

nested_model.unit1.bn.bias f4 [12]
000000 ae 41 5c 3f 16 2e 4a be 46 64 8f 3e 3d 95 df 3d
       0.8603772 -0.19744143 0.2800619 0.10917137
000010 61 b0 9c bd 52 b7 ab 3d ae 7f bd 3d 92 a2 83 3e
       -0.07650829 0.08384575 0.092528686 0.2570997
000020 4b c0 56 3d 17 d2 06 be 05 09 49 bd dc 08 40 be
       0.05242948 -0.1316608 -0.049080867 -0.1875338

nested_model.unit1.bn.running_mean f4 [12]
000000 a4 32 3c 3d 5a 80 13 be 9c 1e 2f bd 34 1e 48 bd
       0.045946732 -0.14404431 -0.0427538 -0.04885693
000010 9a b8 12 3e 9f d6 f5 3e 9d c3 e0 bd ef 76 12 bc
       0.14328232 0.48015305 -0.1097481 -0.008939489
000020 30 a7 0c bd 32 80 e0 3e ef f9 ee bd 2a 41 88 bf
       -0.03433913 0.43847805 -0.11668765 -1.0644886

nested_model.unit1.bn.running_var f4 [12]
000000 f1 03 9e 3c f5 15 2d 3e 0f 90 0b 3d ba 0c 82 3d
       0.019288989 0.16902907 0.03407293 0.06350084
000010 5e 10 8d 3d 53 b0 76 3e 20 fa 2a 3d 96 1f 89 3d
       0.068878874 0.240907 0.041742444 0.06695478
000020 2b 7f 1a 3e fc 8e 3d 3e 02 5b 3c 3d 3f d1 fe 3e
       0.15087573 0.18511575 0.04598523 0.49769017

nested_model.unit2.conv.weight f4 [12, 12, 5, 5]
000000 84 a1 00 00 c3 54 00 00 f1 3b 00 80 a4 2d 00 80
       5.7941e-41 3.0407e-41 -2.1503e-41 -1.6373e-41
000010 15 64 00 80 ad 6d 00 00 50 82 00 00 81 2b 00 00
       -3.5903e-41 3.9344e-41 4.6747e-41 1.5606e-41
000020 50 62 00 80 a6 1b 00 80 f5 2c 00 80 33 b6 00 80
       -3.5268e-41 -9.918e-42 -1.6128e-41 -6.5361e-41
000030 54 1e 00 00 27 8a 00 00 07 a7 00 00 e7 42 00 00
       1.088e-41 4.956e-41 5.9918e-41 2.4e-41
000040 b3 4b 00 80 b9 61 00 80 fb a8 00 80 39 97 00 80
       -2.7156e-41 -3.5056e-41 -6.0619e-41 -5.4248e-41
000050 48 8f 00 00 78 27 00 00 85 ac 00 00 39 38 00 00
       5.14e-41 1.4159e-41 6.1888e-41 2.0169e-41
000060 3c b6 00 00 70 a2 00 80 64 0d 00 80 e5 8b 00 00
       6.5373e-41 -5.8272e-41 -4.804e-42 5.0185e-41
000070 98 78 00 00 11 44 00 80 11 0b 00 80 37 aa 00 00
       4.3261e-41 -2.4418e-41 -3.97e-42 6.1062e-41
000080 b3 b0 00 00 45 42 00 00 e6 7e 00 80 2d 08 00 00
       6.3388e-41 2.3773e-41 -4.5523e-41 2.933e-42
000090 ad 41 00 80 8a 4f 00 80 ff 10 00 00 4d 4d 00 80
       -2.356e-41 -2.8533e-41 6.097e-42 -2.773e-41
0000a0 95 08 00 00 20 19 00 80 6b ba 00 00 19 ae 00 00
       3.079e-42 -9.013e-42 6.6874e-41 6.2454e-41
0000b0 9f b5 00 00 a6 3d 00 00 b4 9e 00 80 ba 86 00 80
       6.5153e-41 2.2115e-41 -5.6932e-41 -4.8331e-41
0000c0 96 2f 00 00 d6 99 00 00 09 09 00 00 51 1a 00 00
       1.707e-41 5.5186e-41 3.241e-42 9.44e-42
0000d0 b5 9f 00 00 b7 3c 00 80 d8 b2 00 80 e9 3f 00 80
       5.7292e-41 -2.178e-41 -6.4157e-41 -2.2927e-41
0000e0 b0 aa 00 80 76 1e 00 00 29 b1 00 00 6f 7e 00 00
       -6.1231e-41 1.0927e-41 6.3553e-41 4.5356e-41
0000f0 07 97 00 80 22 af 00 80 af 08 00 00 95 09 00 00
       -5.4178e-41 -6.2826e-41 3.115e-42 3.437e-42
000100 c4 22 00 00 b9 57 00 80 ab 49 00 00 75 61 00 00
       1.2472e-41 -3.1469e-41 2.6427e-41 3.4961e-41
000110 f5 0f 00 80 64 58 00 00 40 83 00 80 78 8a 00 80
       -5.724e-42 3.1709e-41 -4.7084e-41 -4.9673e-41
000120 99 8b 00 80 0f a4 00 80 9a 6b 00 00 16 1f 00 80
       -5.0078e-41 -5.8853e-41 3.86e-41 -1.1152e-41
000130 c0 8d 00 00 07 a4 00 80 ac 11 00 00 95 6a 00 00
       5.085e-41 -5.8842e-41 6.34e-42 3.8234e-41
000140 89 22 00 00 1f b6 00 80 80 31 00 00 b1 4e 00 80
       1.2389e-41 -6.5333e-41 1.7757e-41 -2.8229e-41
000150 fa b0 00 00 c4 a1 00 80 42 2e 00 00 d3 b2 00 00
       6.3487e-41 -5.803e-41 1.6594e-41 6.415e-41
000160 cb 74 00 80 3f ac 00 00 75 6f 00 80 1c 4f 00 00
       -4.1897e-41 6.179e-41 -3.9983e-41 2.8379e-41
000170 01 5d 00 80 d7 92 00 00 38 86 00 80 c2 20 00 80
       -3.3364e-41 5.2676e-41 -4.8149e-41 -1.1751e-41
000180 73 b3 00 00 ab 8c 00 80 72 70 00 00 6f 4e 00 00
       6.4374e-41 -5.0462e-41 4.0338e-41 2.8137e-41
000190 c3 27 00 80 5a 83 00 00 f8 6d 00 00 b8 9b 00 80
       -1.4264e-41 4.712e-41 3.945e-41 -5.5861e-41
0001a0 12 1b 00 80 57 3b 00 80 57 71 00 00 47 7f 00 80
       -9.711e-42 -2.1287e-41 4.0659e-41 -4.5659e-41
0001b0 1d 1f 00 80 de 33 00 80 16 a7 00 00 b3 62 00 80
       -1.1161e-41 -1.8606e-41 5.9939e-41 -3.5407e-41
0001c0 b8 6a 00 80 72 9e 00 80 0b 48 00 00 e1 a9 00 00
       -3.8283e-41 -5.684e-41 2.5844e-41 6.0941e-41
0001d0 30 79 00 80 77 b7 00 00 a0 7f 00 00 3f 32 00 00
       -4.3474e-41 6.5815e-41 4.5783e-41 1.8025e-41
0001e0 e3 17 00 80 14 2c 00 00 22 9c 00 00 dd 69 00 00
       -8.569e-42 1.5812e-41 5.601e-41 3.7977e-41
0001f0 7b 85 00 80 5a 5c 00 80 31 43 00 80 ad 98 00 80
       -4.7884e-41 -3.313e-41 -2.4104e-41 -5.477e-41
000200 da 1e 00 80 57 3d 00 00 fc 4d 00 00 49 10 00 80
       -1.1067e-41 2.2005e-41 2.7976e-41 -5.842e-42
000210 5a 44 00 00 d0 0d 00 80 a8 b6 00 00 b3 7c 00 00
       2.452e-41 -4.955e-42 6.5525e-41 4.4734e-41
000220 70 42 00 00 48 a2 00 00 4a 06 00 80 29 65 00 80
       2.3833e-41 5.8216e-41 -2.256e-42 -3.629e-41
000230 d1 57 00 80 eb 64 00 80 a0 26 00 80 1d 9d 00 80
       -3.1503e-41 -3.6203e-41 -1.3856e-41 -5.6362e-41
000240 db a6 00 80 c4 4a 00 80 cb 0a 00 00 51 03 00 80
       -5.9856e-41 -2.6821e-41 3.872e-42 -1.19e-42
000250 43 b7 00 00 09 26 00 00 f3 20 00 00 aa aa 00 80
       6.5742e-41 1.3644e-41 1.182e-41 -6.1223e-41
000260 eb 70 00 80 f0 74 00 00 fb 68 00 80 12 67 00 80
       -4.0507e-41 4.1949e-41 -3.766e-41 -3.6975e-41
000270 4f 56 00 00 9a 5e 00 00 e1 2d 00 80 94 2d 00 80
       3.0962e-41 3.3937e-41 -1.6458e-41 -1.635e-41
000280 cd 9b 00 80 c7 3e 00 80 e4 a1 00 00 d4 82 00 00
       -5.5891e-41 -2.252e-41 5.8075e-41 4.6932e-41
000290 58 77 00 80 96 81 00 00 d5 2d 00 80 33 ac 00 00
       -4.2812e-41 4.6487e-41 -1.6441e-41 6.1773e-41
0002a0 ea 41 00 80 ed 28 00 80 08 82 00 80 3e 95 00 80
       -2.3646e-41 -1.4681e-41 -4.6646e-41 -5.3538e-41
0002b0 57 50 00 00 9b 10 00 00 7e 12 00 80 cf 8f 00 00
       2.882e-41 5.957e-42 -6.634e-42 5.1589e-41
0002c0 28 0b 00 00 88 2e 00 80 f2 59 00 00 08 61 00 80
       4.002e-42 -1.6692e-41 3.2266e-41 -3.4808e-41
0002d0 2c 32 00 00 69 db 01 00 8f 2b 00 80 fb a9 00 00
       1.7998e-41 1.70545e-40 -1.5626e-41 6.0978e-41
0002e0 6f 88 00 00 8f 39 00 80 ac 50 37 00 77 54 00 80
       4.8943e-41 -2.0648e-41 5.079892e-39 -3.03e-41
0002f0 1b 55 00 00 43 42 00 00 8f 1f 00 80 99 aa 00 00
       3.053e-41 2.377e-41 -1.1321e-41 6.1199e-41
000300 7e 53 00 00 11 b0 00 80 4d 89 00 80 0e 2b 00 00
       2.9951e-41 -6.3161e-41 -4.9254e-41 1.5445e-41
000310 f2 2f 00 80 8b 61 00 80 46 a9 00 00 3d 36 00 00
       -1.72e-41 -3.4992e-41 6.0724e-41 1.9457e-41
000320 1b 6f 00 00 51 2c 00 80 3f 1e 00 80 72 3f 00 80
       3.9857e-41 -1.5898e-41 -1.085e-41 -2.276e-41
000330 c6 2f 00 80 c7 ae 00 80 60 7d 00 80 ab 44 00 80
       -1.7138e-41 -6.2698e-41 -4.4976e-41 -2.4633e-41
000340 ea a5 00 00 74 30 00 80 ac 5e 00 80 ef 63 00 80
       5.9519e-41 -1.7382e-41 -3.3962e-41 -3.585e-41
000350 b7 a6 00 80 b7 34 00 80 79 38 00 00 67 32 00 00
       -5.9806e-41 -1.891e-41 2.0259e-41 1.8081e-41
000360 d5 71 00 00 2b 9d 00 80 05 6c 00 80 2e 21 00 00
       4.0835e-41 -5.6381e-41 -3.875e-41 1.1903e-41
000370 e0 41 00 80 12 55 00 80 b3 94 00 80 c0 af 00 00
       -2.3631e-41 -3.0517e-41 -5.3343e-41 6.3047e-41
000380 f7 3b 00 00 7a 6c 00 00 bf 35 00 80 25 51 00 00
       2.1511e-41 3.8914e-41 -1.928e-41 2.9109e-41
000390 5a 2a 00 00 66 2d 00 80 48 76 00 00 89 60 00 00
       1.5193e-41 -1.6286e-41 4.2431e-41 3.463e-41
0003a0 a1 0e 00 80 43 28 00 00 22 76 00 00 4a 32 00 80
       -5.248e-42 1.4443e-41 4.2378e-41 -1.804e-41
0003b0 fc 5e 00 80 b8 1d 00 00 0e 55 00 00 ae 1c 00 00
       -3.4074e-41 1.0661e-41 3.0512e-41 1.0288e-41
0003c0 0d 18 00 80 7a 3b 00 00 ca 08 00 00 e8 b7 00 00
       -8.628e-42 2.1336e-41 3.153e-42 6.5973e-41
0003d0 86 82 00 00 dc 88 00 00 f8 3b 00 00 44 ba 00 00
       4.6823e-41 4.9096e-41 2.1513e-41 6.682e-41
0003e0 37 68 00 80 2a 48 00 00 a6 93 00 00 e7 01 00 80
       -3.7385e-41 2.5888e-41 5.2966e-41 -6.82e-43
0003f0 a2 3d 00 00 5b 07 00 80 d3 89 00 00 49 3c 00 00
       2.211e-41 -2.639e-42 4.9442e-41 2.1626e-41

nested_model.unit2.conv.bias f4 [12]
000000 db 8a 00 00 ca 6e 9a 36 b8 2d f0 37 99 7b b9 36
       4.9812e-41 4.602455e-06 2.8631519e-05 5.5278183e-06
000010 87 07 12 38 a6 30 a0 b6 14 79 1b 37 eb 95 e3 36
       3.4816123e-05 -4.774035e-06 9.266911e-06 6.78258e-06
000020 cc 94 9b b7 a4 dc d6 37 a1 de 73 37 6e 3f a3 37
       -1.8546729e-05 2.5613532e-05 1.45357635e-05 1.9460651e-05

nested_model.unit2.bn.weight f4 [12]
000000 44 02 b4 39 07 3d c1 3e 7b 1f 78 3e 9a b8 49 3f
       0.00034333963 0.37741873 0.24230759 0.78797305
000010 34 a0 e7 3e 45 3b a4 3e ad 6d fd 3e e6 4d 92 3e
       0.45239413 0.3207647 0.49497738 0.28575057
000020 69 87 0a 3f a7 6e 77 3e 94 5c 98 3e 85 03 33 3f
       0.5411287 0.24163304 0.29758132 0.69927245

nested_model.unit2.bn.bias f4 [12]
000000 e8 5c cc b8 a2 2f 55 be e3 a7 16 be e5 c0 2e be
       -9.744783e-05 -0.20818952 -0.14712481 -0.17065771
000010 15 4b 15 be e6 2f 3a be 78 f6 e6 bd f9 76 eb bd
       -0.14579423 -0.18182334 -0.11277479 -0.114973016
000020 de 88 74 be a4 68 81 bd c7 66 57 be f9 a9 7c be
       -0.23880336 -0.06318787 -0.210353 -0.24674214

nested_model.unit2.bn.running_mean f4 [12]
000000 9e 54 1b 00 30 e4 dc 3e 34 74 d0 bd 15 af 8c bf
       2.509913e-39 0.43142843 -0.10178414 -1.0990931
000010 c5 27 a3 bf 6b 1f 96 bf e0 94 2e bf 4b 03 09 bf
       -1.2746512 -1.1728338 -0.68195915 -0.5352065
000020 83 f9 2a bf e3 33 c1 bf 6d 01 88 3f 60 86 27 bf
       -0.66786975 -1.509396 1.0625435 -0.65439415

nested_model.unit2.bn.running_var f4 [12]
000000 04 00 00 00 ff 45 96 3f 78 20 64 3f 47 2d 1e 40
       6e-45 1.1740111 0.89112043 2.4715135
000010 e9 76 07 40 30 a4 98 3f 01 07 c1 3f c6 3d 9e 3f
       2.1166327 1.1925106 1.5080262 1.2362602
000020 09 11 9d 3f dc ea a4 3f d0 48 b1 3f a0 23 2f 40
       1.2270824 1.2884173 1.3850346 2.7365494

nested_model.unit3.conv.weight f4 [12, 12, 5, 5]
000000 33 3b 00 00 30 7c 00 00 38 b0 00 80 60 16 00 80
       2.1237e-41 4.455e-41 -6.3215e-41 -8.027e-42
000010 4b 6b 00 00 19 94 00 80 7b 97 00 80 19 14 00 80
       3.849e-41 -5.3127e-41 -5.4341e-41 -7.21e-42
000020 4a 2d 00 80 31 ae 00 00 73 7d 00 80 01 65 00 80
       -1.6247e-41 6.2488e-41 -4.5003e-41 -3.6233e-41
000030 dc 26 00 80 42 0f 00 80 81 2a 00 80 41 7d 00 80
       -1.394e-41 -5.473e-42 -1.5248e-41 -4.4933e-41
000040 66 3b 00 80 a0 a6 00 00 e8 3e 00 00 fe 80 00 80
       -2.1308e-41 5.9774e-41 2.2567e-41 -4.6274e-41
000050 f8 10 00 00 e0 90 00 80 17 09 00 00 23 67 00 00
       6.087e-42 -5.1971e-41 3.261e-42 3.6998e-41
000060 6f 61 00 00 c4 85 4f 3d 5a c3 7e 3d 8d ee 12 3d
       3.4953e-41 0.05066468 0.06219802 0.03587203
000070 8e 17 aa bc ef e7 cd 3d b1 60 0f 3c d5 17 d5 3d
       -0.020763185 0.100540034 0.00875108 0.10404936
000080 84 37 77 bb 10 b5 3f 3d 8d c4 44 3d 42 54 67 bc
       -0.00377223 0.046803534 0.048039008 -0.01411921
000090 81 01 7b 3c c7 b9 00 be d4 09 25 be 32 f2 3b 3c
       0.015320183 -0.12570868 -0.1611703 0.011471318
0000a0 96 14 96 3b 34 8f a1 bd 8d 80 02 be db 3b 0a be
       0.0045800908 -0.07888642 -0.1274435 -0.13499396
0000b0 0d bf a3 bc 80 1d 22 3e 4b 91 59 3d 44 68 fe bd
       -0.019988561 0.15831566 0.053117078 -0.12422231
0000c0 25 dd 43 bd 25 5d 4a 3b 21 8f ab bc 05 a3 32 3d
       -0.04781832 0.0030878272 -0.020942273 0.0436125
0000d0 7b a8 64 3b 56 87 7d bd e6 2d 8f ba b7 b5 a5 bd
       0.0034890461 -0.061896645 -0.0010923713 -0.080913
0000e0 4d f8 a8 bd ec de 38 be 55 d1 05 be e7 4a fb ba
       -0.082504846 -0.18053788 -0.13068135 -0.0019172103
0000f0 9c 3a e1 bd 8f 6b 03 be 57 49 0a be 98 aa 88 bd
       -0.10997507 -0.12833999 -0.1350454 -0.06673163
000100 8a bb 0d be 11 f4 2a be 07 89 08 be 85 44 ed bd
       -0.13841072 -0.16694666 -0.13333522 -0.11585335
000110 f2 69 52 bd c1 c7 11 be ae a2 20 be e9 35 c4 bd
       -0.05137057 -0.14236356 -0.15687057 -0.09580595
000120 6f 29 ad bd 3b 5b 02 be 28 16 f1 bd b4 9d 78 bd
       -0.084551685 -0.12730114 -0.11771804 -0.060697272
000130 2a 87 1b bc 31 f3 4f be 92 0c 40 be 69 57 a4 bd
       -0.009492675 -0.20307614 -0.18754795 -0.08024485
000140 46 8a 4a 3d 37 79 41 3c 65 90 bf bd 3b bc ee bd
       0.049448274 0.011808685 -0.09353713 -0.11656996
000150 3c fb 03 3b a2 fd 85 3d 5e e8 01 3d 27 ba a8 bd
       0.002013876 0.06542517 0.031715743 -0.08238631
000160 eb 05 2e 3c 68 d0 21 3d 9d 66 76 bc 2c e5 06 3d
       0.010621528 0.039505392 -0.015039113 0.0329334
000170 9e 06 19 bb bb 07 ca bc b3 7c 3c 3d 23 75 ce 3b
       -0.0023349891 -0.02466189 0.04601736 0.006300585
000180 71 21 71 3d fa 5f 14 bd 31 43 2f 3d af e5 a1 3d
       0.058869783 -0.036224343 0.042788688 0.07905137
000190 ac 18 1a bd 96 6e 45 3d 34 1f 78 3d 57 0e b1 bc
       -0.037621185 0.048201166 0.060576633 -0.021613283
0001a0 38 d7 00 3e 6c 50 80 bd 71 3d 7a 3d b8 f7 05 3c
       0.125821 -0.06265339 0.06109375 0.0081767365
0001b0 20 e1 a4 bd eb 4b cb 3c 04 27 01 3e 11 d9 38 3e
       -0.08050752 0.024816474 0.1261254 0.18051554
0001c0 13 c5 36 3e 61 f1 8b 3d 63 31 6a 3d 08 9a dc 3d
       0.17848615 0.06833149 0.057176005 0.10771567
0001d0 92 7d a4 3d 84 5c ae 3d 73 7b d0 3d 78 40 a3 bc
       0.08031763 0.0851374 0.10179796 -0.019928202
0001e0 22 0a ec 3d 3a 14 fe 3d 62 0a a8 3d f7 b7 9b 3d
       0.1152537 0.12406202 0.08205105 0.07603448
0001f0 c8 59 ef bd e3 bb 1b be 50 5b e1 bd 4b 0c 7d bd
       -0.11687046 -0.15208392 -0.110037446 -0.0617793
000200 4e 38 98 3b 2f d0 ed 3b 9e f8 58 be de a4 e6 bd
       0.004645384 0.0072574834 -0.2118859 -0.11261915
000210 3c 2d 75 bd 11 08 2e bd e3 a5 85 3c a9 f4 92 be
       -0.059857592 -0.04248816 0.016314453 -0.28702286
000220 c9 5c 90 be da f7 80 bd 03 d4 d1 bd c7 47 97 3d
       -0.2819579 -0.06297274 -0.10245516 0.07386737
000230 6e 66 ad bd ef 6c bd bc 03 92 77 bd c1 9e 96 3c
       -0.084668025 -0.023123233 -0.060441982 0.018386247
000240 d3 ea 1f bd 54 ae e2 3b 62 4f 01 3e 35 78 b7 3d
       -0.039042305 0.006917754 0.12627938 0.089584745
000250 00 f8 8d 3d ce fd 12 3d c9 71 d7 3d a9 10 54 3e
       0.06932068 0.03588658 0.1051975 0.2070948
000260 8f 8a e7 3d 82 cb 3c bc 07 3e 8b bd b6 f9 00 3e
       0.11305725 -0.011523129 -0.0679894 0.12595257
000270 e1 13 0f 3d e2 d2 1a bd ab 92 4e be 55 a2 48 be
       0.034931067 -0.03779877 -0.20173137 -0.19593175
000280 1b 86 15 be 1c 12 9a bd b1 cb e8 3a 4b 56 bc bd
       -0.14601938 -0.07522985 0.00177609 -0.091961466
000290 87 6b 24 bd ea f1 30 bc fc 89 03 3e f1 e0 1c 3d
       -0.04014161 -0.010799864 0.12845606 0.03830046
0002a0 ab 9d 9c 3d 95 f1 ff bc ae 8b 36 bc 7e cc bf 3d
       0.0764726 -0.031243125 -0.011141701 0.09365176
0002b0 15 08 38 3d d9 e5 82 3d 1d 34 ee bd 20 6f 3b bd
       0.044929583 0.06391496 -0.116310336 -0.045760274
0002c0 c9 fc e4 3c f2 b4 0c 3b b6 9d 59 be 81 83 7f be
       0.027952569 0.0021470156 -0.21251568 -0.24952509
0002d0 98 ef 57 3d b2 65 f9 bc 09 a9 50 be a7 bb a0 be
       0.05271873 -0.030444 -0.20376982 -0.31393167
0002e0 ae 3c 6e be f9 45 df 3d e3 c3 67 bd 2e ff 9f be
       -0.23265335 0.10902018 -0.056583297 -0.31249374
0002f0 84 c7 af be 2a 84 16 be 84 e3 8e 3d 05 d3 e3 bc
       -0.34331906 -0.14698854 0.06976989 -0.027810583
000300 a3 fa 87 be d7 12 10 be 43 f1 05 be 8f 37 00 3e
       -0.26558408 -0.14069687 -0.13080315 0.12521194
000310 ca 5e 0b 3e 2a 1c 77 3d 7a 36 7a 3d aa aa 98 3d
       0.13610378 0.060329594 0.06108711 0.074544266
000320 55 00 b3 3d 8e 01 cc 3d e0 e3 e5 3d 32 3a 09 3e
       0.08740298 0.09961234 0.11225104 0.13401106
000330 c9 9e e7 3c 7a 6f 13 3e fd be 7d 3b 71 ce 53 3d
       0.028273957 0.14397994 0.0038718574 0.05171055
000340 f4 06 4f bd 91 b4 86 bc 02 ba be bd 23 64 4e be
       -0.05054374 -0.016443523 -0.09312822 -0.20155387
000350 f9 89 4d be 1e 00 10 be 24 59 36 be 1c 49 04 be
       -0.20072164 -0.14062545 -0.17807442 -0.12918514
000360 31 fa 97 bc b3 77 cd bd 6c a6 31 be 45 94 23 be
       -0.018551918 -0.100325964 -0.17348641 -0.15974529
000370 fc 8a 56 3c f6 68 65 bc f6 53 47 bd a5 ed d6 bd
       0.01309466 -0.014002075 -0.048664056 -0.10494546
000380 c2 90 da bd c5 95 72 3d 1a da 3a 3d fe d7 52 3d
       -0.106721416 0.059224863 0.045618154 0.051475517
000390 ac 0e ee 3c 11 25 a9 3d 6d e2 92 3d 2c 30 f5 bc
       0.02905973 0.08259023 0.071720935 -0.029930197
0003a0 6f 67 bb bd 90 f1 8c bd 9f ef b0 bd f9 60 ee bd
       -0.09150588 -0.06882012 -0.08639454 -0.1163959
0003b0 c8 ac 88 be 39 5d 4a be 4b af 14 be 2c 55 e3 bd
       -0.26694322 -0.19762124 -0.14519994 -0.111002296
0003c0 ae 5f f5 bc bf 39 0f be b2 0e a9 bd 68 92 ac bd
       -0.02995285 -0.13986872 -0.08254756 -0.08426362
0003d0 62 c4 68 bd 1f 50 b0 3d 64 7e aa bd 56 19 10 be
       -0.05682791 0.08609032 -0.08324888 -0.14072165
0003e0 cf 16 6f bb af b4 b6 bc 8a cb f8 bc 82 78 94 3d
       -0.00364821 -0.022302954 -0.030370492 0.072495475
0003f0 95 d9 d4 3d fa 18 96 3d 89 07 3c bc 80 13 39 bc
       0.10393063 0.07328983 -0.011476406 -0.011296153

nested_model.unit3.conv.bias f4 [12]
000000 65 7e 46 36 87 c8 97 37 ec 3d ee b6 22 95 84 b7
       2.957787e-06 1.809398e-05 -7.1001614e-06 -1.5805072e-05
000010 49 6b e4 b7 9e 83 35 b8 27 b6 e4 36 6a 08 f1 37
       -2.7229677e-05 -4.327634e-05 6.816135e-06 2.8733357e-05
000020 e8 98 be 35 85 5e 2d 37 05 96 8e b7 c4 06 41 37
       1.4200605e-06 1.0333611e-05 -1.6997577e-05 1.1505272e-05

nested_model.unit3.bn.weight f4 [12]
000000 6d 6b 47 3f 4e 60 e9 3e 66 ca e2 3e 22 94 56 3f
       0.77898294 0.45581287 0.44295043 0.8381978
000010 21 c7 a7 3e aa 87 47 3f dc 12 b6 3e cd 0d bc 3e
       0.3276911 0.7794138 0.35561264 0.3672928
000020 30 50 42 3f 4a ea 3f 3f d9 d2 d4 3e b5 0e 1d 3f
       0.75903606 0.7496687 0.41567114 0.61350566

nested_model.unit3.bn.bias f4 [12]
000000 be 53 a6 be ee 7e 61 bd 59 b0 a8 be 08 23 d0 bd
       -0.32485765 -0.05505269 -0.32947043 -0.10162932
000010 14 cc 23 bd 09 17 64 be 5c 73 49 bd 5b 5b 44 be
       -0.039989546 -0.22274412 -0.04918228 -0.19175474
000020 92 48 4d be 3d f7 ce bd ae b3 45 be 2b 87 c3 bd
       -0.20047215 -0.10105751 -0.19306824 -0.095472656

nested_model.unit3.bn.running_mean f4 [12]
000000 1c 26 51 bf ae 0f 48 bf 35 d7 ba 3d b2 96 4d bf
       -0.81698775 -0.78148925 0.09123079 -0.8030807
000010 25 ac 7e 3d b8 61 4d be 9e c6 dd be 5a af 33 bf
       0.06217589 -0.20056808 -0.43315595 -0.7018944
000020 d9 c0 c3 3b 8b 3d d7 3c 34 6d 84 be 9d 50 8a bf
       0.005973917 0.026274463 -0.25864565 -1.0805851

nested_model.unit3.bn.running_var f4 [12]
000000 f2 e9 08 3f 5f ba e7 3e 2b 00 a5 3e 02 72 06 3f
       0.5348197 0.45259377 0.3222669 0.5251771
000010 80 8f 02 3f 04 1a e1 3e ea f9 f3 3e aa 9f 31 3f
       0.51000214 0.4396516 0.47651607 0.69384253
000020 fa 49 c8 3e f3 fc d6 3e 62 2e d7 3e 60 d3 22 3f
       0.3911894 0.4198986 0.42027575 0.6360378

nested_model.unit4.conv.weight f4 [12, 12, 5, 5]
000000 a7 f1 c3 bb 9a 6e 21 bd e0 a2 69 3c 6e 66 e8 3c
       -0.005979735 -0.03941212 0.014260024 0.028369155
000010 9d f3 48 3c 78 6a 44 bc 51 f5 b5 bd d5 95 14 bd
       0.012265113 -0.011988275 -0.08884681 -0.036275703
000020 1d ec 4e 3c 0a 76 23 bc 7f de 53 3d 2b e0 6c bc
       0.012629536 -0.009976873 0.05172586 -0.014457743
000030 12 4c 9a bc f6 36 fc 3b 46 39 e6 bc a9 ee 72 3d
       -0.018835101 0.0076969815 -0.028103482 0.059309635
000040 f9 f3 c1 3d 0b 18 a9 3d d4 a9 74 bb 76 37 ed 3c
       0.09470362 0.08256539 -0.003733267 0.02895711
000050 5a 13 0d 3c c0 0b e9 3d 41 82 23 3e 33 3c a5 3d
       0.008610571 0.11379194 0.15967657 0.08068123
000060 57 2b b6 3d c5 27 3d bd 8a 56 83 3d d4 30 07 3e
       0.08894985 -0.046180505 0.064129904 0.1320222
000070 56 e9 15 3e 7c b7 d6 3d 65 99 e6 bd 4f 5d 0e bd
       0.14639792 0.104842156 -0.112597264 -0.034756955
000080 09 69 83 3d 76 3b 3f 3e ca 0c 10 3e 75 e2 02 be
       0.06416518 0.18675026 0.14067379 -0.12781699
000090 82 0d ac bd 71 c5 22 3d b2 36 c7 3d c2 38 37 3e
       -0.08401014 0.039739076 0.09727229 0.17892745
0000a0 c0 67 44 be 1c 97 cf bd d7 95 b6 bd 3a c5 b4 3d
       -0.19180202 -0.10136244 -0.089152984 0.088266805
0000b0 00 26 36 3e 7a 3c 4c be 66 71 61 be 9c ae 04 be
       0.17787933 -0.19944945 -0.22015914 -0.12957233
0000c0 a4 78 e5 bd d8 39 05 bd 07 43 18 3e 4b ee a6 3d
       -0.11204651 -0.032525867 0.14869319 0.081509195
0000d0 a2 fa 12 3e cd f7 1f 3e f3 16 66 3d 98 b2 69 3e
       0.14353421 0.15621872 0.05617423 0.22822034
0000e0 4b 7d 17 3e 2e d4 c9 3d f5 84 06 3d df 1e 07 3d
       0.14793889 0.09854923 0.03284164 0.032988425
0000f0 b0 0f 6c 3e ee 53 45 3e 1f 56 f6 3d c6 74 1f bc
       0.2305286 0.19270298 0.12028145 -0.009732431
000100 3a ad a8 3c 89 d9 fe 3d 66 2e f4 3d 2b d0 da 3d
       0.020590413 0.12443835 0.11922912 0.10684236
000110 39 2b 62 bc 7f b8 04 be e4 db 3b bc e0 ac 80 3d
       -0.01380425 -0.12961005 -0.011466 0.06282973
000120 e9 a5 d0 3d 91 ac e1 3d be 06 96 bd ae 82 34 bd
       0.10187895 0.110192426 -0.07325505 -0.04406994
000130 d0 6c e6 bd 90 3d b5 bc 2b f8 42 3c 19 3f 29 bd
       -0.11251223 -0.022124082 0.011899988 -0.04131994
000140 cb 28 12 3e 87 ad 8f bd fb 65 91 bd 7d 18 a1 bc
       0.14273374 -0.070155196 -0.07099529 -0.019664997
000150 da f7 bd bd 1e 61 45 3e c8 6c 1f 3e a0 6f 91 3d
       -0.092757896 0.19275329 0.1556884 0.07101369
000160 a8 58 35 3d 75 55 bb 3a 1d 0b f1 3c 6d 35 9e 3c
       0.044274002 0.0014292436 0.029424245 0.019312585
000170 4c c1 07 3e 07 e0 1b 3d 9c 70 8b bc a9 b3 15 be
       0.1325733 0.038055446 -0.01702147 -0.14619316
000180 65 b4 02 be 35 ae 63 bd 85 cc a9 bd d3 a6 19 bd
       -0.12764128 -0.05558606 -0.08290962 -0.03751261
000190 db f7 8c bd f9 35 d7 3c 6e 3c 32 3d 32 29 83 3d
       -0.06883212 0.026270853 0.04351466 0.06404342
0001a0 16 c3 96 3d 55 5e 61 bd a3 45 59 bc 69 b4 77 3c
       0.073614284 -0.055021603 -0.013261232 0.015118697
0001b0 00 ed 6b 3c 1f 11 77 3b cf 09 98 bd 60 0f 1a bd
       0.014399767 0.0037699414 -0.07423746 -0.03761232
0001c0 cd a1 a5 3c 7d 08 2e 3d 64 e1 75 3b 99 16 f5 bd
       0.020218754 0.042488564 0.0037518376 -0.11967201
0001d0 3b 81 bc bc 75 89 2f bc d1 06 1c 3c 61 ec c1 3c
       -0.02301084 -0.010713925 0.0095231095 0.023672285
0001e0 c0 22 d2 bd d1 d6 b5 bd cb 83 58 bd eb b0 25 bd
       -0.10260534 -0.088788636 -0.052860063 -0.040451925
0001f0 0c fb 90 bd 07 b5 eb 3c 07 5b 08 3d e1 23 93 3a
       -0.070791334 0.028772844 0.033289935 0.0011225903
000200 68 24 79 3c aa 88 37 bc 6a 25 9f 3d c6 27 6a 3d
       0.015206434 -0.011202017 0.07770808 0.057166837
000210 9f b0 6e bc ed 8a 57 bd de d9 72 bc 97 b3 20 bd
       -0.014568477 -0.052622724 -0.014822451 -0.03923377
000220 8b 1f 5b bb 4b db a8 bc ec 21 be bd 0d bd a1 bd
       -0.003343555 -0.02061238 -0.09283814 -0.07897387
000230 7a a4 ca bd 8d 94 18 bd f2 53 42 3d ff b1 c4 3d
       -0.09894653 -0.037251044 0.047443338 0.096042626
000240 8d 0f 57 3d c4 87 7f bd 7d e3 49 bb 8b 46 17 3d
       0.052505065 -0.062385336 -0.003080576 0.03693251
000250 9b ef 9a 3d ac f2 47 bd 1c c0 26 3e 9c 1c 04 3e
       0.07565232 -0.048815414 0.16284221 0.12901539
000260 d4 0c fb 3d f8 4d 11 3e 74 bb 69 3e 3f b0 a6 3d
       0.12258306 0.14189899 0.22825414 0.08139085
000270 64 b4 ed 3c cd 3c c7 bc 27 df 05 bb f5 6e 32 3d
       0.029016681 -0.024320984 -0.0020427199 0.043562848
000280 89 ed 2c 3d 2e 3f 9e bc 4c 0c 98 bd 3c b1 98 bd
       0.04221872 -0.019317236 -0.074242204 -0.0745568
000290 43 81 f7 bb a2 06 f5 bc 2c 9a 96 bd fe e5 11 bd
       -0.007553251 -0.02991039 -0.07353625 -0.03561973
0002a0 9c 23 c4 bd e2 4d 88 bc f5 b6 d6 bc a4 fc b9 3c
       -0.095771044 -0.0166387 -0.026210288 0.022703476
0002b0 cd 93 08 3d 7e f6 ea bb 11 48 c5 3c a1 c5 dc 3c
       0.03334408 -0.0071704974 0.024082216 0.026949706
0002c0 7f 8d 3b 3d 58 1f 34 3d ca 1b 8d 3d dd 50 bb 3d
       0.045789238 0.043975204 0.06890066 0.09146283
0002d0 39 2f 1c 3e f4 2b 23 3e cd 41 39 3e 43 e1 3d 3e
       0.15252389 0.15934736 0.18091507 0.18542962
0002e0 ec 30 7e 3e e0 8b 93 3e e1 2b a4 3e 0b 2f a9 3e
       0.2482335 0.28817654 0.32064727 0.33043703
0002f0 0a 11 9b 3e b1 05 a0 3e 27 ac 8a 3e 87 2c 90 3e
       0.30286437 0.31254342 0.27084467 0.28158972
000300 9c 5a 6d 3e 9a 87 48 3e 95 25 ce 3d 1b 6b 96 3e
       0.23179096 0.19582978 0.10065762 0.2937859
000310 ab c4 79 3e 47 7c 1e 3e 87 5c dc 3c 59 33 6f bd
       0.24391429 0.15477096 0.02689959 -0.05839858
000320 46 c1 a9 bd c6 eb 14 bd 7c 82 c5 3d 82 14 1a 3e
       -0.08288817 -0.036357664 0.096440285 0.15046886
000330 5d 4c ac 3d 81 7f c0 bd 7a a6 1b bd aa 13 df 3c
       0.08413003 -0.093993194 -0.03800056 0.027231056
000340 f2 7b 05 3d b6 b4 fb 3d a3 5f 55 bd 4b d4 14 bd
       0.032588907 0.12290327 -0.05209316 -0.03633527
000350 3c c2 a3 bd b5 e7 b6 bd 0a da 81 3a b2 c7 8d 3d
       -0.07996032 -0.08930913 0.00099069 0.069228545
000360 1e a2 08 3d 68 51 85 bd 5b e1 4c bd 21 e9 67 bd
       0.033357732 -0.06509668 -0.050019603 -0.056618813
000370 fc df 1f 3e 26 1a 04 3e 5a 37 72 3d e3 aa c2 bc
       0.15612787 0.129006 0.05913482 -0.023763126
000380 1c 95 ed bc 6d de e6 bd d5 8b 02 be b5 9e a2 bd
       -0.029001765 -0.11272893 -0.12748654 -0.07940427
000390 2b 8e 9b bd 34 7c a3 bc b6 02 96 bd 07 6c 1a bd
       -0.07595476 -0.019956686 -0.07324736 -0.03770068
0003a0 a2 2c b5 bd 11 29 d8 bd 4c a5 d1 bd 13 fe be bd
       -0.08846404 -0.10554708 -0.10236606 -0.093258046
0003b0 b2 91 cb bd 39 a2 ca bd a1 ca 9d bd dd 0d 33 be
       -0.099398986 -0.09894223 -0.07704664 -0.17485757
0003c0 39 1c 49 bd 8a 73 a3 3b 31 58 ce 3a 1c cb 86 bd
       -0.04909918 0.0049881386 0.0015742836 -0.06581709
0003d0 52 b1 87 bd 7a 66 66 3c 41 89 d1 bc c6 05 99 3c
       -0.06625618 0.014062518 -0.025578143 0.01867951
0003e0 bf 4d 1d 3d d9 4d cb 3c 0e a5 be 3d ef cc 65 3d
       0.038404223 0.024817394 0.093088254 0.056103643
0003f0 e9 97 92 3d 41 fb 89 3d e7 e9 36 3d b3 cb 2b 3e
       0.07157881 0.06737376 0.04465666 0.16776924

nested_model.unit4.conv.bias f4 [12]
000000 56 e6 45 b6 e4 de 46 36 e8 b2 fc 36 0c 62 9b b6
       -2.948936e-06 2.9634039e-06 7.5310127e-06 -4.630774e-06
000010 fd 43 13 b6 83 d2 83 b7 c9 57 62 37 d2 77 9e b6
       -2.1944281e-06 -1.5714444e-05 1.3491089e-05 -4.722716e-06
000020 e8 67 36 37 e8 3b 91 b7 1a 84 08 b8 69 61 cd 34
       1.0872238e-05 -1.7313243e-05 -3.2547956e-05 3.82551e-07

nested_model.unit4.bn.weight f4 [12]
000000 1b cc c6 3e 7c 00 70 3f 87 f0 f4 3e 96 3c 28 3f
       0.38827595 0.9375074 0.47839758 0.65717447
000010 a3 08 ac 3e 42 bf 02 3f 63 40 58 3f 53 43 11 3f
       0.3360034 0.51073086 0.84473246 0.56743354
000020 ec 5e 1c 3f 6c 09 29 3f 73 28 53 3f f1 55 52 3f
       0.6108234 0.6603 0.82483596 0.82162386

nested_model.unit4.bn.bias f4 [12]
000000 cc ff 44 be b6 62 a7 be 81 a1 0a be 4d 4b 05 be
       -0.19238204 -0.32692498 -0.13538171 -0.13017006
000010 d2 c0 44 bd 5f 85 00 be cf 7a c0 bd fe 4b 10 be
       -0.04803545 -0.12550877 -0.09398424 -0.14091489
000020 88 20 2e be e4 e9 09 bd 83 94 1d be 6c e4 0d be
       -0.17004597 -0.03367032 -0.15388684 -0.13856667

nested_model.unit4.bn.running_mean f4 [12]
000000 12 0b 37 3e 2d 4f e9 be 7d e3 90 bf a1 07 b9 bc
       0.17875317 -0.4556822 -1.1319424 -0.022586646
000010 4a 73 dc bd c9 38 a5 bd 48 02 ba bf 3e 73 36 bc
       -0.10764177 -0.080674715 -1.4531946 -0.011135874
000020 e9 23 3b be 6f be e3 be 5e f0 38 bf dc 95 e1 be
       -0.18275417 -0.44481227 -0.7224177 -0.44059646

nested_model.unit4.bn.running_var f4 [12]
000000 36 49 bd 3e 25 15 da 3e 24 32 e8 3e 29 2a e9 3e
       0.36969918 0.42594257 0.45350754 0.45539978
000010 61 7d 00 3f a5 7a d0 3e 6d 4b 0a 3f e9 d1 eb 3e
       0.50191313 0.4071857 0.5402134 0.46058586
000020 7a 71 c5 3e a5 2b 0b 3f c2 63 02 3f e6 59 b9 3e
       0.38563138 0.5436347 0.5093347 0.362014

nested_model.net.0.conv.weight f4 [12, 3, 5, 5]
000000 98 06 1d 3e ed 7d 2c 3e db 9f a1 3d b6 17 1c 3e
       0.15334547 0.16844912 0.07891818 0.1524342
000010 e6 29 b2 bd ca 62 de 3d 5a 41 49 be ba fa 0c 3d
       -0.08699398 0.10858686 -0.19653836 0.0344188
000020 53 89 5d 3e b6 e3 2f bd 26 36 0f 3e cf 82 49 3d
       0.21634416 -0.04294177 0.139855 0.049197014
000030 63 3b 06 be 83 00 04 be c0 25 5d be b9 2e 48 bd
       -0.13108592 -0.1289082 -0.21596432 -0.048872683
000040 eb b7 24 3e 9f 47 83 be c9 3d 9d bd 75 54 70 3d
       0.16085784 -0.2564058 -0.076778 0.058674295
000050 4f ec 26 bd 35 a9 b0 bb d4 a6 f2 bb 06 85 74 bd
       -0.040752705 -0.005391265 -0.0074051414 -0.059697174
000060 e3 84 1f bd 45 99 0f be 01 5d 8e 3d c6 e8 e5 bd
       -0.03894509 -0.14023311 0.06951333 -0.11226039
000070 c6 b1 21 3e 87 dd bd 3d e8 96 5f 3b e2 29 a0 be
       0.15790471 0.092707686 0.0034117047 -0.31281954
000080 4b 5c 12 3e 82 1f 45 3e ef ad 00 bd 8c c3 c7 3d
       0.1429302 0.192503 -0.031415876 0.097540945
000090 c2 9a dc 3d 63 f3 b7 3c d6 9f 4f 3c 26 85 4c ba
       0.10771705 0.022454923 0.012672385 -0.0007801823
0000a0 c9 bb 26 be be 3f 99 3d 9d 91 0c be c6 69 ae 3d
       -0.16282572 0.07482861 -0.13727422 0.085162684
0000b0 87 6e 9d 3d de 5d 74 bd bc a5 96 bd d8 bf 33 3d
       0.07687097 -0.05965983 -0.0735583 0.04388413
0000c0 46 e0 8f 3c 70 b5 cd bd 3b 3b df bd 2c c5 ca bd
       0.017562997 -0.10044372 -0.10899969 -0.09900889
0000d0 66 8b b9 bd 10 f6 9d bd 4f 01 e8 bd 09 a1 3d 3d
       -0.09059791 -0.07712948 -0.113283746 0.046296153
0000e0 76 79 b0 be 04 77 1c 3d 08 10 71 3e f6 02 74 3d
       -0.34467667 0.03819944 0.23541272 0.059573136
0000f0 59 df 9c 3d 3e 63 f5 3c f4 a9 83 bd 50 4b eb 3d
       0.07659788 0.029954549 -0.064289 0.11488974
000100 cf 6a b5 bd fd 6a b6 bd a5 4f 77 3e a2 97 62 bd
       -0.08858263 -0.08907125 0.24151476 -0.05532039
000110 16 2a 37 3d 70 e7 77 3c 8d 68 fb 3d fb b7 79 bc
       0.04471787 0.015130863 0.12275801 -0.015241618
000120 16 10 e4 3b 5b cb 14 3e 12 c9 30 3d 5d 35 c9 3d
       0.0069599254 0.14530699 0.043160506 0.09824631
000130 bb 94 28 3e d9 b3 6f 3d 1e dc e1 3d aa f6 a1 3b
       0.16462986 0.058521125 0.11028312 0.0049427347
000140 13 44 ac bd de 79 40 3d 38 8d b8 3d c9 eb 1b be
       -0.084114216 0.04699122 0.0901131 -0.15226664
000150 11 ec 2f bd c2 80 7d bd 33 51 d5 3d 7d 45 8f bd
       -0.04294974 -0.06189037 0.10415878 -0.06995676
000160 42 e5 57 be 17 5c 16 be 43 4a 77 3d 7c 92 e9 3d
       -0.21083549 -0.14683567 0.060373556 0.11404893
000170 5f df d8 3b eb d3 49 3d 6b c2 6f 3b e2 bd 3b bd
       0.006618425 0.049274366 0.0036584388 -0.045835383
000180 b3 1f 1f 3e 3e 81 21 3e 5a 83 80 3d 66 06 46 3d
       0.15539436 0.15771958 0.06275053 0.048345946
000190 1f b8 94 3c b0 65 c7 3d 16 0e 29 bd ad 94 84 be
       0.018154202 0.09736192 -0.0412732 -0.2589468
0001a0 2a 44 61 be 73 39 4c 3d 2f 29 cd 3c bc 14 cf bd
       -0.21998659 0.049859475 0.025044052 -0.10111377
0001b0 14 a6 89 bd 54 6f f9 bd 65 a9 f7 bc 10 0d 20 3e
       -0.0672113 -0.12179437 -0.03023214 0.15629983
0001c0 37 60 a5 3d 94 80 86 be 26 00 0b be c8 47 03 3d
       0.08074992 -0.26269972 -0.13574275 0.032050878
0001d0 d8 03 19 3d 7f 68 a3 bb b5 9c 54 be 28 62 20 be
       0.03735718 -0.004986822 -0.20762904 -0.15662444
0001e0 d3 cb aa 3b 0d 57 bb 3c e2 78 b7 bd ed e8 44 bd
       0.005212286 0.022868657 -0.089586034 -0.048073698
0001f0 bf c1 9c bc e4 ff be bc bd ac ef 3d 1e 4a d2 bd
       -0.019135354 -0.023315378 0.11702869 -0.10268043
000200 db 98 20 be d6 7e d2 bd f8 ab be 3d 44 44 ef 3d
       -0.1568331 -0.10278098 0.09310144 0.116829425
000210 11 e6 9a 3d 13 b7 c8 bd 75 c0 d6 3d 54 0c 46 3d
       0.07563413 -0.09800544 0.10485927 0.0483516
000220 c0 da da 3d 27 83 ae 3d fb e8 11 be d9 fa 94 bd
       0.106862545 0.08521109 -0.14249031 -0.07274408
000230 31 6b a4 bd 6d c4 2d 3e 25 44 0e 3e de 5a ac bd
       -0.08028258 0.16969462 0.13893183 -0.08415769
000240 f9 f1 53 bc 2c 1e 00 3e c8 48 57 3d ea 0e 08 3d
       -0.012936109 0.1251151 0.052559644 0.03321735
000250 45 aa 0d 3d 9b 20 86 bd 31 6a 9c 3c eb 45 12 3e
       0.03458621 -0.06549188 0.019093605 0.14284484
000260 f7 f4 33 3e 86 cf 4f 3d 7b 52 10 3e 54 03 0a 3d
       0.17573915 0.05073502 0.14093964 0.03369458
000270 23 81 05 3e 3e 26 fd 3d dc 65 3c 3d 0f 13 df 3c
       0.13037543 0.1236081 0.04599558 0.027230768
000280 e7 4a 1d 3e 1e d0 72 bd ae c9 77 be 12 fd 6b 3d
       0.15360604 -0.059280507 -0.24198028 0.057614394
000290 d9 d0 48 3d cd 21 0b 3d 32 ef 6c bc 65 ed 3c be
       0.049027298 0.03396778 -0.0144613255 -0.18449934
0002a0 f0 2f 40 be 04 33 1b be 15 8d 8e 3d e1 fa 54 bd
       -0.18768287 -0.1515618 0.06960503 -0.05199707
0002b0 a7 cf 88 bc 90 e2 5f 3c 88 d1 b4 bd 89 6b 81 bd
       -0.016700579 0.013664857 -0.088290274 -0.06319339
0002c0 de 60 11 3e 54 16 1b 3d 5e 88 42 bd e0 ed ca bc
       0.14197108 0.03786309 -0.04749333 -0.02477163
0002d0 bd 90 ed 3d d1 fa 68 3d 74 36 06 3e 34 65 02 bd
       0.11599872 0.056879822 0.1310671 -0.031834796
0002e0 e4 a2 fc bd 53 53 5b 3e b6 b9 cd bc ee d8 a0 be
       -0.123357564 0.21418504 -0.025112968 -0.31415504
0002f0 11 b0 94 3c 17 c3 c5 bd 6f 04 01 bc c2 2c eb bd
       0.018150361 -0.09656351 -0.007874592 -0.11483146
000300 50 91 13 be e1 28 07 bd 6c 5c 3e 3b 13 1e c4 3c
       -0.14410901 -0.03299797 0.0029046787 0.023940122
000310 84 67 17 3c c5 c1 08 be 55 7c c8 3d e7 72 06 3d
       0.009240989 -0.13355167 0.097893395 0.032824423
000320 28 c2 7c bd 7a 3b 49 bd 15 78 83 be 3a c4 ec bd
       -0.0617086 -0.049128987 -0.25677553 -0.11560865
000330 54 8b 91 bd 3a d5 24 bd 78 82 89 bd 5c 2b 00 3d
       -0.07106653 -0.04024241 -0.06714338 0.03129135
000340 ce d6 a3 bd 15 b9 2f bb c2 97 19 3e aa 98 7f 3d
       -0.07999955 -0.0026813198 0.14999297 0.06240145
000350 8c 83 b7 bd 60 c8 3d 3e 86 a1 b4 3c 62 60 8c bd
       -0.089606375 0.18533468 0.022049677 -0.06854321
000360 0c 40 6f bc 90 8b 93 3c e4 e7 4c 3d 37 1e a5 3d
       -0.014602672 0.018010885 0.050025836 0.08062404
000370 54 e9 2e bc 41 0b 69 bd 6a 12 da 3d d1 71 f7 3d
       -0.010675747 -0.0568955 0.106480435 0.12082256
000380 7f a2 81 3d d8 c7 d8 bd fb 26 64 3d 10 32 20 be
       0.06329822 -0.10584992 0.055701237 -0.15644097
000390 20 1b 74 be 65 e6 29 be f2 d1 00 bd ab 5b a5 bc
       -0.23838472 -0.16591795 -0.03145022 -0.020185312
0003a0 fc 82 1e 3e 22 be aa 3d a9 51 8d 3b 4c 58 56 3b
       0.15479654 0.08337046 0.004312713 0.0032706438
0003b0 f3 2c e6 bd 72 c6 8b 3d 70 da bf 3d 73 50 ea 3b
       -0.11239042 0.0682496 0.093678355 0.0071507036
0003c0 f0 ef 01 be a0 90 66 bd 80 fe d3 bb 46 ab dc 3d
       -0.12689185 -0.05629027 -0.0064695477 0.10774855
0003d0 9d 33 b0 3d 2d 55 b6 3d 6d f0 f8 3d b3 61 6e 3d
       0.086035945 0.08902965 0.121552326 0.058198642
0003e0 11 ed a3 3c 20 e8 7b 3d 5d b2 c7 3d 7b 3b 13 3e
       0.020010503 0.06150067 0.09750817 0.14378159
0003f0 c5 32 d8 3d 75 6b 13 3d 37 e4 1d 3d a1 6e 94 bd
       0.105565585 0.03599115 0.03854772 -0.07247663

nested_model.net.0.conv.bias f4 [12]
000000 dc f8 48 b8 be 8d 12 36 75 1a 67 b6 10 9e 17 b8
       -4.7915484e-05 2.18382e-06 -3.4437082e-06 -3.6148413e-05
000010 e9 3b 65 b6 a0 6d 79 38 54 c6 f5 37 dd bf 94 b8
       -3.4158531e-06 5.9468322e-05 2.929863e-05 -7.092927e-05
000020 3b 4d f7 b6 3b f2 fd 36 70 40 9f 37 2a c1 9a b7
       -7.3701644e-06 7.568187e-06 1.8984283e-05 -1.844818e-05

nested_model.net.0.bn.weight f4 [12]
000000 24 34 84 3f 22 cb 15 3f 96 14 4c 3f 9d a9 1f 3f
       1.0328412 0.5851308 0.7971891 0.62368184
000010 7f 3e 2a 3f b6 10 67 3e 20 09 27 3f 91 37 56 3f
       0.6650161 0.22564968 0.652483 0.8367854
000020 35 22 26 3f a3 26 92 3e a6 00 c9 3e 61 5f 1c 3f
       0.64895946 0.28545102 0.39258307 0.61083037

nested_model.net.0.bn.bias f4 [12]
000000 ae 41 5c 3f 16 2e 4a be 46 64 8f 3e 3d 95 df 3d
       0.8603772 -0.19744143 0.2800619 0.10917137
000010 61 b0 9c bd 52 b7 ab 3d ae 7f bd 3d 92 a2 83 3e
       -0.07650829 0.08384575 0.092528686 0.2570997
000020 4b c0 56 3d 17 d2 06 be 05 09 49 bd dc 08 40 be
       0.05242948 -0.1316608 -0.049080867 -0.1875338

nested_model.net.0.bn.running_mean f4 [12]
000000 a4 32 3c 3d 5a 80 13 be 9c 1e 2f bd 34 1e 48 bd
       0.045946732 -0.14404431 -0.0427538 -0.04885693
000010 9a b8 12 3e 9f d6 f5 3e 9d c3 e0 bd ef 76 12 bc
       0.14328232 0.48015305 -0.1097481 -0.008939489
000020 30 a7 0c bd 32 80 e0 3e ef f9 ee bd 2a 41 88 bf
       -0.03433913 0.43847805 -0.11668765 -1.0644886

nested_model.net.0.bn.running_var f4 [12]
000000 f1 03 9e 3c f5 15 2d 3e 0f 90 0b 3d ba 0c 82 3d
       0.019288989 0.16902907 0.03407293 0.06350084
000010 5e 10 8d 3d 53 b0 76 3e 20 fa 2a 3d 96 1f 89 3d
       0.068878874 0.240907 0.041742444 0.06695478
000020 2b 7f 1a 3e fc 8e 3d 3e 02 5b 3c 3d 3f d1 fe 3e
       0.15087573 0.18511575 0.04598523 0.49769017

nested_model.net.1.conv.weight f4 [12, 12, 5, 5]
000000 84 a1 00 00 c3 54 00 00 f1 3b 00 80 a4 2d 00 80
       5.7941e-41 3.0407e-41 -2.1503e-41 -1.6373e-41
000010 15 64 00 80 ad 6d 00 00 50 82 00 00 81 2b 00 00
       -3.5903e-41 3.9344e-41 4.6747e-41 1.5606e-41
000020 50 62 00 80 a6 1b 00 80 f5 2c 00 80 33 b6 00 80
       -3.5268e-41 -9.918e-42 -1.6128e-41 -6.5361e-41
000030 54 1e 00 00 27 8a 00 00 07 a7 00 00 e7 42 00 00
       1.088e-41 4.956e-41 5.9918e-41 2.4e-41
000040 b3 4b 00 80 b9 61 00 80 fb a8 00 80 39 97 00 80
       -2.7156e-41 -3.5056e-41 -6.0619e-41 -5.4248e-41
000050 48 8f 00 00 78 27 00 00 85 ac 00 00 39 38 00 00
       5.14e-41 1.4159e-41 6.1888e-41 2.0169e-41
000060 3c b6 00 00 70 a2 00 80 64 0d 00 80 e5 8b 00 00
       6.5373e-41 -5.8272e-41 -4.804e-42 5.0185e-41
000070 98 78 00 00 11 44 00 80 11 0b 00 80 37 aa 00 00
       4.3261e-41 -2.4418e-41 -3.97e-42 6.1062e-41
000080 b3 b0 00 00 45 42 00 00 e6 7e 00 80 2d 08 00 00
       6.3388e-41 2.3773e-41 -4.5523e-41 2.933e-42
000090 ad 41 00 80 8a 4f 00 80 ff 10 00 00 4d 4d 00 80
       -2.356e-41 -2.8533e-41 6.097e-42 -2.773e-41
0000a0 95 08 00 00 20 19 00 80 6b ba 00 00 19 ae 00 00
       3.079e-42 -9.013e-42 6.6874e-41 6.2454e-41
0000b0 9f b5 00 00 a6 3d 00 00 b4 9e 00 80 ba 86 00 80
       6.5153e-41 2.2115e-41 -5.6932e-41 -4.8331e-41
0000c0 96 2f 00 00 d6 99 00 00 09 09 00 00 51 1a 00 00
       1.707e-41 5.5186e-41 3.241e-42 9.44e-42
0000d0 b5 9f 00 00 b7 3c 00 80 d8 b2 00 80 e9 3f 00 80
       5.7292e-41 -2.178e-41 -6.4157e-41 -2.2927e-41
0000e0 b0 aa 00 80 76 1e 00 00 29 b1 00 00 6f 7e 00 00
       -6.1231e-41 1.0927e-41 6.3553e-41 4.5356e-41
0000f0 07 97 00 80 22 af 00 80 af 08 00 00 95 09 00 00
       -5.4178e-41 -6.2826e-41 3.115e-42 3.437e-42
000100 c4 22 00 00 b9 57 00 80 ab 49 00 00 75 61 00 00
       1.2472e-41 -3.1469e-41 2.6427e-41 3.4961e-41
000110 f5 0f 00 80 64 58 00 00 40 83 00 80 78 8a 00 80
       -5.724e-42 3.1709e-41 -4.7084e-41 -4.9673e-41
000120 99 8b 00 80 0f a4 00 80 9a 6b 00 00 16 1f 00 80
       -5.0078e-41 -5.8853e-41 3.86e-41 -1.1152e-41
000130 c0 8d 00 00 07 a4 00 80 ac 11 00 00 95 6a 00 00
       5.085e-41 -5.8842e-41 6.34e-42 3.8234e-41
000140 89 22 00 00 1f b6 00 80 80 31 00 00 b1 4e 00 80
       1.2389e-41 -6.5333e-41 1.7757e-41 -2.8229e-41
000150 fa b0 00 00 c4 a1 00 80 42 2e 00 00 d3 b2 00 00
       6.3487e-41 -5.803e-41 1.6594e-41 6.415e-41
000160 cb 74 00 80 3f ac 00 00 75 6f 00 80 1c 4f 00 00
       -4.1897e-41 6.179e-41 -3.9983e-41 2.8379e-41
000170 01 5d 00 80 d7 92 00 00 38 86 00 80 c2 20 00 80
       -3.3364e-41 5.2676e-41 -4.8149e-41 -1.1751e-41
000180 73 b3 00 00 ab 8c 00 80 72 70 00 00 6f 4e 00 00
       6.4374e-41 -5.0462e-41 4.0338e-41 2.8137e-41
000190 c3 27 00 80 5a 83 00 00 f8 6d 00 00 b8 9b 00 80
       -1.4264e-41 4.712e-41 3.945e-41 -5.5861e-41
0001a0 12 1b 00 80 57 3b 00 80 57 71 00 00 47 7f 00 80
       -9.711e-42 -2.1287e-41 4.0659e-41 -4.5659e-41
0001b0 1d 1f 00 80 de 33 00 80 16 a7 00 00 b3 62 00 80
       -1.1161e-41 -1.8606e-41 5.9939e-41 -3.5407e-41
0001c0 b8 6a 00 80 72 9e 00 80 0b 48 00 00 e1 a9 00 00
       -3.8283e-41 -5.684e-41 2.5844e-41 6.0941e-41
0001d0 30 79 00 80 77 b7 00 00 a0 7f 00 00 3f 32 00 00
       -4.3474e-41 6.5815e-41 4.5783e-41 1.8025e-41
0001e0 e3 17 00 80 14 2c 00 00 22 9c 00 00 dd 69 00 00
       -8.569e-42 1.5812e-41 5.601e-41 3.7977e-41
0001f0 7b 85 00 80 5a 5c 00 80 31 43 00 80 ad 98 00 80
       -4.7884e-41 -3.313e-41 -2.4104e-41 -5.477e-41
000200 da 1e 00 80 57 3d 00 00 fc 4d 00 00 49 10 00 80
       -1.1067e-41 2.2005e-41 2.7976e-41 -5.842e-42
000210 5a 44 00 00 d0 0d 00 80 a8 b6 00 00 b3 7c 00 00
       2.452e-41 -4.955e-42 6.5525e-41 4.4734e-41
000220 70 42 00 00 48 a2 00 00 4a 06 00 80 29 65 00 80
       2.3833e-41 5.8216e-41 -2.256e-42 -3.629e-41
000230 d1 57 00 80 eb 64 00 80 a0 26 00 80 1d 9d 00 80
       -3.1503e-41 -3.6203e-41 -1.3856e-41 -5.6362e-41
000240 db a6 00 80 c4 4a 00 80 cb 0a 00 00 51 03 00 80
       -5.9856e-41 -2.6821e-41 3.872e-42 -1.19e-42
000250 43 b7 00 00 09 26 00 00 f3 20 00 00 aa aa 00 80
       6.5742e-41 1.3644e-41 1.182e-41 -6.1223e-41
000260 eb 70 00 80 f0 74 00 00 fb 68 00 80 12 67 00 80
       -4.0507e-41 4.1949e-41 -3.766e-41 -3.6975e-41
000270 4f 56 00 00 9a 5e 00 00 e1 2d 00 80 94 2d 00 80
       3.0962e-41 3.3937e-41 -1.6458e-41 -1.635e-41
000280 cd 9b 00 80 c7 3e 00 80 e4 a1 00 00 d4 82 00 00
       -5.5891e-41 -2.252e-41 5.8075e-41 4.6932e-41
000290 58 77 00 80 96 81 00 00 d5 2d 00 80 33 ac 00 00
       -4.2812e-41 4.6487e-41 -1.6441e-41 6.1773e-41
0002a0 ea 41 00 80 ed 28 00 80 08 82 00 80 3e 95 00 80
       -2.3646e-41 -1.4681e-41 -4.6646e-41 -5.3538e-41
0002b0 57 50 00 00 9b 10 00 00 7e 12 00 80 cf 8f 00 00
       2.882e-41 5.957e-42 -6.634e-42 5.1589e-41
0002c0 28 0b 00 00 88 2e 00 80 f2 59 00 00 08 61 00 80
       4.002e-42 -1.6692e-41 3.2266e-41 -3.4808e-41
0002d0 2c 32 00 00 69 db 01 00 8f 2b 00 80 fb a9 00 00
       1.7998e-41 1.70545e-40 -1.5626e-41 6.0978e-41
0002e0 6f 88 00 00 8f 39 00 80 ac 50 37 00 77 54 00 80
       4.8943e-41 -2.0648e-41 5.079892e-39 -3.03e-41
0002f0 1b 55 00 00 43 42 00 00 8f 1f 00 80 99 aa 00 00
       3.053e-41 2.377e-41 -1.1321e-41 6.1199e-41
000300 7e 53 00 00 11 b0 00 80 4d 89 00 80 0e 2b 00 00
       2.9951e-41 -6.3161e-41 -4.9254e-41 1.5445e-41
000310 f2 2f 00 80 8b 61 00 80 46 a9 00 00 3d 36 00 00
       -1.72e-41 -3.4992e-41 6.0724e-41 1.9457e-41
000320 1b 6f 00 00 51 2c 00 80 3f 1e 00 80 72 3f 00 80
       3.9857e-41 -1.5898e-41 -1.085e-41 -2.276e-41
000330 c6 2f 00 80 c7 ae 00 80 60 7d 00 80 ab 44 00 80
       -1.7138e-41 -6.2698e-41 -4.4976e-41 -2.4633e-41
000340 ea a5 00 00 74 30 00 80 ac 5e 00 80 ef 63 00 80
       5.9519e-41 -1.7382e-41 -3.3962e-41 -3.585e-41
000350 b7 a6 00 80 b7 34 00 80 79 38 00 00 67 32 00 00
       -5.9806e-41 -1.891e-41 2.0259e-41 1.8081e-41
000360 d5 71 00 00 2b 9d 00 80 05 6c 00 80 2e 21 00 00
       4.0835e-41 -5.6381e-41 -3.875e-41 1.1903e-41
000370 e0 41 00 80 12 55 00 80 b3 94 00 80 c0 af 00 00
       -2.3631e-41 -3.0517e-41 -5.3343e-41 6.3047e-41
000380 f7 3b 00 00 7a 6c 00 00 bf 35 00 80 25 51 00 00
       2.1511e-41 3.8914e-41 -1.928e-41 2.9109e-41
000390 5a 2a 00 00 66 2d 00 80 48 76 00 00 89 60 00 00
       1.5193e-41 -1.6286e-41 4.2431e-41 3.463e-41
0003a0 a1 0e 00 80 43 28 00 00 22 76 00 00 4a 32 00 80
       -5.248e-42 1.4443e-41 4.2378e-41 -1.804e-41
0003b0 fc 5e 00 80 b8 1d 00 00 0e 55 00 00 ae 1c 00 00
       -3.4074e-41 1.0661e-41 3.0512e-41 1.0288e-41
0003c0 0d 18 00 80 7a 3b 00 00 ca 08 00 00 e8 b7 00 00
       -8.628e-42 2.1336e-41 3.153e-42 6.5973e-41
0003d0 86 82 00 00 dc 88 00 00 f8 3b 00 00 44 ba 00 00
       4.6823e-41 4.9096e-41 2.1513e-41 6.682e-41
0003e0 37 68 00 80 2a 48 00 00 a6 93 00 00 e7 01 00 80
       -3.7385e-41 2.5888e-41 5.2966e-41 -6.82e-43
0003f0 a2 3d 00 00 5b 07 00 80 d3 89 00 00 49 3c 00 00
       2.211e-41 -2.639e-42 4.9442e-41 2.1626e-41
