experiment_outputs/feat_norm_outputs/set_2/featNPO_Th_sigmoid.model (torch_old, 89659 bytes, 56 tensors)

nested_model.unit1.conv.weight f4 [12, 3, 5, 5]
000000 b0 19 41 3e 77 43 4c 3e 75 f7 c5 3d d2 b1 0b 3e
       0.18857455 0.19947611 0.09666339 0.13642052
000010 0a 80 e7 bd b8 d6 0d 3e 12 98 94 be e5 1b 19 3e
       -0.113037184 0.1385144 -0.2902227 0.14952047
000020 95 4d 69 3e 2b b2 c2 bd a1 e0 2a 3e 78 78 eb 3d
       0.22783501 -0.09506639 0.16687252 0.11497587
000030 a7 fa 23 be 54 0d 76 be 20 a5 84 be dc 10 0b bd
       -0.16013585 -0.24028522 -0.2590723 -0.033951625
000040 e8 9c 41 3e b4 c8 aa be 04 02 bb bd f1 5d f9 3c
       0.18907511 -0.3335625 -0.09131244 0.030440303
000050 a6 54 88 3d c5 34 42 3d 9d a9 ab bc a6 03 a2 bd
       0.066567704 0.047413606 -0.020954901 -0.07910852
000060 23 d5 38 bd 2e ad 48 be 09 76 2c 3d 7a 47 9c bd
       -0.045125138 -0.19597313 0.042104755 -0.076308206
000070 f7 00 4e 3e 92 6f 04 3e aa fd f4 bc af 6b e3 be
       0.20117556 0.12933186 -0.029906113 -0.44418094
000080 f8 c4 89 3e 4a 5d 80 3e ad 34 1e bc 8f 8c cb 3d
       0.26908088 0.25071174 -0.009656114 0.09938919
000090 e7 1e 1c 3e be c0 5b bc af 98 2e bd 58 0d 25 3d
       0.15246163 -0.013412653 -0.04262608 0.04029593
0000a0 9b 1a 56 be 20 af a0 3d 34 9c 45 be d5 36 1d 3e
       -0.20908587 0.078459024 -0.19297868 0.15352948
0000b0 2a c1 cc 3d 79 22 86 bd 12 e9 97 bd ad 50 e1 3c
       0.099977806 -0.06549544 -0.074175015 0.02750429
0000c0 53 e5 fe ba d0 13 08 be 97 3f 18 be bb 0f da bd
       -0.0019447006 -0.13288808 -0.14868008 -0.106475316
0000d0 62 09 ca bd 48 f6 70 bd 1a ca e5 bd 03 27 46 3d
       -0.09865071 -0.058828622 -0.112201884 0.04837705
0000e0 5f 60 00 bf fe 5e 06 3e 4f c7 8f 3e 0c 42 a1 3c
       -0.5014705 0.13122174 0.28081748 0.019684814
0000f0 f1 f6 d4 3d 49 9a 12 3d 21 8c b4 bd c2 fe c6 3d
       0.10398663 0.03579167 -0.0881579 0.0971656
000100 c5 ef 9a bd bb 5d fa bd 75 f5 71 3e 88 a9 db bd
       -0.07565264 -0.12224909 0.2362879 -0.10725695
000110 27 53 2b 3e a9 83 e4 3c c2 ab e6 3d b5 2d 96 3a
       0.16730939 0.027894812 0.11263229 0.0011457714
000120 f4 d1 6b 3c e3 76 1c 3e 9c 0d 83 bc d6 da 9d 3d
       0.014393318 0.15279727 -0.0159977 0.07707755
000130 2d 3a 48 3e 70 8f d2 3d 7c 7b 29 3e 19 f0 67 3d
       0.19553442 0.10281265 0.16551012 0.05662546
000140 38 84 d7 bd 94 32 b6 3d f9 a1 d3 3d 85 76 d4 bd
       -0.105232656 0.08896366 0.10333628 -0.10374168
000150 2c 59 80 3c c4 db bb bd 88 8e 14 3e a1 00 75 bd
       0.01566752 -0.09172776 0.14507496 -0.059815053
000160 9d 50 5a be 79 3d de bd 05 9f 43 3d 6d 6c 36 3e
       -0.21319814 -0.10851569 0.047759075 0.17814799
000170 fe 60 46 3d 90 19 1c 3d 46 6f ca 3c 7a c2 1e bd
       0.048432343 0.038110316 0.024711262 -0.038759686
000180 30 60 4d 3e be 11 36 3e 5d b3 84 3d d0 33 39 3d
       0.20056224 0.17780206 0.06479523 0.045215428
000190 13 31 b6 bc 88 3d a0 3d ae 59 a8 bd 3e 01 8f be
       -0.022240197 0.07824236 -0.0822023 -0.27930635
0001a0 d3 05 8c be 52 b6 80 bc 60 08 85 3c 63 f3 15 be
       -0.27348194 -0.015711937 0.016239345 -0.14643626
0001b0 42 59 26 be 28 44 3e be 6f b0 a9 bd 49 8a 13 3e
       -0.16244987 -0.18580687 -0.08285605 0.1440822
0001c0 51 34 30 bb 9d 14 b2 be fd f0 55 be 52 f7 11 bb
       -0.0026886652 -0.34781352 -0.20892711 -0.0022272659
0001d0 61 9f 85 3d 9e 91 a7 bc df 64 80 be 4c dd 4a be
       0.0652454 -0.020455178 -0.2507696 -0.1981098
0001e0 9c b5 e7 bc 2e 20 26 3d a1 86 b3 bd e3 94 bf bd
       -0.02828484 0.040558033 -0.08765913 -0.0935457
0001f0 df c9 b2 bd 7d 78 01 3d 29 d3 30 3e b0 92 ac bd
       -0.0872991 0.031609047 0.17268051 -0.08426416
000200 98 bc 2d be 99 5f 10 be 8e c9 da 3d 1a 1d 33 3e
       -0.16966474 -0.14098968 0.10682975 0.1749157
000210 58 9a 6e 3d 8a 92 17 be cf 77 18 3d 89 50 8a 3d
       0.058252662 -0.14801994 0.037223633 0.06753642
000220 e8 71 44 3e 8b 76 a7 3d 3d 24 40 be 1b 58 c7 bd
       0.19184077 0.08176907 -0.18763824 -0.09733602
000230 76 a1 cc bc 34 9a 8a 3e 86 89 44 3e 09 cb 9c bd
       -0.024979334 0.27070773 0.19193086 -0.076559134
000240 a9 78 1a bc 9d 66 10 3e e4 43 1f 3e 91 48 eb 3d
       -0.009428182 0.14101644 0.15553242 0.1148845
000250 99 3d 75 3d e5 5e 37 bd 18 0c da 3b 83 3d 51 3e
       0.059873197 -0.044768233 0.0066542737 0.20433621
000260 9d b0 4a 3e d5 5e 49 3d 1f ad 39 3e 03 fc 61 3d
       0.19793935 0.049162704 0.18132447 0.055171978
000270 7e dd 2f 3e b9 ef 45 3e 8c ed c0 3d 94 5a 99 3d
       0.17174336 0.19329728 0.094203085 0.074879795
000280 2a c7 37 3e aa 24 f9 bd 98 71 de be d0 86 a9 3d
       0.17947069 -0.12165196 -0.4344604 0.082776666
000290 84 ef 64 3d c9 e1 9f bb 2b d8 5b bd fd 5d 6f be
       0.055892482 -0.0048792106 -0.05367295 -0.23375697
0002a0 37 44 56 be 62 db 3b be ee f0 40 3c ea 77 a8 bd
       -0.2092446 -0.18345407 0.011776192 -0.08225997
0002b0 84 3a 15 bb 95 2f c8 3c a9 08 c2 bd f7 5b ca 3c
       -0.0022770474 0.024436751 -0.09474308 0.024702055
0002c0 64 60 66 3e b9 fd 75 3d c3 00 73 bd 2c 97 a8 3a
       0.22497708 0.060056422 -0.0593269 0.0012862436
0002d0 66 e7 35 3e 9f 88 bc 3d a4 ac 32 3e 19 4c 80 3a
       0.17764053 0.09205746 0.1744867 0.0009788304
0002e0 43 53 d7 bd bf 5d 80 3e 73 1d e3 bd 96 85 02 bf
       -0.10513928 0.25071523 -0.11089601 -0.50985086
0002f0 33 72 78 3d d6 f3 b7 bd 3e 5d 41 bc 07 ea 0e be
       0.060655784 -0.08982055 -0.011802016 -0.13956462
000300 85 89 4e be 27 7b 81 bd 4b c0 1f bd a3 9c 06 3d
       -0.20169647 -0.063223176 -0.039001744 0.032864224
000310 4b e4 95 bc 08 78 03 be 0b a5 a5 3d 88 d1 b0 3b
       -0.018297335 -0.12838757 0.0808812 0.005396072
000320 e4 1a d8 bd d1 d5 8e bd b0 51 a3 be 6a 8c 5b be
       -0.10552004 -0.06974376 -0.3189826 -0.21440282
000330 ea fd d5 bd ad 49 89 bd a6 6b 75 bd f9 dd 56 3d
       -0.10448821 -0.06703506 -0.059917115 0.052457783
000340 4b 10 bc bd ea 24 06 bd 53 34 32 3e 53 6a 2a 3d
       -0.09182795 -0.032750048 0.17402773 0.041605305
000350 aa 09 4e be 61 e2 89 3e 5b 51 b1 3c 2f 34 a8 bc
       -0.20120874 0.26930526 0.021645239 -0.020532696
000360 7c 0b 89 3d 93 57 99 3d f9 f8 fa 3d af c1 92 3d
       0.066916436 0.074874066 0.12254519 0.071658485
000370 20 f7 43 3d ac 14 d1 3b 94 b5 3a 3e d2 5b 37 3e
       0.0478431 0.006380638 0.18233329 0.1790612
000380 02 76 b1 3d b0 42 47 bd 16 a1 e3 3d 11 fc 10 be
       0.08665086 -0.048647583 0.11114709 -0.14158656
000390 ac 1b 80 be 98 c4 47 be 86 50 11 3c 13 53 8b 3d
       -0.25021112 -0.19508588 0.008869296 0.068029545
0003a0 7d 23 64 3e 61 d4 d6 3d a4 7b ab 3a 73 92 9a bd
       0.22279163 0.10489727 0.0013083112 -0.07547464
0003b0 09 5e 18 be 38 1e f8 3d 29 4d ae 3d 8d 48 48 3b
       -0.14879622 0.12115139 0.08510811 0.0030560822
0003c0 52 1d 34 be d3 4f e9 bd 3e e2 bf 3a aa 06 9c 3d
       -0.1758931 -0.113921784 0.0014639569 0.076184586
0003d0 f4 83 9b 3d dc ae 7a 3d f4 77 bc 3d ca 38 e7 3c
       0.075935274 0.061201915 0.09202567 0.028225321
0003e0 b7 4b a4 bc af 36 2a 3c 2e 1f c9 3d cf 55 36 3e
       -0.020055635 0.010389014 0.098204 0.17806171
0003f0 32 a3 e4 3d ef f9 c8 3c 1a fa 47 3c 07 7c 15 bd
       0.111639395 0.02453324 0.012205625 -0.036495235

nested_model.unit1.conv.bias f4 [12]
000000 72 15 65 b9 72 97 bd 36 d2 13 d1 37 73 62 4f 37
       -0.00021847131 5.6502695e-06 2.4923971e-05 1.23610835e-05
000010 4a d6 0f b7 f5 56 be 36 0e c8 dc 36 3a 3f 42 b8
       -8.573357e-06 5.6725644e-06 6.5798004e-06 -4.631209e-05
000020 9a b7 eb 36 5c 61 7b 35 45 7e 64 b7 19 1a 13 b6
       7.02492e-06 9.3646463e-07 -1.3619258e-05 -2.1919898e-06

nested_model.unit1.bn.weight f4 [12]
000000 46 ab 83 3f ec d2 f3 3e bd 95 59 3f a7 82 20 3f
       1.0286644 0.47621858 0.8499411 0.6269936
000010 82 59 0f 3f 17 d1 3c 3e 1a f5 e0 3e a0 6b 3c 3f
       0.55995953 0.18439136 0.43936998 0.7360172
000020 4c c2 23 3f 9f 40 62 3e 9c d0 b8 3e 73 71 0a 3f
       0.6396835 0.22094963 0.36096656 0.5407936

nested_model.unit1.bn.bias f4 [12]
000000 2b 32 76 3f c6 f9 86 be 2c e5 c0 3e 98 dd c5 3d
       0.961703 -0.26362437 0.37674844 0.09661406
000010 79 0e b3 bd 8e 41 95 3d 00 28 69 bc de 63 86 3e
       -0.08742995 0.07287894 -0.014230728 0.26248068
000020 04 49 04 3c 7c e7 3d be ff 12 b3 bd ff c3 7e be
       0.008074049 -0.18545336 -0.087438576 -0.24879454

nested_model.unit1.bn.running_mean f4 [12]
000000 70 07 60 3c f3 1e fb bd a9 84 fc bc 11 51 a9 bd
       0.013673648 -0.122617625 -0.030824976 -0.08267415
000010 a8 65 65 3e 6a 5c 0a 3f 5d ac cb bd 8a 8e f1 bc
       0.2240206 0.5404726 -0.09944985 -0.029486913
000020 ad e1 ff bc fd 42 41 3f 75 36 03 bd 60 03 a8 bf
       -0.03123554 0.7549284 -0.032034356 -1.312603

nested_model.unit1.bn.running_var f4 [12]
000000 1a 4c f5 3c 9a ad 7d 3e 8b cf 70 3d 82 9c 20 3e
       0.029943515 0.24773255 0.05879168 0.15684703
000010 3d c4 e1 3d da a4 ac 3e 3d bc ce 3d 09 16 fd 3d
       0.110237576 0.33719522 0.10094497 0.123577185
000020 86 2b 7d 3e 83 1e d0 3e 64 e6 83 3d 2a 00 3c 3f
       0.24723634 0.4064828 0.06440428 0.7343775

nested_model.unit2.conv.weight f4 [12, 12, 5, 5]
000000 84 c1 c8 3d 4e 28 ef 3c 3e e7 1b be 3f a3 0a be
       0.09802535 0.029194023 -0.1522493 -0.13538836
000010 76 e7 15 3d 89 16 56 3d 18 4d 4a bc 1f 5c 28 be
       0.03659769 0.052267585 -0.012347482 -0.16441391
000020 a6 a7 36 bd dd 0f 82 3d b9 5a d8 3c 55 39 15 bd
       -0.044593476 0.06350682 0.026410447 -0.03643163
000030 92 fc 08 be d7 6f 65 be d7 33 54 bd 10 aa ec bc
       -0.13377598 -0.22405945 -0.05180725 -0.028889686
000040 49 f4 15 bd c0 b8 6d be d8 bc 37 be fd 45 c0 bd
       -0.03660992 -0.23215008 -0.17943132 -0.09388349
000050 ba eb 73 3d c8 95 81 bb cd 11 5a be 74 b0 d2 bd
       0.05955098 -0.003954623 -0.21295853 -0.10287562
000060 29 2d c4 bd 23 e8 85 3d 29 60 c7 3d 3f 97 aa 3d
       -0.09578926 0.06538417 0.09735138 0.08329629
000070 68 33 a7 3d da 10 00 3d 1c b7 87 3d 1f aa be 3d
       0.08164102 0.03126607 0.06626722 0.09309792
000080 09 c9 9e 3d 57 7f 94 3d 4c 0f e3 3c 7b 66 7a 3d
       0.07753188 0.07250851 0.027717255 0.06113289
000090 f1 43 b1 3d 66 8c 79 3d 1c d3 50 3d c6 a7 c8 3c
       0.08655537 0.06092491 0.05098258 0.024494063
0000a0 91 a3 76 3d 09 47 97 3d d7 1e 13 3d 92 10 fc 3c
       0.060214583 0.07386596 0.035918083 0.03076962
0000b0 88 74 42 3c f6 29 5e 3d 0e 69 77 3d 97 1d b1 3c
       0.0118686035 0.054239236 0.060402922 0.021620555
0000c0 82 28 3a 3c 30 7a 91 ba 3d dd 77 bc d4 42 44 3c
       0.011362197 -0.0011099037 -0.015128431 0.011978824
0000d0 7b 5a 30 3d c3 66 81 3d af bd 87 3d d8 be c9 bc
       0.04305504 0.06318428 0.06627976 -0.024627134
0000e0 8d e3 2b 3b 27 ee 73 3d 66 73 81 3d 91 79 7b 3d
       0.002622816 0.05955329 0.06320839 0.06139523
0000f0 ae 69 73 3b 8f c1 11 3d 1f ae b7 3d ab ba dd 3d
       0.0037141847 0.035584982 0.08968758 0.1082662
000100 e6 05 98 3d f5 fc 5c bd d5 fd 50 bd b8 e2 2b bc
       0.07423 -0.053952176 -0.051023323 -0.010491066
000110 dd 97 85 3c 19 0e 38 bd 44 56 06 bd e2 3a 3a bd
       0.016307766 -0.04493532 -0.032797113 -0.04546631
000120 66 1f 43 3b 33 1c 04 3d a3 76 ba bc b7 6b 22 bd
       0.0029773354 0.032253455 -0.022761649 -0.039653506
000130 57 da 77 bd 5f aa 88 bd 2a 25 c4 bd 53 13 cb bd
       -0.06051096 -0.06673121 -0.09577401 -0.09915795
000140 a8 39 32 39 a2 db a9 bc bb 06 0d bd 6e de 8b bd
       0.00016996881 -0.020734612 -0.034430247 -0.068295345
000150 73 e4 73 bd 6e ef b9 3c 67 c9 68 3c a5 bd 04 bc
       -0.059544038 0.022697177 0.014208174 -0.008101855
000160 2e 8a 1b bd 32 0b 87 bd dd 51 9a 3b 59 28 c6 bb
       -0.037973575 -0.06593932 0.004709466 -0.0060472903
000170 81 0d de bc 2a 92 71 bd 13 bd a2 bd 06 f4 4a 3d
       -0.027106049 -0.058977284 -0.07946219 0.049549125
000180 bb 92 fa 3c 3b c2 56 3c 45 09 e5 bc c9 61 3d bd
       0.030587545 0.013107832 -0.027958522 -0.046235833
000190 0a 1c 88 3d 99 63 3e 3d 29 f6 70 3d 60 78 72 3d
       0.06645973 0.046481702 0.058828507 0.05919683
0001a0 12 df 95 3d 2a 20 6c 3d 63 5c 7b 3d e3 d2 96 3d
       0.07317938 0.05764786 0.061367404 0.07364442
0001b0 b8 64 a7 3d fb c4 ad 3d 66 8d f4 3c c4 96 35 3d
       0.081735075 0.08484837 0.02985258 0.044333234
0001c0 24 ce 71 3d 16 45 50 3d da 42 66 3d 7a d0 5b 3c
       0.05903448 0.050847135 0.0562161 0.013416404
0001d0 bf 2f d2 3c df 00 df 3c 47 bb af 3c 34 59 f8 3c
       0.025657533 0.027222095 0.021451605 0.030315973
0001e0 47 b6 da bb 40 e1 be 3b 92 a6 0d 3c a2 db 2e 3b
       -0.006674561 0.0058251917 0.0086456705 0.0026681204
0001f0 5d 5c 1b 3b 7b 9e 83 bc 5a 4f c4 bc 3a e9 1f bd
       0.0023706176 -0.01606678 -0.023963619 -0.03904078
000200 62 fe 53 bd b9 89 45 bd ff 62 27 3c f7 28 4f 3b
       -0.05175627 -0.048227046 0.010216474 0.003161011
000210 28 08 8c bc 0d a0 f1 bc 3c ab ca bc 26 0a 8c 3c
       -0.017093733 -0.029495263 -0.024739854 0.017094683
000220 ec 67 e6 3b 39 cd 36 bc 35 e7 b0 bc 4b 9e bb bc
       0.0070314314 -0.011157327 -0.021594623 -0.022902628
000230 8c cd 7b 3c f7 20 ca 3a e0 05 7a bc 1d 4a e5 bc
       0.01536883 0.0015421201 -0.01526019 -0.027989442
000240 92 8a e3 bc 19 f6 fb 3c 34 67 a3 3c 94 99 95 3b
       -0.027776036 0.030756997 0.019946672 0.004565427
000250 ff fd d2 bb 48 9a c3 bb 35 65 47 bd b1 21 cc bc
       -0.00643897 -0.0059693195 -0.048680503 -0.024918409
000260 c7 b0 d0 bc 98 87 fa bc fa 5a bc bc b7 f1 71 bd
       -0.025474919 -0.030582234 -0.0229926 -0.059068408
000270 b6 de 24 bd 0b ee 16 bd 64 9a 2b bd 76 8c 00 bd
       -0.040251456 -0.03684811 -0.041895285 -0.031383954
000280 a7 87 7e bd 25 3b 31 bd 76 00 1d bd a4 6a 18 bd
       -0.062141087 -0.043269295 -0.038330518 -0.037211075
000290 fd 64 a2 bc 3b 76 88 bd f8 3f 17 bd b2 15 03 bd
       -0.019823546 -0.06663176 -0.03692624 -0.032003112
0002a0 0f d6 ef bc 26 3f db bb 96 8e 92 bd d5 a1 50 bd
       -0.029276876 -0.0066908775 -0.07156102 -0.050935585
0002b0 55 60 33 bd 5c 7f 4a bd a4 fa f1 bc 27 0e ad 3d
       -0.04379304 -0.049437866 -0.02953846 0.08449965
0002c0 99 0c 17 bd 44 7e 32 bd 99 cf 80 3d 84 d8 b5 3d
       -0.03687725 -0.043577448 0.06289596 0.08879188
0002d0 49 f4 93 3d af d0 3f bd b0 57 96 bd e0 6b 2c 3b
       0.07224328 -0.046829876 -0.07340944 0.0026309416
0002e0 f2 e5 27 3d bd d6 95 3d ad 69 4e bd f3 8d cc bd
       0.040990777 0.07316349 -0.05039375 -0.09988012
0002f0 c6 cc 50 bc 5a 29 47 3b 00 07 f4 3b 81 3e d5 bd
       -0.012744134 0.0030389638 0.0074471235 -0.10412312
000300 da b0 f0 bd e1 77 8d bd 10 cc 1f bd f8 cf 0e 3d
       -0.11752482 -0.06907631 -0.03901297 0.034866303
000310 bd 0d 7d bd e7 9e 9b bd d6 09 b7 bc b7 a2 cb ba
       -0.06178068 -0.075986676 -0.022343557 -0.0015536164
000320 e1 bb b8 3d b8 01 23 3d 76 ae 98 3c 25 fb a9 bc
       0.0902021 0.03979656 0.018637877 -0.020749638
000330 df 62 05 bd 8a 2f 44 3d 38 68 a3 3b c3 f8 e6 ba
       -0.032564994 0.0478969 0.004986789 -0.0017621744
000340 19 3e f3 bc e3 c7 6b bc ca 05 34 3c 94 84 4f bc
       -0.029692696 -0.014390918 0.010987708 -0.012665886
000350 3d 3e 0b bb f7 b1 a0 bc b2 4e da 3b aa 01 aa 3c
       -0.0021246814 -0.01961611 0.0066622132 0.020752747
000360 c9 d9 1d bc 00 e0 c1 3c dd a6 e9 3b 80 81 e2 3c
       -0.009634444 0.023666382 0.0071304874 0.027649641
000370 78 59 91 3c 0d 19 26 bd 3b 1e 9f bb 40 78 77 bc
       0.017742857 -0.040551234 -0.0048558987 -0.015104353
000380 fc a6 86 bb 36 a0 a4 3d 02 1e 82 3d c9 1b 0b 3d
       -0.0041092616 0.0803837 0.0635338 0.033962045
000390 fe b3 4f 3c 24 09 f2 3c ee 37 a1 3d 71 3d 7c 3d
       0.012677191 0.029545374 0.07871996 0.061582033
0003a0 bb c1 0a 3d ef 9d 3f 3c 6c 05 09 3d dc bd 9a 3d
       0.033876162 0.011695369 0.033452436 0.07555744
0003b0 e6 79 85 3d 6d 4e 28 3d c4 b9 88 3c da 22 2a 3d
       0.06517391 0.041090418 0.016690142 0.041537143
0003c0 c4 20 9c 3d af da 78 3d 43 eb 1c 3d ef fe b1 3c
       0.07623437 0.060755428 0.0383103 0.021728007
0003d0 85 d3 4a 3d 2f c6 9a 3d 6c 40 6d 3d 2a 42 28 3d
       0.049518127 0.07557332 0.057922766 0.041078724
0003e0 40 fc 0d 3d 40 e2 7f 3d a9 c4 32 3c 82 1a 91 bc
       0.034664392 0.06247163 0.010911145 -0.017712835
0003f0 f7 95 9a bc 75 dc 87 bc b1 55 22 bd c1 29 09 3c
       -0.018870337 -0.016584614 -0.039632503 0.008371771

nested_model.unit2.conv.bias f4 [12]
000000 e0 3f e0 b3 c6 e2 c9 b6 dd b1 03 b5 b8 e0 82 b7
       -1.04424316e-07 -6.0166667e-06 -4.906013e-07 -1.560185e-05
000010 75 4e 18 b3 ef 75 0a b5 84 7b 56 37 a4 be a3 b6
       -3.5461614e-08 -5.158062e-07 1.2784152e-05 -4.879972e-06
000020 2b b9 76 b6 10 fd 0e b6 cc 9f 78 b6 aa 8f 12 b7
       -3.6764638e-06 -2.130695e-06 -3.7047894e-06 -8.7357275e-06

nested_model.unit2.bn.weight f4 [12]
000000 ec cb 5c 3c 43 28 aa 3e 1d 7c 83 3e 27 b0 26 3f
       0.013476353 0.33233842 0.25680628 0.6511254
000010 8c 59 e3 3e 04 66 c8 3e 1d ef f3 3e bb b1 ae 3e
       0.44404256 0.39140332 0.47643366 0.34119973
000020 50 93 f5 3e 69 30 5a 3e eb b3 aa 3e ed 40 1f 3f
       0.47963953 0.2130753 0.33340392 0.62208444

nested_model.unit2.bn.bias f4 [12]
000000 76 46 a5 3d 40 01 74 be 28 57 55 be 65 4b 9a be
       0.0807008 -0.23828602 -0.20834029 -0.30135646
000010 dd 6a 51 be 80 05 71 be e4 1a 15 be 77 30 2d be
       -0.20450921 -0.23537254 -0.14561039 -0.16913019
000020 4d 1b 64 be 5a 7a 16 be 29 a2 99 be 97 08 8d be
       -0.2227604 -0.14695111 -0.3000653 -0.27545616

nested_model.unit2.bn.running_mean f4 [12]
000000 51 f5 ce bf e0 e3 02 3e 09 36 76 be 48 1e a6 bf
       -1.6168615 0.1278224 -0.2404405 -1.2977991
000010 1c c6 7e bf 28 1f d9 bf 82 fd 76 bf 75 7a 48 bf
       -0.9952104 -1.6962633 -0.9648057 -0.78311855
000020 9e 88 a6 bf 57 c3 d0 bf 61 02 9e 3f f6 41 b9 bf
       -1.3010442 -1.6309613 1.2344476 -1.4473255

nested_model.unit2.bn.running_var f4 [12]
000000 ab 82 a1 3f 99 ac ab 3f 6a c4 e1 3f e9 ff 84 40
       1.2618002 1.3412048 1.7638066 4.156239
000010 ec 76 3a 40 94 ab 00 40 ba a6 0e 40 6e 19 01 40
       2.9135084 2.0104723 2.2289262 2.017177
000020 b6 3d 10 40 17 fc fb 3f 79 40 c3 3f 66 a1 8b 40
       2.2537665 1.9686307 1.525405 4.363452

nested_model.unit3.conv.weight f4 [12, 12, 5, 5]
000000 09 8e 71 bd 16 76 27 bd c8 98 57 bc e1 c5 4a bc
       -0.058973346 -0.0408841 -0.0131589845 -0.01237628
000010 97 4a 22 3b 71 6b 99 bd c4 f2 0d bd 70 d5 87 3a
       0.0024763697 -0.07491196 -0.034655347 0.0010363292
000020 31 70 3d bc 50 99 3d 3c 8f cf 9a bd 4e ff 34 3d
       -0.011562393 0.011572197 -0.0755912 0.04418879
000030 ad a7 07 3e 29 53 b9 3c 67 c6 bc 3c 15 27 fc bd
       0.13247557 0.022622662 0.023043824 -0.12312142
000040 f3 2f 8c bd 8b 06 45 bb 9f 89 50 bd 50 9c ad bc
       -0.06845083 -0.0030063714 -0.050912496 -0.0211927
000050 9c cf 0c be 77 1e e2 bd c3 77 6d bd b8 5d 91 bd
       -0.13751072 -0.11040967 -0.05797554 -0.070979536
000060 87 97 24 bd 11 24 a8 3d fc e4 91 3d 1c d4 3a 39
       -0.04018357 0.08210004 0.071237534 0.00017817359
000070 86 c1 97 bd 15 ce 50 bc 45 c0 8f 3d 96 4d 31 3e
       -0.074099585 -0.012744446 0.070190944 0.17314753
000080 91 a9 96 3d d4 bf 9f 3d 11 18 35 3d e5 9f 10 bc
       0.07356561 0.0780026 0.044212405 -0.008827184
000090 b0 15 98 3b 70 c2 e3 bd cb ed d3 bd a4 f6 22 3d
       0.004641257 -0.111210704 -0.1034809 0.039785996
0000a0 98 09 ed bd 9d 67 6c be eb 7b 7a be 74 44 50 be
       -0.115740955 -0.230864 -0.24461333 -0.20338613
0000b0 4c 09 41 bd 79 6b b2 3d af 94 4a bc 4a 25 65 be
       -0.047128007 0.08711905 -0.0123645505 -0.22377506
0000c0 8b d6 33 be d8 19 85 bd 34 4d 02 bd d9 09 30 3d
       -0.1756231 -0.0649907 -0.031811908 0.04297814
0000d0 11 53 a2 3c 18 ce 00 bd 38 be 86 bc dd 8a 17 bd
       0.019815 -0.031446546 -0.016448125 -0.036997665
0000e0 00 33 30 be 9e 60 5b be 8d 59 39 be b2 16 0b bd
       -0.17206955 -0.21423575 -0.18100567 -0.03395719
0000f0 47 e7 ec bd 46 8b 35 be 26 92 12 be c7 01 1f be
       -0.1156755 -0.1772891 -0.14313564 -0.15528022
000100 ee de b8 bd 2c a0 2b be d5 3f 24 be 1b 42 da bd
       -0.090268955 -0.1676032 -0.16039975 -0.1065714
000110 fb ef 8c bd 84 b3 12 be c8 6b 95 be 07 b5 41 be
       -0.0688171 -0.14326292 -0.29183793 -0.18916713
000120 72 f4 ce bd 43 0e 5c be 71 c3 73 be df c7 4a be
       -0.10105218 -0.21489815 -0.23805024 -0.19802807
000130 46 2b 2f be 84 6b a2 be fc cc 8d be 1e 18 9d be
       -0.17106351 -0.31722653 -0.27695453 -0.30682462
000140 a1 23 c8 3d 61 6f 63 3b b3 66 22 be e0 53 63 be
       0.09772421 0.0034703838 -0.15859489 -0.22199965
000150 8d 15 cf bd e6 85 57 3e 5d 80 8b 3d d8 35 0e be
       -0.10111532 0.21047172 0.06811593 -0.13887727
000160 29 09 c5 3c 9c 43 e1 3d 7f df b3 3d d4 6c 8f 3d
       0.02405222 0.109992236 0.08782863 0.07003179
000170 e0 df 12 bd d8 d9 85 3d 87 73 ae 3d 61 fd 63 3d
       -0.035858035 0.06535691 0.08518129 0.055661563
000180 33 f1 c8 3d 30 61 a2 bc d0 0d 9a 3d 3f 3a 14 3e
       0.0981163 -0.019821733 0.07522166 0.14475344
000190 9d 89 34 be aa 25 ac bc 77 f8 19 3d 6f 0d b6 3c
       -0.1763062 -0.021014053 0.03759047 0.022223203
0001a0 cc 34 0d 3e 61 58 d6 bd b8 41 de 3c fe 76 17 3d
       0.13789672 -0.10466076 0.027130947 0.036978714
0001b0 1d 0f cb 3c e5 69 9c 3d 6b 0e d3 3d 5c 14 2c 3e
       0.02478748 0.07637385 0.103054844 0.16804641
0001c0 55 f4 37 3e 95 e2 79 3d 04 cd 57 3d df 3c 04 3e
       0.17964299 0.0610071 0.052685753 0.12913845
0001d0 02 6f 87 3d 61 d0 b6 3d ef 28 e8 3d 74 2b 35 3c
       0.0661297 0.08926464 0.113359325 0.011057723
0001e0 a4 d0 3c 3e e4 b0 56 3e 4e 95 1b 3e f6 88 63 3d
       0.18438965 0.20965916 0.15193674 0.055550538
0001f0 f7 05 e8 bd f3 ee 77 be 02 0d 61 bd 34 a4 92 bc
       -0.11329263 -0.24212246 -0.054944046 -0.017900564
000200 66 85 ce 3d 52 fc 0d 3e fe ac 49 be 39 41 c0 bd
       0.100840375 0.13865784 -0.19694898 -0.0938744
000210 33 f9 b5 3c ba 04 f6 3d 49 8f 81 3e 55 50 64 be
       0.022213554 0.1201262 0.2530463 -0.22296269
000220 99 d6 9d be ed fd 0d bd 6b 81 91 3d 9a f9 49 3e
       -0.30827788 -0.03466599 0.07104763 0.19724122
000230 be 0d 8c bd 03 89 5b 3c b4 97 f1 3c 6c 6d 30 3d
       -0.068385586 0.013399365 0.029491283 0.043073103
000240 0e a7 17 3d 23 69 81 bd 49 55 f5 3d 5b a6 25 3e
       0.03702455 -0.06318881 0.119791575 0.16176741
000250 ff d4 ba 3d b4 21 38 3d c5 39 0f 3e a0 29 95 3e
       0.09122657 0.044954017 0.13986881 0.2913332
000260 c8 7e 2b 3e 39 88 94 bd c9 c4 43 be 54 a1 ee 3d
       0.16747582 -0.07252545 -0.19118036 0.11651865
000270 10 38 85 3d 51 7a c0 3c 3d c6 3c be e4 3f 7d be
       0.06504834 0.023495825 -0.18434997 -0.24731404
000280 d1 db 65 be c9 c5 97 bd a1 46 14 3d 40 54 0d bd
       -0.22447135 -0.074107714 0.03620017 -0.034504175
000290 21 6e b3 bd 04 ff 5b bd 1e 33 77 3e 30 64 f6 3d
       -0.0876124 -0.05371 0.24140593 0.12030828
0002a0 43 6c 52 3d db d0 39 be 59 90 a2 bd e3 b0 4b 3e
       0.051372778 -0.18146078 -0.079376884 0.19891696
0002b0 3a e7 f9 3d 04 95 ba 3d 52 89 4a be 0e 2b 01 be
       0.12202306 0.09110454 -0.19778946 -0.1261408
0002c0 16 b4 60 bd b3 b8 05 be 88 9c 8f be bf 80 97 be
       -0.054859243 -0.13058738 -0.2804911 -0.29590413
0002d0 d1 00 53 3e 69 d4 87 bd e1 2d 7c be ad 17 9b be
       0.2060578 -0.06632311 -0.24626876 -0.302915
0002e0 36 34 7d be 10 0e 4c 3e 16 c8 44 3c 7a 7d 63 be
       -0.24726948 0.1992724 0.012010595 -0.22215834
0002f0 da a0 5c be a6 f2 77 bd 8f bf 9c 3d 6c 4f ce 3d
       -0.21545735 -0.060534142 0.076537244 0.10073742
000300 fe ca 0f be a0 4a 83 bc 59 12 90 bd 8b 4a da 3d
       -0.14042279 -0.016026795 -0.070347495 0.10658749
000310 a2 02 46 3e be 5e 1d 3e 1a 5b 2c 3e ab 7d 12 3c
       0.19336942 0.15368173 0.16831627 0.008941094
000320 54 6e 9c 3d 72 7b 1f 3d d2 ae f5 3c 43 31 7f 3d
       0.07638231 0.038936086 0.029990587 0.06230284
000330 d9 24 0e bd c4 ec b4 3d 4b 66 71 bd e4 6c bb bc
       -0.03470311 0.08834222 -0.058935445 -0.022879072
000340 7c 9b a3 bd dd 6a ec ba f3 94 85 bb a5 fa 14 be
       -0.07988641 -0.0018037219 -0.004076594 -0.14548738
000350 5a d3 26 be c3 71 cb bd cc 5e b4 bd 3d ec fe bd
       -0.16291562 -0.09933808 -0.088071436 -0.124474026
000360 f7 4d 9b 3d 7c 27 8f 3b 35 4a 8d bd 54 10 e1 bd
       0.0758323 0.0043687206 -0.068989195 -0.109894425
000370 94 4c 48 3c ad 6c 3d 3d aa 31 1b 3d ef 9f f4 3c
       0.012225289 0.04624622 0.03788916 0.029861419
000380 b7 c4 4c bd 1a e1 09 3e 92 53 03 3e 38 b5 28 3e
       -0.04999229 0.13464776 0.12824848 0.1647538
000390 b1 89 ea 3d 13 ba d1 3d 22 7b 16 3e 77 a7 de 3c
       0.11452044 0.10240569 0.14695409 0.027179463
0003a0 57 0c 58 ba 3c ba 01 bd a8 a3 80 bd 54 72 92 bd
       -0.0008241585 -0.031671748 -0.06281215 -0.071507126
0003b0 18 3d 5b be 26 a4 46 be 35 0a 2b be 3a 95 29 be
       -0.21410024 -0.19398555 -0.16703112 -0.16560832
0003c0 70 2c a0 bd f6 b6 24 be 1a 60 d4 bd 14 c9 06 be
       -0.07820976 -0.16085419 -0.103698924 -0.13162643
0003d0 90 d7 49 be 25 c0 58 bd f7 e0 cc bd 47 99 2a be
       -0.19711137 -0.05291762 -0.10003846 -0.16660033
0003e0 b8 a4 08 be 00 e6 29 be 4a 8e 6b bd f4 a4 2a 3d
       -0.13344085 -0.16591644 -0.057508744 0.041661218
0003f0 ec f9 d2 3d 1e b3 a5 3d eb d2 4d 3b 96 8f 20 be
       0.10301575 0.080908045 0.0031406234 -0.15679774

nested_model.unit3.conv.bias f4 [12]
000000 98 08 84 b4 42 b9 cd 36 95 8f 57 36 06 43 8f b6
       -2.459317e-07 6.131043e-06 3.2121072e-06 -4.2695347e-06
000010 ad 6b 5b 36 b6 f0 2e b6 90 1a e5 b5 a6 cd c8 b2
       3.2696219e-06 -2.6068133e-06 -1.706956e-06 -2.3376582e-08
000020 39 b3 9f 36 63 b4 29 b5 55 aa 8b 36 61 ea 73 36
       4.7594335e-06 -6.3219903e-07 4.162352e-06 3.6346248e-06

nested_model.unit3.bn.weight f4 [12]
000000 df e5 24 3f 76 cd e8 3e 97 d3 fa 3e 2d 23 21 3f
       0.64413255 0.45469254 0.48989555 0.629443
000010 2f ad be 3e e4 a9 1c 3f 53 e0 c5 3e 81 93 e9 3e
       0.37241504 0.6119673 0.38647708 0.4562035
000020 75 0b 1b 3f 02 55 1c 3f d5 c7 ee 3e 8b 91 09 3f
       0.6056436 0.6106721 0.46636835 0.53737706

nested_model.unit3.bn.bias f4 [12]
000000 4c 0e 04 bf fb eb ec bd 14 99 cf be b6 13 df bd
       -0.51584315 -0.11568447 -0.40546477 -0.108924314
000010 0f 4d 08 be 50 0b 9a be e1 eb 5b be 9b 68 84 be
       -0.13310646 -0.30086756 -0.214767 -0.25861058
000020 70 1e 6d be a7 65 1c be c1 f0 84 be 2e c9 34 be
       -0.23156142 -0.15273152 -0.2596493 -0.17654869

nested_model.unit3.bn.running_mean f4 [12]
000000 9f 04 2b bf 9c d6 6f bf 59 06 76 bc ca fe 50 bf
       -0.66803926 -0.9368684 -0.015016162 -0.8163878
000010 2d f0 35 3e 26 aa 15 3e fa 98 d9 be bc 0e 8b bf
       0.17767401 0.14615688 -0.42499524 -1.0863872
000020 ce a6 0e bf 7c 37 35 bd 65 a3 79 be ab a9 83 bf
       -0.55723274 -0.044242367 -0.24378736 -1.0286154

nested_model.unit3.bn.running_var f4 [12]
000000 b6 01 03 3f c6 20 1f 3f c7 6d c7 3e a7 b8 1f 3f
       0.51174486 0.62159383 0.3895094 0.6239113
000010 7e 5c af 3e c2 dc 08 3f b7 72 12 3f 16 7d 6d 3f
       0.34250253 0.5346185 0.5720629 0.9276899
000020 f2 b1 23 3f 90 33 25 3f 60 30 e8 3e a6 2c 17 3f
       0.639434 0.64531803 0.45349407 0.59052503

nested_model.unit4.conv.weight f4 [12, 12, 5, 5]
000000 fa 1d a0 bc 4b e2 37 bd 49 d4 e9 3c e0 16 8c 3b
       -0.019545544 -0.044893544 0.028543608 0.004275188
000010 f1 06 c7 bd f8 d0 57 bb b5 89 9c bd 3c 20 79 3a
       -0.09718121 -0.0032930952 -0.07643453 0.00095033995
000020 d8 ee d1 3d fb 88 17 3d 36 ce c7 3d 8b 6a 71 3d
       0.10250634 0.03699587 0.097561285 0.058939498
000030 4a e2 c3 3d a2 d2 1c 3e 61 91 44 3d f8 62 ee 3b
       0.095646456 0.15314725 0.047990207 0.0072749816
000040 18 f3 9f 3d d4 d3 c3 3d da 79 14 3d 04 0f 5c bc
       0.07810038 0.095618874 0.03624902 -0.013431314
000050 b1 c6 81 bd a3 43 cf 3d 11 39 14 3e 4f 22 67 3d
       -0.063367255 0.101203226 0.14474894 0.056429204
000060 e3 a8 4d 3c 5b 54 21 be 8d 6b c0 bd 4d 49 f9 3b
       0.012552473 -0.15754835 -0.09395514 0.007607615
000070 32 5a 97 3d 9d f4 a2 3d b5 43 39 bd ac 47 f1 bc
       0.0739025 0.079568125 -0.045230586 -0.029453121
000080 83 e7 9b 3d ce 71 4e 3e f1 7b 4d 3e 78 29 c7 3c
       0.07612517 0.201606 0.20066811 0.024311766
000090 07 c5 48 3d 8e e4 01 3e ec 09 3e 3e 2e 33 53 3e
       0.049016025 0.12684843 0.18558472 0.20624992
0000a0 48 dc 24 3c 86 18 41 3d 72 01 73 3d 97 44 d6 3d
       0.010062285 0.047142528 0.05932755 0.10462301
0000b0 ff c0 02 3e de 2f 25 3b df e7 ae bc ae 5f 11 3d
       0.12768935 0.0025205533 -0.0213508 0.035491638
0000c0 80 1f 34 3d 54 cb 50 3d 11 eb 39 3e e2 7b 6a 3d
       0.043975353 0.05097516 0.18156077 0.05724705
0000d0 18 6b 45 bb f6 54 69 3d 17 13 67 3d 55 b6 35 3e
       -0.0030123647 0.05696579 0.05641469 0.17745335
0000e0 15 fd b5 3c 25 01 7b bd b2 93 24 3a e9 65 46 3d
       0.022215405 -0.06128039 0.0006278112 0.048437033
0000f0 d4 70 78 3e 0f 7a c9 3d ad f9 02 bd 80 25 92 bc
       0.2426179 0.09837734 -0.03197639 -0.017840147
000100 13 0d e3 3b f0 48 14 3e c4 d7 70 3d 8e 41 03 3c
       0.006929049 0.14480948 0.05879952 0.008011235
000110 ca 17 97 3c 88 64 6d bc 61 da 83 bc bd 56 88 bd
       0.01844396 -0.014489301 -0.016095342 -0.06657169
000120 d4 72 ac bc 17 53 24 3d 57 03 d6 3c b3 51 de 3c
       -0.021050848 0.040118303 0.02612464 0.027138567
000130 73 f4 b6 39 38 5e 1a 3d 48 b4 43 3d aa 40 86 3b
       0.00034895874 0.03768751 0.04777935 0.004097064
000140 92 96 11 3e 33 73 74 3d 02 f6 c6 3c 2a a8 06 3d
       0.14217594 0.059680175 0.024287228 0.032875217
000150 b0 0f 48 bd 0b ab 80 3d 4b 37 d9 3d 2b 39 5f 3d
       -0.048843086 0.06282624 0.106062494 0.05449788
000160 b6 e1 36 3d bd 94 f6 3b af 0a df bd 5c 47 27 bd
       0.04464885 0.007525055 -0.108907096 -0.040839538
000170 3e 3e a1 3c 80 34 4b 3d fd dc fa 3c 9e 2f 76 be
       0.019683 0.049610615 0.030622954 -0.24041602
000180 dd 0b 66 be 07 c4 4b be 51 3f d5 bd a7 95 c3 bc
       -0.22465463 -0.19898997 -0.10412467 -0.02387507
000190 68 13 31 bd 92 d5 dd 3c 9a 62 fa 3d c9 92 d6 3d
       -0.043231398 0.027079377 0.12225838 0.10477216
0001a0 3b dc 12 3d 27 2d 4a bd 6c dc c1 3c ed 07 b4 3d
       0.03585456 -0.049359467 0.023664676 0.08790574
0001b0 5a 55 ce 3d 02 32 02 3e fd b6 99 bd 5e c2 e0 3b
       0.10074873 0.12714389 -0.07505605 0.006859108
0001c0 e7 2a ef 3c 51 b6 d6 3c 5e 21 31 3d 97 aa ea bc
       0.029195262 0.026209982 0.043244712 -0.028645797
0001d0 52 68 c9 3d 2a 47 bb 3d e7 8f 72 3c 55 0b 88 bd
       0.09834351 0.09144433 0.014804817 -0.066427864
0001e0 34 78 49 bc 84 3e ca 3d ab e4 11 3e e0 23 a0 3d
       -0.012296725 0.09875205 0.14247386 0.078193426
0001f0 94 11 3b bd 56 b6 c4 bc 28 ba 32 bc 7b 82 b6 bd
       -0.04567106 -0.024012726 -0.010908641 -0.08911606
000200 cd a3 8c bd 57 f9 1c 3d 7a c5 c1 bd d1 e4 12 be
       -0.0686718 0.038323727 -0.09461494 -0.14345099
000210 7c f6 43 be fd 81 20 be 4a f0 1e bc ab 30 23 be
       -0.19136995 -0.15674587 -0.009700844 -0.15936534
000220 4c 39 22 be e4 4e 43 be 9c 74 1f be fa ac de ba
       -0.1584217 -0.19073063 -0.15571827 -0.0016988807
000230 62 57 43 bd 16 5b 1c bd e0 17 1a bd 97 78 08 3b
       -0.047690757 -0.038172804 -0.037620425 0.002082383
000240 12 36 dd 3d 2b d5 8d bc 84 82 a1 ba bb 86 83 bc
       0.10801329 -0.01731356 -0.0012322222 -0.016055455
000250 b2 8e d2 bb 38 92 89 3c 3f 81 f0 3d 4f 4a b9 3d
       -0.006425702 0.016793355 0.11743402 0.09047376
000260 08 19 12 3e 54 29 58 3e 4c bd 94 3e 79 a7 1b 3d
       0.14267361 0.21109515 0.29050672 0.03800151
000270 27 26 ee 3b 32 41 41 3d 2d 0e e4 3d e1 56 1c 3e
       0.0072677317 0.047181316 0.11135516 0.15267517
000280 b1 4d 71 bc bf af 23 bd 2f 1a e4 3b be 55 96 3d
       -0.014727996 -0.039962526 0.006961129 0.07340573
000290 23 43 04 3e f5 13 2b bd 01 ba 44 bd f2 28 85 3d
       0.12916236 -0.04176708 -0.04802895 0.0650195
0002a0 a3 42 d5 3d c3 20 e7 3d 6e 63 61 bd 86 ae 1a bd
       0.104131006 0.11285546 -0.055026464 -0.037764095
0002b0 b0 4d 86 3d 93 ad eb 3d a8 44 b3 3d da 17 fb bc
       0.065577865 0.11507716 0.087533295 -0.030651022
0002c0 a1 cb 1c bd 2a e8 10 bc 9d 0c 24 3d 08 3c bc 3d
       -0.038280133 -0.008844415 0.04005109 0.091911376
0002d0 5e 20 3f 3e 44 b3 3d 3e 09 93 6c 3e 13 db 7f 3e
       0.18664691 0.18525416 0.23102964 0.24985914
0002e0 ba 95 91 3e bf 48 61 3e e8 a2 60 3e 27 09 6c 3e
       0.28434545 0.22000407 0.21937144 0.23050366
0002f0 78 77 72 3e d0 83 7d 3e da 87 8d 3e 4d 8e 85 3e
       0.23678386 0.24757314 0.2764271 0.2608513
000300 85 89 61 3e 1a 75 49 3e 13 62 08 3e 38 37 4d 3e
       0.22025116 0.19673577 0.13318662 0.20040596
000310 dd 6e 27 3e 44 7a bf 3d 04 06 0e 3d e2 43 76 3c
       0.16350885 0.09349492 0.034673706 0.015030833
000320 17 bf a3 bc 8f 86 09 be 5e 02 8b bd bb 2e 87 3c
       -0.01998858 -0.13430236 -0.06787561 0.016501775
000330 3c 4e 2a 3d 32 75 8d 3d 91 42 46 bd a8 b4 18 bd
       0.041578516 0.06907119 -0.048403326 -0.037281662
000340 2a 47 51 bd 6b 5c 12 3d e8 4b 9a 3d 6e 3a 4c bd
       -0.051093258 0.035732668 0.07534009 -0.04986041
000350 af de d0 bd 50 bf fc bd 62 f5 5c bd b7 71 c7 3d
       -0.101987235 -0.123411775 -0.053944953 0.09738486
000360 7a 47 21 3b ce 15 95 bd 97 6f eb bd 11 39 94 bd
       0.0024609254 -0.072795495 -0.114958934 -0.07237447
000370 02 37 27 3e 7b 23 1d 3e f9 2b 7a 3d 30 8b 19 bd
       0.16329578 0.15345566 0.06107709 -0.037486255
000380 00 2a 11 3c 9b 42 38 bd 66 69 92 bc 57 1b 3b bd
       0.008860111 -0.044985395 -0.017872524 -0.04568037
000390 39 b3 c6 bd 9f 2e 96 bd 46 dd 91 bc ef 71 d6 3d
       -0.09702153 -0.07333111 -0.017805707 0.1047095
0003a0 8d 9d 98 3d 04 d3 15 bd 4d 31 a9 bd 1a 3f 1c 3d
       0.074519254 -0.036578193 -0.082613565 0.038146116
0003b0 09 78 bc 3d b4 b2 ad 3d 13 e8 ae 3d b5 12 9c 3c
       0.092025824 0.084813505 0.085403584 0.019051889
0003c0 02 f1 ae 3d 24 e9 88 3d e6 75 e2 3d bc cf 16 3e
       0.08542062 0.06685093 0.110576436 0.14727682
0003d0 1c b0 f8 3d 7f cf 8a 3d 2f a1 d9 bc 9d 51 b5 3c
       0.12142965 0.06777858 -0.026566116 0.022133643
0003e0 27 ad 2f 3d 90 77 ff 3c 40 56 ef bd 1a 45 d2 bd
       0.04288974 0.031184942 -0.11686373 -0.10267086
0003f0 db aa 5d bb 5d 9c 1a bd 03 1c 8e bd 8f 18 10 be
       -0.0033823762 -0.037746776 -0.069389366 -0.14071868

nested_model.unit4.conv.bias f4 [12]
000000 89 f1 eb b4 e8 43 b2 b6 fe dd 3a 36 6b 09 c5 b6
       -4.39479e-07 -5.3127187e-06 2.7845376e-06 -5.872154e-06
000010 ca 43 23 b5 0c fe f0 b6 26 a4 fb b6 37 57 bf 35
       -6.082088e-07 -7.1821323e-06 -7.4994923e-06 1.4255992e-06
000020 14 58 d5 36 e7 d5 bf b6 dc 49 26 36 cf c0 d3 b6
       6.3581483e-06 -5.717145e-06 2.477892e-06 -6.310736e-06

nested_model.unit4.bn.weight f4 [12]
000000 ed cb 31 3f bf c1 d5 3f aa 26 8e 3f 3b 76 7c 3f
       0.6945179 1.6699752 1.1105549 0.98617905
000010 7e a2 76 3f 8e e5 83 3f d0 5c 9b 3f 5d af b2 3f
       0.96341693 1.030443 1.2137699 1.3959767
000020 de 8d 63 3f 03 7c 9d 3f 66 77 b6 3f eb e7 a7 3f
       0.8888835 1.230347 1.4255188 1.3117651

nested_model.unit4.bn.bias f4 [12]
000000 17 58 c6 bd 20 6d 93 3e f2 d7 db 3e 7a 17 09 bd
       -0.096847706 0.28794193 0.4293819 -0.033469655
000010 ef a3 5c 3e 0c fb 85 bc 8d 3b 87 ba 54 20 35 3e
       0.2154691 -0.01635506 -0.001031743 0.17688113
000020 09 93 61 bb 75 78 83 3e 40 34 48 3e 04 71 c6 3d
       -0.0034419915 0.2567784 0.19551182 0.09689525

nested_model.unit4.bn.running_mean f4 [12]
000000 dd 67 ca 3d 5f e8 13 bf 08 1e 80 be 7d 66 bf bb
       0.098830916 -0.57776445 -0.25022912 -0.005841075
000010 ad d1 38 be 9c 4a c3 bd 4f 5c 82 bf 6e 6f 30 bf
       -0.18048735 -0.09535715 -1.018442 -0.6892003
000020 e7 55 b1 be b2 4e 50 3e 1e 03 2a bf 88 0a 21 3e
       -0.3463585 0.2034252 -0.66411006 0.15726674

nested_model.unit4.bn.running_var f4 [12]
000000 d5 02 ba 3e 1c 04 0c 3f f2 34 e5 3e a8 c1 d0 3e
       0.36330286 0.5469377 0.44766957 0.40772748
000010 de 5b 12 3f d7 08 cf 3e 07 e7 11 3f 26 4b 2d 3f
       0.5717143 0.40436432 0.56993145 0.6769279
000020 49 f3 ee 3e f1 74 02 3f 1a 05 32 3f 0c 3d 0d 3f
       0.46669987 0.5095969 0.69539034 0.55171275

nested_model.net.0.conv.weight f4 [12, 3, 5, 5]
000000 b0 19 41 3e 77 43 4c 3e 75 f7 c5 3d d2 b1 0b 3e
       0.18857455 0.19947611 0.09666339 0.13642052
000010 0a 80 e7 bd b8 d6 0d 3e 12 98 94 be e5 1b 19 3e
       -0.113037184 0.1385144 -0.2902227 0.14952047
000020 95 4d 69 3e 2b b2 c2 bd a1 e0 2a 3e 78 78 eb 3d
       0.22783501 -0.09506639 0.16687252 0.11497587
000030 a7 fa 23 be 54 0d 76 be 20 a5 84 be dc 10 0b bd
       -0.16013585 -0.24028522 -0.2590723 -0.033951625
000040 e8 9c 41 3e b4 c8 aa be 04 02 bb bd f1 5d f9 3c
       0.18907511 -0.3335625 -0.09131244 0.030440303
000050 a6 54 88 3d c5 34 42 3d 9d a9 ab bc a6 03 a2 bd
       0.066567704 0.047413606 -0.020954901 -0.07910852
000060 23 d5 38 bd 2e ad 48 be 09 76 2c 3d 7a 47 9c bd
       -0.045125138 -0.19597313 0.042104755 -0.076308206
000070 f7 00 4e 3e 92 6f 04 3e aa fd f4 bc af 6b e3 be
       0.20117556 0.12933186 -0.029906113 -0.44418094
000080 f8 c4 89 3e 4a 5d 80 3e ad 34 1e bc 8f 8c cb 3d
       0.26908088 0.25071174 -0.009656114 0.09938919
000090 e7 1e 1c 3e be c0 5b bc af 98 2e bd 58 0d 25 3d
       0.15246163 -0.013412653 -0.04262608 0.04029593
0000a0 9b 1a 56 be 20 af a0 3d 34 9c 45 be d5 36 1d 3e
       -0.20908587 0.078459024 -0.19297868 0.15352948
0000b0 2a c1 cc 3d 79 22 86 bd 12 e9 97 bd ad 50 e1 3c
       0.099977806 -0.06549544 -0.074175015 0.02750429
0000c0 53 e5 fe ba d0 13 08 be 97 3f 18 be bb 0f da bd
       -0.0019447006 -0.13288808 -0.14868008 -0.106475316
0000d0 62 09 ca bd 48 f6 70 bd 1a ca e5 bd 03 27 46 3d
       -0.09865071 -0.058828622 -0.112201884 0.04837705
0000e0 5f 60 00 bf fe 5e 06 3e 4f c7 8f 3e 0c 42 a1 3c
       -0.5014705 0.13122174 0.28081748 0.019684814
0000f0 f1 f6 d4 3d 49 9a 12 3d 21 8c b4 bd c2 fe c6 3d
       0.10398663 0.03579167 -0.0881579 0.0971656
000100 c5 ef 9a bd bb 5d fa bd 75 f5 71 3e 88 a9 db bd
       -0.07565264 -0.12224909 0.2362879 -0.10725695
000110 27 53 2b 3e a9 83 e4 3c c2 ab e6 3d b5 2d 96 3a
       0.16730939 0.027894812 0.11263229 0.0011457714
000120 f4 d1 6b 3c e3 76 1c 3e 9c 0d 83 bc d6 da 9d 3d
       0.014393318 0.15279727 -0.0159977 0.07707755
000130 2d 3a 48 3e 70 8f d2 3d 7c 7b 29 3e 19 f0 67 3d
       0.19553442 0.10281265 0.16551012 0.05662546
000140 38 84 d7 bd 94 32 b6 3d f9 a1 d3 3d 85 76 d4 bd
       -0.105232656 0.08896366 0.10333628 -0.10374168
000150 2c 59 80 3c c4 db bb bd 88 8e 14 3e a1 00 75 bd
       0.01566752 -0.09172776 0.14507496 -0.059815053
000160 9d 50 5a be 79 3d de bd 05 9f 43 3d 6d 6c 36 3e
       -0.21319814 -0.10851569 0.047759075 0.17814799
000170 fe 60 46 3d 90 19 1c 3d 46 6f ca 3c 7a c2 1e bd
       0.048432343 0.038110316 0.024711262 -0.038759686
000180 30 60 4d 3e be 11 36 3e 5d b3 84 3d d0 33 39 3d
       0.20056224 0.17780206 0.06479523 0.045215428
000190 13 31 b6 bc 88 3d a0 3d ae 59 a8 bd 3e 01 8f be
       -0.022240197 0.07824236 -0.0822023 -0.27930635
0001a0 d3 05 8c be 52 b6 80 bc 60 08 85 3c 63 f3 15 be
       -0.27348194 -0.015711937 0.016239345 -0.14643626
0001b0 42 59 26 be 28 44 3e be 6f b0 a9 bd 49 8a 13 3e
       -0.16244987 -0.18580687 -0.08285605 0.1440822
0001c0 51 34 30 bb 9d 14 b2 be fd f0 55 be 52 f7 11 bb
       -0.0026886652 -0.34781352 -0.20892711 -0.0022272659
0001d0 61 9f 85 3d 9e 91 a7 bc df 64 80 be 4c dd 4a be
       0.0652454 -0.020455178 -0.2507696 -0.1981098
0001e0 9c b5 e7 bc 2e 20 26 3d a1 86 b3 bd e3 94 bf bd
       -0.02828484 0.040558033 -0.08765913 -0.0935457
0001f0 df c9 b2 bd 7d 78 01 3d 29 d3 30 3e b0 92 ac bd
       -0.0872991 0.031609047 0.17268051 -0.08426416
000200 98 bc 2d be 99 5f 10 be 8e c9 da 3d 1a 1d 33 3e
       -0.16966474 -0.14098968 0.10682975 0.1749157
000210 58 9a 6e 3d 8a 92 17 be cf 77 18 3d 89 50 8a 3d
       0.058252662 -0.14801994 0.037223633 0.06753642
000220 e8 71 44 3e 8b 76 a7 3d 3d 24 40 be 1b 58 c7 bd
       0.19184077 0.08176907 -0.18763824 -0.09733602
000230 76 a1 cc bc 34 9a 8a 3e 86 89 44 3e 09 cb 9c bd
       -0.024979334 0.27070773 0.19193086 -0.076559134
000240 a9 78 1a bc 9d 66 10 3e e4 43 1f 3e 91 48 eb 3d
       -0.009428182 0.14101644 0.15553242 0.1148845
000250 99 3d 75 3d e5 5e 37 bd 18 0c da 3b 83 3d 51 3e
       0.059873197 -0.044768233 0.0066542737 0.20433621
000260 9d b0 4a 3e d5 5e 49 3d 1f ad 39 3e 03 fc 61 3d
       0.19793935 0.049162704 0.18132447 0.055171978
000270 7e dd 2f 3e b9 ef 45 3e 8c ed c0 3d 94 5a 99 3d
       0.17174336 0.19329728 0.094203085 0.074879795
000280 2a c7 37 3e aa 24 f9 bd 98 71 de be d0 86 a9 3d
       0.17947069 -0.12165196 -0.4344604 0.082776666
000290 84 ef 64 3d c9 e1 9f bb 2b d8 5b bd fd 5d 6f be
       0.055892482 -0.0048792106 -0.05367295 -0.23375697
0002a0 37 44 56 be 62 db 3b be ee f0 40 3c ea 77 a8 bd
       -0.2092446 -0.18345407 0.011776192 -0.08225997
0002b0 84 3a 15 bb 95 2f c8 3c a9 08 c2 bd f7 5b ca 3c
       -0.0022770474 0.024436751 -0.09474308 0.024702055
0002c0 64 60 66 3e b9 fd 75 3d c3 00 73 bd 2c 97 a8 3a
       0.22497708 0.060056422 -0.0593269 0.0012862436
0002d0 66 e7 35 3e 9f 88 bc 3d a4 ac 32 3e 19 4c 80 3a
       0.17764053 0.09205746 0.1744867 0.0009788304
0002e0 43 53 d7 bd bf 5d 80 3e 73 1d e3 bd 96 85 02 bf
       -0.10513928 0.25071523 -0.11089601 -0.50985086
0002f0 33 72 78 3d d6 f3 b7 bd 3e 5d 41 bc 07 ea 0e be
       0.060655784 -0.08982055 -0.011802016 -0.13956462
000300 85 89 4e be 27 7b 81 bd 4b c0 1f bd a3 9c 06 3d
       -0.20169647 -0.063223176 -0.039001744 0.032864224
000310 4b e4 95 bc 08 78 03 be 0b a5 a5 3d 88 d1 b0 3b
       -0.018297335 -0.12838757 0.0808812 0.005396072
000320 e4 1a d8 bd d1 d5 8e bd b0 51 a3 be 6a 8c 5b be
       -0.10552004 -0.06974376 -0.3189826 -0.21440282
000330 ea fd d5 bd ad 49 89 bd a6 6b 75 bd f9 dd 56 3d
       -0.10448821 -0.06703506 -0.059917115 0.052457783
000340 4b 10 bc bd ea 24 06 bd 53 34 32 3e 53 6a 2a 3d
       -0.09182795 -0.032750048 0.17402773 0.041605305
000350 aa 09 4e be 61 e2 89 3e 5b 51 b1 3c 2f 34 a8 bc
       -0.20120874 0.26930526 0.021645239 -0.020532696
000360 7c 0b 89 3d 93 57 99 3d f9 f8 fa 3d af c1 92 3d
       0.066916436 0.074874066 0.12254519 0.071658485
000370 20 f7 43 3d ac 14 d1 3b 94 b5 3a 3e d2 5b 37 3e
       0.0478431 0.006380638 0.18233329 0.1790612
000380 02 76 b1 3d b0 42 47 bd 16 a1 e3 3d 11 fc 10 be
       0.08665086 -0.048647583 0.11114709 -0.14158656
000390 ac 1b 80 be 98 c4 47 be 86 50 11 3c 13 53 8b 3d
       -0.25021112 -0.19508588 0.008869296 0.068029545
0003a0 7d 23 64 3e 61 d4 d6 3d a4 7b ab 3a 73 92 9a bd
       0.22279163 0.10489727 0.0013083112 -0.07547464
0003b0 09 5e 18 be 38 1e f8 3d 29 4d ae 3d 8d 48 48 3b
       -0.14879622 0.12115139 0.08510811 0.0030560822
0003c0 52 1d 34 be d3 4f e9 bd 3e e2 bf 3a aa 06 9c 3d
       -0.1758931 -0.113921784 0.0014639569 0.076184586
0003d0 f4 83 9b 3d dc ae 7a 3d f4 77 bc 3d ca 38 e7 3c
       0.075935274 0.061201915 0.09202567 0.028225321
0003e0 b7 4b a4 bc af 36 2a 3c 2e 1f c9 3d cf 55 36 3e
       -0.020055635 0.010389014 0.098204 0.17806171
0003f0 32 a3 e4 3d ef f9 c8 3c 1a fa 47 3c 07 7c 15 bd
       0.111639395 0.02453324 0.012205625 -0.036495235

nested_model.net.0.conv.bias f4 [12]
000000 72 15 65 b9 72 97 bd 36 d2 13 d1 37 73 62 4f 37
       -0.00021847131 5.6502695e-06 2.4923971e-05 1.23610835e-05
000010 4a d6 0f b7 f5 56 be 36 0e c8 dc 36 3a 3f 42 b8
       -8.573357e-06 5.6725644e-06 6.5798004e-06 -4.631209e-05
000020 9a b7 eb 36 5c 61 7b 35 45 7e 64 b7 19 1a 13 b6
       7.02492e-06 9.3646463e-07 -1.3619258e-05 -2.1919898e-06

nested_model.net.0.bn.weight f4 [12]
000000 46 ab 83 3f ec d2 f3 3e bd 95 59 3f a7 82 20 3f
       1.0286644 0.47621858 0.8499411 0.6269936
000010 82 59 0f 3f 17 d1 3c 3e 1a f5 e0 3e a0 6b 3c 3f
       0.55995953 0.18439136 0.43936998 0.7360172
000020 4c c2 23 3f 9f 40 62 3e 9c d0 b8 3e 73 71 0a 3f
       0.6396835 0.22094963 0.36096656 0.5407936

nested_model.net.0.bn.bias f4 [12]
000000 2b 32 76 3f c6 f9 86 be 2c e5 c0 3e 98 dd c5 3d
       0.961703 -0.26362437 0.37674844 0.09661406
000010 79 0e b3 bd 8e 41 95 3d 00 28 69 bc de 63 86 3e
       -0.08742995 0.07287894 -0.014230728 0.26248068
000020 04 49 04 3c 7c e7 3d be ff 12 b3 bd ff c3 7e be
       0.008074049 -0.18545336 -0.087438576 -0.24879454

nested_model.net.0.bn.running_mean f4 [12]
000000 70 07 60 3c f3 1e fb bd a9 84 fc bc 11 51 a9 bd
       0.013673648 -0.122617625 -0.030824976 -0.08267415
000010 a8 65 65 3e 6a 5c 0a 3f 5d ac cb bd 8a 8e f1 bc
       0.2240206 0.5404726 -0.09944985 -0.029486913
000020 ad e1 ff bc fd 42 41 3f 75 36 03 bd 60 03 a8 bf
       -0.03123554 0.7549284 -0.032034356 -1.312603

nested_model.net.0.bn.running_var f4 [12]
000000 1a 4c f5 3c 9a ad 7d 3e 8b cf 70 3d 82 9c 20 3e
       0.029943515 0.24773255 0.05879168 0.15684703
000010 3d c4 e1 3d da a4 ac 3e 3d bc ce 3d 09 16 fd 3d
       0.110237576 0.33719522 0.10094497 0.123577185
000020 86 2b 7d 3e 83 1e d0 3e 64 e6 83 3d 2a 00 3c 3f
       0.24723634 0.4064828 0.06440428 0.7343775
