experiment_outputs/feat_norm_outputs/set_2/featNRO_R_sigmoid.model (torch_old, 89655 bytes, 56 tensors)

nested_model.unit1.conv.weight f4 [12, 3, 5, 5]
0	0x3e1f8a83	0.15580182
1	0x3e650d7b	0.22368424
2	0x3dd9dc61	0.10637737
3	0x3e2a4f17	0.16631733
4	0xbd2dda46	-0.04244449
5	0x3dcc1f0a	0.09966858
6	0xbe8dc64a	-0.27690345
7	0x3de49b7b	0.11162468
8	0x3e8b0721	0.27153876
9	0xbca3b61a	-0.019984294
10	0x3dffba7d	0.12486742
11	0x3d6ade13	0.057340693
12	0xbe044f78	-0.1292094
13	0xbe4389d5	-0.19095547
14	0xbe7594db	-0.23982565
15	0xbd6668f2	-0.056252427
16	0x3e41a80d	0.18911763
17	0xbe8e7cb0	-0.27829504
18	0xbdd5456a	-0.1041363
19	0xba8ebcf5	-0.0010890054
20	0xbbe50264	-0.0069888104
21	0x3ba52722	0.0050400654
22	0xbd1c1745	-0.03810813
23	0xbd71bfc7	-0.059020784
24	0xbd84c7f3	-0.0648345
25	0xbe2ba1d7	-0.16760956
26	0x3d2b9575	0.04189058
27	0xbdd9fc81	-0.106438644
28	0x3e2c03bc	0.167983
29	0x3de0288c	0.10945234
30	0xbc9ef6a2	-0.019404713
31	0xbee8971f	-0.45427796
32	0x3e3e5d06	0.18590173
33	0x3e88d2e6	0.26723403
34	0xbd1433d5	-0.036182243
35	0x3dcf0cbd	0.101098515
36	0x3dfd077e	0.12354945
37	0xbcb597ac	-0.02216705
38	0xbd7aa58c	-0.061193034
39	0xbd3f1294	-0.046648577
40	0xbe1e5e2f	-0.15465616
41	0x3e2fc93d	0.1716661
42	0xbe26205b	-0.1622328
43	0x3db7c2d7	0.089727096
44	0x3da53367	0.08066445
45	0xbd60bc9b	-0.05486737
46	0xbd1d6fcf	-0.038436707
47	0x3d58f7fc	0.05297087
48	0x3d50c316	0.0509673
49	0xbd9f2d34	-0.07772294
50	0xbd2dcbb5	-0.0424306
51	0xbd57ca99	-0.052683447
52	0xbe0c872d	-0.1372344
53	0xbd9ea744	-0.07746747
54	0xbddb62cf	-0.107122056
55	0x3dd2f4b2	0.10300578
56	0xbeeba0bc	-0.46021068
57	0x3db205d3	0.08692517
58	0x3e9a0b0b	0.3008655
59	0x3cc3a0bc	0.023880355
60	0x3dd6427e	0.10461901
61	0x3a63e598	0.0008693575
62	0xbdaa2d6e	-0.08309446
63	0x3db40af0	0.08791149
64	0xbe07c0d3	-0.1325715
65	0xbde9d4de	-0.11417554
66	0x3e83ec17	0.2576606
67	0xbdef8eff	-0.11697196
68	0x3daf433a	0.08557744
69	0x3c9958ed	0.01871916
70	0x3db0a106	0.08624463
71	0xbc972da4	-0.01845438
72	0x3b721bdf	0.0036942882
73	0x3e2ff24e	0.17182276
74	0x3d60d273	0.0548882
75	0x3d933770	0.07188308
76	0x3daa17d8	0.08305329
77	0xbc109e19	-0.008826756
78	0xbccb94a4	-0.02485115
79	0xbdcd0b2e	-0.10011898
80	0xbd676004	-0.056488052
81	0xbbfcb749	-0.007712279
82	0xbbd473d8	-0.006483536
83	0xbe180277	-0.1484469
84	0xbdf0ff5c	-0.11767456
85	0xbc6b1bef	-0.014349922
86	0x3d8be3fe	0.068305954
87	0xbd18e4e9	-0.03732768
88	0xbe0a919d	-0.1353211
89	0xbe010231	-0.12598492
90	0x3df47b80	0.11937618
91	0x3e0eb9e6	0.13938102
92	0x3d57e01a	0.052703954
93	0x3d291976	0.041284047
94	0xbc35cf81	-0.011096836
95	0x3da5ae78	0.08089918
96	0x3e445d0f	0.19176124
97	0x3e22d518	0.15901601
98	0x3d86d029	0.06582672
99	0x3d0ff297	0.03514346
100	0x3caabd7b	0.020842304
101	0x3ca5cf7a	0.020240534
102	0xbdc1c1cb	-0.09460791
103	0xbe8241fb	-0.25440964
104	0xbe80c9d3	-0.2515398
105	0x3c70ab54	0.014689285
106	0xbd002fc4	-0.031295553
107	0xbe07fed4	-0.13280803
108	0xbe1c4f3b	-0.15264599
109	0xbe4be532	-0.1991165
110	0x3a3dda0d	0.000724227
111	0x3dade068	0.08490068
112	0x3c71057b	0.014710779
113	0xbe5faee3	-0.21844058
114	0xbe2014c1	-0.15632917
115	0x3dc161b0	0.094424605
116	0x3d98354f	0.07432043
117	0x3cbc13cd	0.02295866
118	0xbe00ea59	-0.12589397
119	0xbdf09191	-0.117465146
120	0x3dd0835b	0.10181304
121	0x3dc14d56	0.09438579
122	0x3b5ffa58	0.0034176316
123	0xbb7f90a8	-0.0038996134
124	0x3ac779c4	0.0015218784
125	0x3d93e771	0.07221878
126	0x3d911dcc	0.070857614
127	0xbdd487ce	-0.10377465
128	0xbe3c93fb	-0.18415825
129	0xbe307906	-0.17233667
130	0x3df0b4fe	0.117532715
131	0x3d98c609	0.07459647
132	0xbc877de3	-0.01653952
133	0xbe228694	-0.1587165
134	0xbda65ff3	-0.081237696
135	0x3e00ffe0	0.12597609
136	0x3df4dc9b	0.1195614
137	0x3d3c6d8a	0.046002902
138	0xbe13222a	-0.14368501
139	0xbde4e019	-0.11175556
140	0x3dc9e509	0.09858138
141	0x3e6611f4	0.22467786
142	0x3e190e91	0.14946963
143	0xbd1f9b4c	-0.038966462
144	0xbc8dd0e2	-0.017311517
145	0x3e7836e2	0.24239686
146	0x3e4485ae	0.1919162
147	0x3e13c44a	0.14430347
148	0x3db8e958	0.09028882
149	0x3ca9418c	0.020661138
150	0x3c9868e8	0.01860471
151	0x3e218632	0.15773848
152	0x3e255239	0.16144647
153	0x3d79224e	0.06082373
154	0x3e10880f	0.14114402
155	0x3da1f12f	0.0790733
156	0x3dfc2282	0.12311269
157	0x3e02d51a	0.12776604
158	0x3dc319db	0.09526416
159	0x3d4bf759	0.049796436
160	0x3e3f6579	0.18691052
161	0xbd86e8d6	-0.06587379
162	0xbeb1ba3f	-0.34712407
163	0x3da1814e	0.07885991
164	0x3d5c3dcf	0.053769883
165	0x3cc29dbd	0.023756856
166	0xbdb2f4c8	-0.087380946
167	0xbe83f3c3	-0.25771913
168	0xbe35fe0b	-0.17772691
169	0xbddd1cb1	-0.10796488
170	0x3cbd94e8	0.023142293
171	0xbe15f97b	-0.1464595
172	0xbdef90fc	-0.116975754
173	0xbd5b0f9b	-0.05348168
174	0xbdcde9cf	-0.10054361
175	0x3d3e5889	0.046471152
176	0x3e675386	0.22590455
177	0x3de0ee69	0.10982973
178	0xbc932651	-0.017962607
179	0x3bd4690c	0.006482249
180	0x3e30fadd	0.17283197
181	0x3dc3b1db	0.095554076
182	0x3e08b3ef	0.13349889
183	0x3d0c320a	0.03422741
184	0xbd8c7153	-0.068575524
185	0x3e7e0eb1	0.24810292
186	0xbd59886b	-0.053108614
187	0xbed8cac6	-0.42342204
188	0x3d65de1f	0.056120034
189	0xbd52cc04	-0.051464096
190	0x3cbc3005	0.022972116
191	0xbdeebd2f	-0.11657178
192	0xbe5b21f4	-0.21399671
193	0xbd576241	-0.052583937
194	0x3b3543e6	0.0027658879
195	0x3d62987e	0.05532121
196	0xbcdf1b52	-0.027234707
197	0xbdff2e73	-0.12460031
198	0x3d32df8f	0.043670233
199	0xbba0715e	-0.004896327
200	0xbdad2cb6	-0.084557936
201	0xbd8a2128	-0.06744605
202	0xbe714c01	-0.2356415
203	0xbe54a526	-0.20766124
204	0xbe021dac	-0.12706631
205	0xbcf080eb	-0.029358348
206	0xbd8925e7	-0.066966824
207	0x3bb33697	0.005469154
208	0xbd920f74	-0.07131854
209	0xbd197357	-0.037463512
210	0x3e1cf8ac	0.15329236
211	0x3c87f57e	0.016596552
212	0xbe5e9f21	-0.2174039
213	0x3e3f2936	0.18668064
214	0x3d11081a	0.035408117
215	0xbcac1c28	-0.02100952
216	0x3c3b8240	0.011444628
217	0xbc7de5d9	-0.0154966945
218	0x3db63102	0.08896066
219	0x3dd260c9	0.102723666
220	0x3d84bc1c	0.064811915
221	0x3c5a8ddc	0.013339486
222	0x3e267e2d	0.1625907
223	0x3e36a0d5	0.1783479
224	0x3e00ff51	0.12597395
225	0xbd8e965f	-0.06962275
226	0x3db82355	0.08991114
227	0xbd3bb4eb	-0.045826834
228	0xbe22f833	-0.15914993
229	0xbe1ae3cd	-0.15125962
230	0x3b822c5d	0.0039725737
231	0x3d2c0cc8	0.042004377
232	0x3e5dcfaf	0.21661256
233	0x3dcdf593	0.10056605
234	0xbce98d2f	-0.028509704
235	0xbd48518e	-0.0489059
236	0xbe014072	-0.1262224
237	0x3e014126	0.12622508
238	0x3d8c83fd	0.06861112
239	0xbd2a6ad1	-0.041605774
240	0xbe4401ca	-0.19141307
241	0xbdfd1bc1	-0.12358809
242	0x3c8de257	0.017319841
243	0x3d196e13	0.03745849
244	0x3ca03e5c	0.019560985
245	0xbc799ade	-0.015234677
246	0x3d30efe8	0.043197542
247	0x3ca37270	0.019952029
248	0xbceb6cd4	-0.028738417
249	0x3c5ec10e	0.0135958325
250	0x3dd10c28	0.10207397
251	0x3e6aa8dd	0.22915979
252	0x3e70d48e	0.23518583
253	0x3e07bec2	0.13256362
254	0x3d98e6e4	0.07465914
255	0x3cb7a195	0.022415916

nested_model.unit1.conv.bias f4 [12]
0	0x3830b9e1	4.2134783e-05
1	0x366a2071	3.48876e-06
2	0x37ed7387	2.8306398e-05
3	0x37d4cc5f	2.5367537e-05
4	0x3761f30e	1.3467636e-05
5	0x3694734c	4.424166e-06
6	0xb7bb8e11	-2.2358292e-05
7	0x3729c87f	1.0119867e-05
8	0xb750a6b8	-1.2436583e-05
9	0x36d95c4e	6.4778496e-06
10	0x369c2bb1	4.6542486e-06
11	0x369dec50	4.706475e-06

nested_model.unit1.bn.weight f4 [12]
0	0x3f68f2b4	0.90995336
1	0x3eed54c4	0.46353734
2	0x3f3219a2	0.6957036
3	0x3efeb3f8	0.4974668
4	0x3eddb8b1	0.4330497
5	0x3df2f317	0.11862772
6	0x3e90f195	0.28309312
7	0x3f06b662	0.52622044
8	0x3f00577f	0.5013351
9	0x3e6164c0	0.2201109
10	0x3e92840d	0.28616372
11	0x3ed14b1a	0.4087761

nested_model.unit1.bn.bias f4 [12]
0	0x3f6f897e	0.9356917
1	0xbde6dd34	-0.1127266
2	0x3ed58041	0.41699412
3	0x3e10a26f	0.14124463
4	0xbd90e2d4	-0.07074514
5	0x3d40300d	0.046920825
6	0xbc7e8cf8	-0.015536539
7	0x3e436d27	0.19084607
8	0xbe04d63c	-0.12972349
9	0xbe4ef7d6	-0.2021173
10	0xbe2ec245	-0.17066295
11	0xbe28a567	-0.16469346

nested_model.unit1.bn.running_mean f4 [12]
0	0x3cd60e25	0.026129792
1	0xbd9235e9	-0.07139189
2	0xbd09199b	-0.033471685
3	0xbca89664	-0.020579524
4	0xbdbdd08f	-0.09268295
5	0x3f9d0585	1.226731
6	0xbdc5119b	-0.096224986
7	0x3d29c17a	0.04144428
8	0x3d17b8cf	0.03704148
9	0xbf852d8c	-1.0404525
10	0xbe5d02a4	-0.21583039
11	0xbfb9c2c3	-1.4512562

nested_model.unit1.bn.running_var f4 [12]
0	0x3cee6320	0.0291
1	0x3ed2b473	0.41153297
2	0x3d8d3484	0.06894782
3	0x3e76a027	0.24084531
4	0x3df13c87	0.11779123
5	0x3f19f0ef	0.6013326
6	0x3d4f482f	0.05060595
7	0x3de010a4	0.10940674
8	0x3ea95535	0.3307282
9	0x3ef8da97	0.4860427
10	0x3df77c62	0.12084271
11	0x3f4b04b8	0.79304075

nested_model.unit2.conv.weight f4 [12, 12, 5, 5]
0	0x2e83ffb2	6.002611e-11
1	0x2eb4267e	8.19229e-11
2	0x2e3f563d	4.3504967e-11
3	0x2f2e9f3d	1.588178e-10
4	0xaf9d1f00	-2.858016e-10
5	0x2daecb63	1.9871832e-11
6	0x2d8f13ed	1.6266067e-11
7	0x2dca8722	2.3024752e-11
8	0x2e661d36	5.232189e-11
9	0xb010fdeb	-5.2747734e-10
10	0xabccab33	-1.4542589e-12
11	0xad37e3e5	-1.0452948e-11
12	0xadf8ce61	-2.8285986e-11
13	0xafd4bf21	-3.869838e-10
14	0xb04fc36c	-7.558387e-10
15	0xade52ab4	-2.605325e-11
16	0xae5ae784	-4.977309e-11
17	0xaf8e9a40	-2.593925e-10
18	0xb03e3b6e	-6.920605e-10
19	0xb164eb76	-3.331221e-09
20	0xaf021174	-1.1829632e-10
21	0xaf7298e7	-2.2064094e-10
22	0xb109afe6	-2.003611e-09
23	0xb237876f	-1.0682796e-08
24	0xb336d8bb	-4.2572292e-08
25	0x80000e46	-5.12e-42
26	0x811602e1	-2.7552714e-38
27	0x12f7bc4d	1.5634311e-27
28	0x9a33380a	-3.70616e-23
29	0x8ae5da20	-2.2133947e-32
30	0x00004517	2.4785e-41
31	0x83d53500	-1.2531183e-36
32	0x13402ca1	2.425581e-27
33	0x992ebed0	-9.0341234e-24
34	0x0653dfb3	3.9849038e-35
35	0x80002b1b	-1.5463e-41
36	0x8141ab5d	-3.557145e-38
37	0x10b28a95	7.042214e-29
38	0x96d5fcc0	-3.4571514e-25
39	0x01b5cc75	6.678228e-38
40	0x00007fe9	4.5886e-41
41	0x803a3ba9	-5.347861e-39
42	0x8d128eb4	-4.5161496e-31
43	0x94190bda	-7.726863e-27
44	0x800325a1	-2.89005e-40
45	0x80000134	-4.32e-43
46	0x8023a546	-3.273531e-39
47	0x896e3b7e	-2.8676181e-33
48	0x92afa8e8	-1.1085691e-27
49	0x00007b25	4.4176e-41
50	0x26124d9e	5.0759116e-16
51	0x2547ac04	1.731878e-16
52	0x23dc6485	2.389502e-17
53	0xa51ab27f	-1.3417848e-16
54	0xa55f438d	-1.9365054e-16
55	0x235275bb	1.1409053e-17
56	0xa4b83fde	-7.9905475e-17
57	0xa49c1a11	-6.7698374e-17
58	0xa33b33fe	-1.01483e-17
59	0xa2ca160a	-5.4775544e-18
60	0xa54f865e	-1.7999913e-16
61	0xa4d63eb6	-9.291394e-17
62	0xa266413c	-3.1205347e-18
63	0xa0425e52	-1.6463647e-19
64	0xa23e7ff0	-2.5817531e-18
65	0xa7313a42	-2.4595266e-15
66	0xa4d4e5a1	-9.232935e-17
67	0xa363335f	-1.2316573e-17
68	0xa4562968	-4.6438925e-17
69	0xa28af19e	-3.7660797e-18
70	0xa4b078db	-7.653257e-17
71	0xa413d71a	-3.2057742e-17
72	0xa200d570	-1.7460228e-18
73	0xa383e2cd	-1.4299102e-17
74	0xa4522e93	-4.557594e-17
75	0x96aba82b	-2.773267e-25
76	0x9445aa87	-9.979589e-27
77	0x91f8a49a	-3.9228944e-28
78	0x0f2acdbf	8.421272e-30
79	0x0f43dc14	9.656628e-30
80	0x978bfd16	-9.046552e-25
81	0x97848c31	-8.565689e-25
82	0x97052ffa	-4.3035173e-25
83	0x9438091b	-9.291422e-27
84	0x930a9995	-1.749377e-27
85	0x99857c53	-1.3802092e-23
86	0x9b038ce5	-1.0881592e-22
87	0x9b39de92	-1.5374758e-22
88	0x9981498d	-1.3367994e-23
89	0x9889c4d4	-3.5612416e-24
90	0x9ccb20d5	-1.34419e-21
91	0x9dc981d1	-5.3338484e-21
92	0x9d5a03e5	-2.8854073e-21
93	0x9ba89c7c	-2.7894394e-22
94	0x9bfa072b	-4.1363663e-22
95	0x9908da55	-7.075127e-24
96	0x97c37951	-1.2632204e-24
97	0x95b70115	-7.391482e-26
98	0x93c21df2	-4.9002013e-27
99	0x97135581	-4.7606183e-25
100	0x800be10d	-1.090923e-39
101	0x01af93aa	6.4496735e-38
102	0x05f2f5f9	2.2847927e-35
103	0x8c1005e0	-1.1095124e-31
104	0x068d8dec	5.324684e-35
105	0x000049c9	2.6469e-41
106	0x80047956	-4.10869e-40
107	0x038994da	8.086311e-37
108	0x8a847bbb	-1.275768e-32
109	0x052c260c	8.094389e-36
110	0x800065ba	-3.6493e-41
111	0x00007599	4.2186e-41
112	0x0184e62d	4.881943e-38
113	0x06222d66	3.0502167e-35
114	0x807a1d7e	-1.121451e-38
115	0x00001f07	1.113e-41
116	0x00000871	3.028e-42
117	0x001689e2	2.069844e-39
118	0x05302171	8.2816224e-36
119	0x00005ef2	3.406e-41
120	0x00005a8b	3.248e-41
121	0x0007ae91	7.05471e-40
122	0x04aeed17	4.1124936e-36
123	0x067f6582	4.8034746e-35
124	0x0000449b	2.4611e-41
125	0x80000d54	-4.781e-42
126	0x000099e6	5.5208e-41
127	0x00005a69	3.2433e-41
128	0x00003809	2.0102e-41
129	0x000083f8	4.7341e-41
130	0x8001dde2	-1.71432e-40
131	0x80004a73	-2.6707e-41
132	0x80000d9c	-4.882e-42
133	0x8000e1a0	-8.0939e-41
134	0x80063e85	-5.73441e-40
135	0x000054aa	3.0372e-41
136	0x00000015	3e-44
137	0x80000c58	-4.428e-42
138	0x8004687c	-4.04824e-40
139	0x8022a23e	-3.180608e-39
140	0x00016446	1.27807e-40
141	0x0000ab3e	6.143e-41
142	0x000084ac	4.7594e-41
143	0x8008558e	-7.65375e-40
144	0x808b5141	-1.2794282e-38
145	0x0000587d	3.1744e-41
146	0x0000a1a1	5.7982e-41
147	0x000075b5	4.2225e-41
148	0x80161809	-2.029003e-39
149	0x806accab	-9.807984e-39
150	0xa7fc864c	-7.0089656e-15
151	0x278005c6	3.5533396e-15
152	0x298018e5	5.6886604e-14
153	0x2a48b251	1.7825434e-13
154	0x2aa15c14	2.8663237e-13
155	0xa7c43d87	-5.4467636e-15
156	0x28a16bae	1.792129e-14
157	0x29dfc545	9.93741e-14
158	0x2a8bf48e	2.4861054e-13
159	0x2a9cb32d	2.7835495e-13
160	0x26d9c253	1.5110071e-15
161	0x28a7336e	1.8563029e-14
162	0x2a1f1523	1.412937e-13
163	0x2ab183c8	3.1532958e-13
164	0x2ada7686	3.880682e-13
165	0x287caf90	1.4026879e-14
166	0x298e1933	6.310438e-14
167	0x2a7b2d57	2.2309009e-13
168	0x2b0a9f0d	4.9248176e-13
169	0x2b5cdb8f	7.84644e-13
170	0x29193cb3	3.4025473e-14
171	0x29d5fece	9.503302e-14
172	0x2aac02b0	3.0555202e-13
173	0x2b94119b	1.0520919e-12
174	0x2c351277	2.5731897e-12
175	0x239f651e	1.728164e-17
176	0x218956a6	9.306417e-19
177	0x21f0bc07	1.6312803e-18
178	0x21c2cd34	1.3200268e-18
179	0x226a15d9	3.172448e-18
180	0x2504fed8	1.153552e-16
181	0x230a385f	7.492932e-18
182	0x23cb2a7e	2.20273e-17
183	0x2433a4cc	3.8954026e-17
184	0x232cfd31	9.377754e-18
185	0x24b0d671	7.669111e-17
186	0x2419d4fb	3.3356988e-17
187	0x26049f14	4.601229e-16
188	0xa5371369	-1.5879296e-16
189	0xa4d74d4b	-9.3372326e-17
190	0x232bbdba	9.310105e-18
191	0x2283085d	3.5516476e-18
192	0xa440a5d2	-4.177382e-17
193	0xa81df4bf	-8.768322e-15
194	0xa6e9d2b6	-1.6224736e-15
195	0x22b1f633	4.823662e-18
196	0x215ff0f9	7.5874264e-19
197	0xa640e564	-6.6924264e-16
198	0xa8987028	-1.692403e-14
199	0xa7c7bd28	-5.543868e-15
200	0x0b362578	3.5080113e-32
201	0x0c29ca98	1.3080252e-31
202	0x0dc448e8	1.2096984e-30
203	0x110f3c75	1.1299341e-28
204	0x93e14e10	-5.687496e-27
205	0x09233f65	1.965022e-33
206	0x0a3827ed	8.866787e-33
207	0x09e2b8d6	5.458134e-33
208	0x8d6402d0	-7.026131e-31
209	0x942140ec	-8.141226e-27
210	0x0a7715ff	1.18967544e-32
211	0x09ab6b97	4.126793e-33
212	0x8d71f130	-7.4554178e-31
213	0x8fec7b85	-2.3318975e-29
214	0x95118361	-2.9386156e-26
215	0x8d2f8a81	-5.4092756e-31
216	0x8e6bf8d7	-2.9085798e-30
217	0x911ad666	-1.2214525e-28
218	0x94a9f6be	-1.7161962e-26
219	0x998b28f0	-1.4388798e-23
220	0x93967d67	-3.798898e-27
221	0x956a01db	-4.7257387e-26
222	0x98909153	-3.7369868e-24
223	0x9b5d9d96	-1.833161e-22
224	0x9e001090	-6.779689e-21
225	0x0000ab80	6.1523e-41
226	0x80009155	-5.2135e-41
227	0x0000af06	6.2787e-41
228	0x8000a73a	-5.999e-41
229	0x000007ab	2.751e-42
230	0x00009735	5.4243e-41
231	0x0000a7ac	6.015e-41
232	0x8000a2d8	-5.8417e-41
233	0x80004760	-2.5605e-41
234	0x80009cb6	-5.6217e-41
235	0x0000a012	5.7422e-41
236	0x80009e41	-5.6771e-41
237	0x0000982e	5.4592e-41
238	0x8000a8a5	-6.0498e-41
239	0x00009fb3	5.7289e-41
240	0x000096f5	5.4153e-41
241	0x80002c71	-1.5943e-41
242	0x00009fed	5.737e-41
243	0x8000a074	-5.756e-41
244	0x00000098	2.13e-43
245	0x80008f87	-5.1488e-41
246	0x80006b02	-3.8387e-41
247	0x80007aad	-4.4008e-41
248	0x80001432	-7.245e-42
249	0x80005f8e	-3.4279e-41
250	0x0000421e	2.3718e-41
251	0x00008ea9	5.1177e-41
252	0x8000aa46	-6.1083e-41
253	0x000016fc	8.245e-42
254	0x00005281	2.9597e-41
255	0x800057d1	-3.1503e-41

nested_model.unit2.conv.bias f4 [12]
0	0x800049b3	-2.6438e-41
1	0x34408c75	1.7932491e-07
2	0xb6e79404	-6.9015678e-06
3	0xb78868e1	-1.6261301e-05
4	0xb6213c11	-2.4025833e-06
5	0x378037f3	1.5284842e-05
6	0x357bf32c	9.385865e-07
7	0xb70233e6	-7.760687e-06
8	0x3769cbb2	1.3935309e-05
9	0x36117bdf	2.1678786e-06
10	0xb5976bac	-1.1281713e-06
11	0x36859b37	3.9817783e-06

nested_model.unit2.bn.weight f4 [12]
0	0xbb06eb4e	-0.002058703
1	0x3e9e8a4e	0.30964893
2	0x3e87181b	0.2638558
3	0x3f07fb0f	0.5311746
4	0x3eaacdf3	0.33360252
5	0x3ec285a2	0.3799258
6	0x3ec16d66	0.37778777
7	0x3e992868	0.2991364
8	0x3ee3c2ec	0.4448465
9	0x3e2b6b85	0.16740234
10	0x3e96ddbf	0.29466054
11	0x3f02f0ab	0.5114848

nested_model.unit2.bn.bias f4 [12]
0	0xbc717ac9	-0.014738747
1	0xbe60a567	-0.21938096
2	0xbe5bdc1d	-0.21470685
3	0xbe6edb1a	-0.23325768
4	0xbe59696c	-0.21231622
5	0xbe68a7e7	-0.227203
6	0xbe0405e6	-0.12892875
7	0xbe326c76	-0.17424187
8	0xbe6e61a9	-0.23279442
9	0xbe4e4a46	-0.2014552
10	0xbe5f4c7f	-0.21806525
11	0xbe54f382	-0.20796016

nested_model.unit2.bn.running_mean f4 [12]
0	0xb37571d8	-5.7147048e-08
1	0xbf1d9a36	-0.6156343
2	0xbf32850f	-0.6973428
3	0xbf52149f	-0.82062715
4	0xbf6dc04d	-0.9287155
5	0xbfe44a69	-1.7835208
6	0xbfed84c2	-1.855614
7	0xbf1c9c82	-0.6117631
8	0xbf72a8ef	-0.9478902
9	0x3f36b034	0.71362615
10	0xc027cc8f	-2.6218603
11	0xbf5fda70	-0.87442684

nested_model.unit2.bn.running_var f4 [12]
0	0x26d3b950	1.4691295e-15
1	0x3f8f3205	1.118714
2	0x3f481e8b	0.78171605
3	0x3ff35ac4	1.9012074
4	0x3f8c6db0	1.0970974
5	0x3fbec5da	1.490413
6	0x3fcaa005	1.5830084
7	0x3fa194a6	1.2623489
8	0x3fdb6cad	1.714254
9	0x3f832e0f	1.0248431
10	0x3ff7a6f1	1.9347821
11	0x40250c6b	2.578883

nested_model.unit3.conv.weight f4 [12, 12, 5, 5]
0	0xb3555a2d	-4.967494e-08
1	0xb5c664da	-1.4781501e-06
2	0xb4eb459c	-4.3822808e-07
3	0xb6bebdae	-5.684523e-06
4	0xb78e636c	-1.6974016e-05
5	0x3447ec86	1.8619366e-07
6	0xb39a2ea6	-7.179669e-08
7	0xb22e1ff4	-1.0135398e-08
8	0xb4b8a154	-3.4390052e-07
9	0xb60fd957	-2.143517e-06
10	0x33092489	3.1931027e-08
11	0xb32f09e7	-4.075437e-08
12	0xb123e032	-2.3847062e-09
13	0xb2e6e57c	-2.6879881e-08
14	0xb5198160	-5.7185207e-07
15	0x34af3b00	3.2639218e-07
16	0xb4e1020b	-4.1911002e-07
17	0xb321ceb9	-3.7673747e-08
18	0xb40730d5	-1.259062e-07
19	0xb616e636	-2.2485742e-06
20	0x35f08966	1.7921382e-06
21	0xb5850b64	-9.912587e-07
22	0xb3dd6acd	-1.03105414e-07
23	0xb3d67163	-9.9857765e-08
24	0xb60a01bd	-2.0564614e-06
25	0x3d8b50e0	0.06802535
26	0x3da68573	0.08130922
27	0x3b985965	0.0046493285
28	0xbd5261a0	-0.051362634
29	0x3d3ea800	0.046546936
30	0x3c001026	0.00781635
31	0x3e1397dd	0.144134
32	0x3dd26fbd	0.10275219
33	0x3cf4f2ab	0.02990087
34	0xbc770134	-0.01507597
35	0xbddaa37c	-0.106757134
36	0xbce5b986	-0.028042566
37	0xbd3e1f18	-0.046416372
38	0xbdc13996	-0.09434812
39	0xbd95d61e	-0.0731623
40	0xbe0fdcd3	-0.14049082
41	0xbe0ec5d1	-0.13942648
42	0xbe2205c3	-0.1582251
43	0xbe4ae620	-0.19814348
44	0xbde76a01	-0.112995155
45	0xbe057c3e	-0.13035676
46	0xbe4d294b	-0.20035283
47	0xbe4455bc	-0.1917333
48	0xbe48a0f7	-0.19592653
49	0xbe180e57	-0.1484922
50	0xbd93b3c0	-0.07212019
51	0xbe1cf7e2	-0.15328935
52	0xbe14a5cb	-0.1451637
53	0xbe30534b	-0.17219274
54	0xbe0e55ff	-0.13899992
55	0xbdbc5979	-0.09196753
56	0xbe6df939	-0.23239602
57	0xbe1200fb	-0.14258187
58	0xbd2faad6	-0.04288753
59	0xbd107fe4	-0.035278216
60	0xbd342ac2	-0.04398609
61	0xbe5d884c	-0.21634024
62	0xbd95520e	-0.07291041
63	0x3c295598	0.010335349
64	0x3ddb9243	0.107212566
65	0xbd581c10	-0.052761137
66	0xbdd17f7e	-0.10229395
67	0x3ce83252	0.028344307
68	0x3db1ddd0	0.086848855
69	0x3e2f50d4	0.17120677
70	0xbd0f4f8a	-0.034987964
71	0x3d4db1ad	0.050218273
72	0x3e3d5a79	0.18491544
73	0x3e0fdedc	0.14049858
74	0x3dacb1e7	0.0843237
75	0xbcc3454a	-0.02383675
76	0xbe11d507	-0.1424142
77	0xbe4670e5	-0.19379003
78	0xbe97b098	-0.29626918
79	0xbe34442f	-0.17604135
80	0x3dc67aa7	0.09691363
81	0xbd290f86	-0.04127457
82	0xbd9b58b9	-0.07585282
83	0xbe698cc0	-0.22807598
84	0x3c24414d	0.010025335
85	0x3e3d964a	0.18514362
86	0x3d6fa11d	0.05850326
87	0x3bdce41a	0.006741059
88	0xbe068672	-0.13137224
89	0x3de5ad71	0.11214722
90	0x3dc8df92	0.09808268
91	0xbc719416	-0.014744779
92	0x3cffe913	0.031239068
93	0xbdd990f6	-0.10623352
94	0x3e1e9a63	0.15488581
95	0x3db555df	0.08854269
96	0x3d15e6e0	0.036597133
97	0x3d823d1b	0.06359311
98	0x3d05d8f4	0.032677606
99	0x3e4d469c	0.20046467
100	0xbb70f8fa	-0.0036769495
101	0xbd786777	-0.060645547
102	0xbce1c7a3	-0.027561015
103	0xbdc2706a	-0.094940975
104	0x3d50d200	0.05098152
105	0xbd3a4e05	-0.04548456
106	0xbe2f3546	-0.17110166
107	0xbe012242	-0.12610725
108	0xbe218d62	-0.1577659
109	0x3db6d95b	0.08928176
110	0x3c7992b8	0.015232734
111	0xbdf22606	-0.11823659
112	0xbd18ca78	-0.037302464
113	0xbd4a4bfb	-0.049388867
114	0x3dbefbab	0.093253456
115	0x3e37d748	0.17953217
116	0xbd459ab3	-0.048243236
117	0xbd682e56	-0.056684814
118	0xbcd40894	-0.025882997
119	0x3c688e3e	0.014194069
120	0x3e8f07c7	0.2793562
121	0x3dd4b4a8	0.1038602
122	0xbd47814a	-0.048707284
123	0xbdd59397	-0.10428541
124	0xbd56df94	-0.052459314
125	0x3dfe4a9a	0.12416573
126	0x3e3e746e	0.18599102
127	0x3e857583	0.26066217
128	0x3e30710f	0.17230628
129	0x3e0bda17	0.13657413
130	0xbcffde76	-0.031234007
131	0xba175571	-0.00057729246
132	0x3e2aadcb	0.1666786
133	0x3e37b50a	0.17940155
134	0x3e4e0668	0.20119631
135	0xbe43b211	-0.19110896
136	0xbea98a4d	-0.33113328
137	0xbc8fc1a0	-0.017548382
138	0x3d1559a9	0.03646246
139	0x3e12ad36	0.14323887
140	0xbe4bcb29	-0.19901718
141	0xbe5a5b4e	-0.21323892
142	0xbc885e14	-0.016646422
143	0xbd77c384	-0.060489193
144	0xbd8b69f3	-0.068073176
145	0xbe1a4369	-0.15064777
146	0x3a96cf57	0.0011505884
147	0x3e437988	0.19089329
148	0x3d241c06	0.040065788
149	0xbdc039e0	-0.09386039
150	0x3df583b9	0.11988015
151	0x3e317885	0.17331131
152	0x3e1d871f	0.15383576
153	0xbabed0f6	-0.0014558125
154	0xbdc42e5f	-0.09579157
155	0x3ddda427	0.10822325
156	0x3be6c1a0	0.007042125
157	0x3ca643e0	0.020296037
158	0xbe260fc1	-0.16216947
159	0xbe81c932	-0.25348812
160	0xbdec04ca	-0.11524351
161	0xbe248de8	-0.16069758
162	0xbd8b24a8	-0.06794101
163	0xbe0c81a1	-0.13721325
164	0xbe109a34	-0.14121324
165	0xbda11e7e	-0.07867144
166	0xbc66c60d	-0.014085305
167	0x3d4f8911	0.050667826
168	0x3d8a5404	0.06754306
169	0xbdb4e851	-0.08833373
170	0xbd3d4f15	-0.046217997
171	0x3cb87b7a	0.022519816
172	0x3dfa72f6	0.12228958
173	0x3d66c058	0.056335777
174	0xbe44bffd	-0.19213863
175	0xbce710ec	-0.028206311
176	0xbd584774	-0.052802518
177	0xbd1d12e4	-0.038348094
178	0xbe09013c	-0.13379377
179	0xbe607e72	-0.21923235
180	0x3db86f33	0.090055846
181	0xbd8f42ee	-0.06995188
182	0xbe0ad1b5	-0.1355656
183	0xbe8311ee	-0.25599617
184	0xbe86616b	-0.262462
185	0x3d9abb1c	0.075552195
186	0xbdca2cbd	-0.098718144
187	0xbe18a8ba	-0.14908114
188	0xbe34fcb6	-0.17674527
189	0xbdd34904	-0.10316661
190	0x3d88367c	0.06651017
191	0xbd0e9c83	-0.03481723
192	0xbbf1b524	-0.00737633
193	0x3c48e5cb	0.012261818
194	0xbd60f106	-0.054917358
195	0x3d9361c8	0.07196385
196	0x3dfb34b1	0.122659095
197	0x3e0986e9	0.1343037
198	0x3de2c568	0.110728085
199	0xbe2146ba	-0.15749636
200	0x3dba6b4a	0.09102495
201	0x3dbf85e0	0.093517065
202	0x3df73300	0.12070274
203	0x3c0f9c73	0.008765328
204	0xbdf940b4	-0.12170544
205	0x3d663f2d	0.056212593
206	0xbc9fa7ab	-0.01948913
207	0x3dcfcb06	0.101461455
208	0xbe02f21f	-0.12787674
209	0xbe4a795e	-0.1977286
210	0xbc8469bc	-0.0161637
211	0xbd58bd04	-0.052914634
212	0x3d06d7c6	0.03292062
213	0xbe884e1a	-0.26622087
214	0xbe8e6091	-0.2780805
215	0xbc65387f	-0.0139905205
216	0x3dcf3db4	0.10119191
217	0x3e1b3bf0	0.15159583
218	0xbdfd6d93	-0.12374415
219	0xbe2677b0	-0.16256595
220	0x3d2aebea	0.04172889
221	0x3deb7a4d	0.114979364
222	0x3e3ee818	0.18643224
223	0x3d3326b2	0.043738075
224	0xbd874b6a	-0.06606181
225	0xbdc43677	-0.09580701
226	0x3dbe142e	0.09281193
227	0x3e18394a	0.14865604
228	0x3d817709	0.06321532
229	0x3cdf9fc1	0.027297856
230	0xbdc86b03	-0.09786036
231	0x3db735b3	0.08945789
232	0x3dea6f08	0.11446959
233	0x3b843725	0.004034894
234	0xbd390c99	-0.04517803
235	0xbdf2be74	-0.11852732
236	0xbdac144b	-0.08402308
237	0xbd075ee8	-0.033049494
238	0xbcca06ee	-0.024661507
239	0xbd7b79c0	-0.061395407
240	0xbdd54cfd	-0.10415075
241	0xbdc82188	-0.097720206
242	0xbb9f7c3d	-0.0048671053
243	0xbc4bf8a1	-0.0124494145
244	0xbcfc15e0	-0.03077215
245	0xbd95f3bb	-0.073218785
246	0xbd61fcd8	-0.05517277
247	0xbd9d6b64	-0.07686499
248	0xbd9da323	-0.076971315
249	0xbdcc6f3d	-0.099821545
250	0x3dffaab6	0.124837324
251	0x3de8a48b	0.11359509
252	0x3db4e750	0.08833182
253	0xbd250039	-0.040283415
254	0xbe1484f3	-0.14503841
255	0x3e07665a	0.13222638

nested_model.unit3.conv.bias f4 [12]
0	0x3750fe60	1.2456992e-05
1	0xb5408374	-7.1716863e-07
2	0xb7928a9e	-1.7469105e-05
3	0xb64aa049	-3.0193644e-06
4	0xb6f136e6	-7.1887507e-06
5	0x368d2411	4.206326e-06
6	0xb684eab0	-3.961228e-06
7	0xb5c44b1b	-1.4624997e-06
8	0xb53269b4	-6.6463986e-07
9	0xb5b93ad0	-1.3800691e-06
10	0xb602301a	-1.9399508e-06
11	0xb7739956	-1.451963e-05

nested_model.unit3.bn.weight f4 [12]
0	0x3f201547	0.62532467
1	0x3ebd534a	0.36977607
2	0x3ef90896	0.48639363
3	0x3f0712c8	0.5276303
4	0x3e944b31	0.28963616
5	0x3f05cdb2	0.5226699
6	0x3eadd9a9	0.33955124
7	0x3ec75083	0.38928613
8	0x3f0c07d9	0.54699475
9	0x3f061be2	0.52386296
10	0x3ed60385	0.4179956
11	0x3ef83515	0.48477998

nested_model.unit3.bn.bias f4 [12]
0	0xbedecfd1	-0.43517926
1	0xbdb6ef79	-0.089323945
2	0xbe77a008	-0.24182141
3	0xbd6a5dbd	-0.057218302
4	0xbe1f8467	-0.15577851
5	0xbe5cdc08	-0.2156831
6	0x3c4ab79d	0.012372878
7	0xbe4d8eda	-0.20074025
8	0xbe6f0f20	-0.23345613
9	0xbe84bc24	-0.2592479
10	0xbe399aef	-0.18125509
11	0xbe0c43a7	-0.13697682

nested_model.unit3.bn.running_mean f4 [12]
0	0xbf0641fb	-0.5244443
1	0xbf016235	-0.5054048
2	0xbdaa7f9a	-0.08325119
3	0xbf2ed72c	-0.68297076
4	0xbc26ba48	-0.010176249
5	0xbf165612	-0.5872508
6	0x3edb236c	0.42800462
7	0xbf4e9bc6	-0.8070644
8	0xbeab47a8	-0.33453107
9	0x3e340b09	0.17582335
10	0xbeb2ff28	-0.34960294
11	0xbf00bb07	-0.5028538

nested_model.unit3.bn.running_var f4 [12]
0	0x3e9731ab	0.2953008
1	0x3ead89cc	0.33894193
2	0x3e8afe53	0.2714716
3	0x3eeb926c	0.4601015
4	0x3e3cc71c	0.18435329
5	0x3e9f5b8f	0.3112454
6	0x3ecf8c7e	0.40536875
7	0x3eaffa6b	0.3437074
8	0x3eae7995	0.34077135
9	0x3e927e25	0.28611866
10	0x3e99bbc2	0.3002606
11	0x3e9fb54a	0.31193

nested_model.unit4.conv.weight f4 [12, 12, 5, 5]
0	0x3c0eb47f	0.008710026
1	0x3d912295	0.07086674
2	0xbd3dda76	-0.04635092
3	0xbd3ef161	-0.046616916
4	0xbd82520f	-0.06363308
5	0x3d8c4975	0.06849948
6	0x3e0262b3	0.12732963
7	0xbcbc1dc8	-0.02296342
8	0xbdbd8798	-0.09254378
9	0xbdbc79ad	-0.09202895
10	0x3df2ac13	0.11849227
11	0x3e092e02	0.13396457
12	0xbcb42870	-0.021991938
13	0xbdbcefdf	-0.09225439
14	0xbcb2d974	-0.021832205
15	0x3d6a47a4	0.057197228
16	0x3cc80a6a	0.024419028
17	0xbdfadc82	-0.1224909
18	0xbe0ad87f	-0.13559149
19	0xbd8f3700	-0.06992912
20	0xbd540def	-0.0517711
21	0xbd5e9ba7	-0.05434766
22	0xbddebcfd	-0.108758904
23	0xbdcbaa3e	-0.099445805
24	0xbdf587fa	-0.11988826
25	0xbd375b62	-0.044764884
26	0x3d1e4ca5	0.038647313
27	0x3de11bef	0.10991656
28	0x3dfd5c40	0.12371111
29	0x3d9e3130	0.077242255
30	0xbd04c2a9	-0.032412205
31	0x3d018cd5	0.03162845
32	0x3d992f37	0.07479709
33	0x3db6588d	0.089036085
34	0x3d159713	0.03652103
35	0x3d813e56	0.06310718
36	0x3d82fa24	0.06395367
37	0x3ce3646a	0.027757842
38	0xb9431ed1	-0.00018608129
39	0xbd39f982	-0.045403965
40	0x3e4b6351	0.19862105
41	0x3e1fed02	0.15617755
42	0x3d53b8a1	0.051689748
43	0x3ac3fd61	0.0014952832
44	0xbd9465b3	-0.0724596
45	0x3e5cf5c8	0.21578133
46	0x3e30234a	0.17200962
47	0x3da684a4	0.08130768
48	0x3d012e24	0.031538144
49	0xbd896f54	-0.06710687
50	0xbe22a6db	-0.15883963
51	0xbe072fcd	-0.13201828
52	0xbd85bf70	-0.065306544
53	0xbd875929	-0.06608803
54	0xbd3be8ca	-0.0458763
55	0xbe1d09df	-0.15335797
56	0xbe2b7b4d	-0.16746254
57	0xbdd856d7	-0.105634384
58	0xbde69790	-0.11259377
59	0xbcec7a09	-0.028866785
60	0xbe3307ba	-0.17483416
61	0xbe3cbb40	-0.18430805
62	0xbe08f01a	-0.13372841
63	0xbe132b89	-0.14372076
64	0xbd8ec952	-0.069719926
65	0xbdbfe1e0	-0.09369254
66	0xbde39ea7	-0.11114245
67	0xbdb2cdd4	-0.08730665
68	0xbda5f0d0	-0.08102572
69	0xbd98587a	-0.074387506
70	0xbd1a6e73	-0.03770299
71	0xbde81e47	-0.113339
72	0xbe265db0	-0.16246676
73	0xbe08db97	-0.13365017
74	0xbd927231	-0.071506865
75	0xbc9e50ab	-0.019325575
76	0xbba7da59	-0.0051224646
77	0x3d557a11	0.052118365
78	0x3dd8a5ce	0.105785
79	0x3e30ed28	0.17277968
80	0x3b899e4d	0.004199779
81	0xbd345c6a	-0.044033445
82	0xbd9353f6	-0.07193749
83	0xbd0973e5	-0.03355779
84	0x3d1acccf	0.037792977
85	0xbceb0795	-0.028690139
86	0xbd9463c1	-0.07245589
87	0xbdd77ee1	-0.10522247
88	0xbd3beef2	-0.045882173
89	0x3cabed2f	0.020987121
90	0xbd77e69e	-0.060522668
91	0xbdd73673	-0.10508432
92	0xbda3bbc6	-0.07994799
93	0xbbadbbc9	-0.0053019268
94	0x3d925fd8	0.07147187
95	0xbdf459c8	-0.11931187
96	0xbe185427	-0.14875852
97	0xbdc760f4	-0.09735289
98	0xbd725bca	-0.059169568
99	0x3be65ee3	0.0070303543
100	0x3c29b64a	0.0103584025
101	0x3bcfdd5f	0.006343528
102	0xbd3c9ee9	-0.046049986
103	0xbdacb625	-0.08433179
104	0xbe1ac254	-0.15113193
105	0xbcc85120	-0.024452746
106	0xbd62dfb2	-0.055389114
107	0xbde08575	-0.10962955
108	0xbdb3dc80	-0.087822914
109	0xbe072844	-0.13198954
110	0xbdfd87a6	-0.123793885
111	0xbe33b55f	-0.17549656
112	0xbe3573bf	-0.17719935
113	0xbdeca6b1	-0.11555231
114	0xbe1f0e1c	-0.15532726
115	0xbe3f24ba	-0.18666354
116	0xbe679790	-0.2261641
117	0xbe4131c7	-0.18866645
118	0xbe1d1468	-0.15339816
119	0xbe271353	-0.16315965
120	0xbe172e44	-0.14763743
121	0xbe4039ff	-0.18772124
122	0xbdce32c9	-0.1006828
123	0xbdb0006b	-0.0859383
124	0xbd9cba8f	-0.07652771
125	0xbe2198da	-0.15780964
126	0xbe20a9ea	-0.15689817
127	0xbcef04eb	-0.02917715
128	0x3d8905ce	0.0669056
129	0x3d7e22f3	0.06204505
130	0xbdf5b15e	-0.11996721
131	0xbe4b7cd6	-0.1987184
132	0xbe1e3c81	-0.15452768
133	0xbdb45e61	-0.08807064
134	0xbd1aa999	-0.037759397
135	0xbd0e60e5	-0.034760375
136	0xbe07834f	-0.13233684
137	0xbe489c54	-0.19590884
138	0xbe4c3e51	-0.19945647
139	0xbe0cad19	-0.13737907
140	0x3d85b21a	0.06528111
141	0xbc25afc4	-0.010112707
142	0xbdce0f71	-0.10061539
143	0xbdfff68b	-0.12498196
144	0xbdb9a361	-0.09064365
145	0x3e497fdd	0.19677682
146	0x3dc1ed78	0.09469122
147	0xbc343489	-0.0109988535
148	0xbd0febcb	-0.03513698
149	0xbd992cc1	-0.07479239
150	0x3dd17b39	0.10228581
151	0x3da9ae38	0.08285183
152	0x3d50b75e	0.050956123
153	0x3c8636ea	0.016383607
154	0xbcc104e6	-0.023561906
155	0x3dd9e5b3	0.10639515
156	0x3dad6038	0.08465618
157	0x3d888017	0.06665056
158	0x3da84a80	0.08217335
159	0x3d86d13e	0.065828785
160	0x3d867c15	0.065666355
161	0x3da0f2eb	0.07858833
162	0x3d82119c	0.06351015
163	0x3db51b9e	0.08843158
164	0x3da47c90	0.08031571
165	0x3db64276	0.08899395
166	0x3d9f3e58	0.07775563
167	0x3d950964	0.07277182
168	0x3d865fb6	0.06561224
169	0x3d4ce977	0.050027337
170	0x3d6c283d	0.05765556
171	0x3cbb9bc6	0.022901427
172	0xbc4d0328	-0.01251296
173	0xbd303ec9	-0.043028627
174	0xbd640b36	-0.055674754
175	0xbe1896dc	-0.14901298
176	0xbd83e0e9	-0.064393826
177	0x3abab81e	0.0014245545
178	0xbca8446e	-0.020540442
179	0x3bda910a	0.006670122
180	0xbd7cb681	-0.061697487
181	0x3d77151f	0.060322877
182	0x3e0ba173	0.13635807
183	0x3e1125c4	0.14174563
184	0x3e2bb1c6	0.16767034
185	0x3d80c287	0.06287103
186	0x3e5c2b98	0.21501005
187	0x3e9ec97b	0.31013092
188	0x3e88cb62	0.2671767
189	0x3e437a0e	0.19089529
190	0x3e01f779	0.1269206
191	0x3e95ee96	0.2928359
192	0x3ebf2413	0.3733221
193	0x3eb75b3e	0.358118
194	0x3e7d0e92	0.2471259
195	0x3d6f36eb	0.058401983
196	0x3e2644ae	0.16237137
197	0x3e5930b2	0.21209982
198	0x3e79aaf6	0.24381623
199	0x3e453019	0.19256629
200	0x3cad05eb	0.021120986
201	0xb9538a33	-0.00020174011
202	0x3d77fbfd	0.06054305
203	0x3db6af7c	0.0892019
204	0x3e0e194b	0.13876836
205	0x3d323c6e	0.04351466
206	0x3bbe2863	0.0058031543
207	0x3cb06bcd	0.021535778
208	0x3c281d3f	0.010260879
209	0x3d847ca6	0.06469087
210	0xbb606501	-0.003423989
211	0xbd6bd8ce	-0.057579808
212	0xbda09a45	-0.078419246
213	0xbd96189a	-0.07328911
214	0xbca3fa5f	-0.020016847
215	0xbd59af13	-0.05314548
216	0xbd68589e	-0.056725137
217	0xbd2aad63	-0.04166926
218	0xbbfc7780	-0.007704675
219	0x3ce6df18	0.028182551
220	0x3c7aae35	0.015300323
221	0x3c847d36	0.016172986
222	0x3c93aacb	0.018025776
223	0x3d0f5360	0.034991622
224	0x3d33fc3c	0.04394172
225	0x3cace274	0.021104075
226	0x3ce8a498	0.028398797
227	0x3d3a27fa	0.04544828
228	0xbc99acea	-0.01875921
229	0xbd4f9c25	-0.05068602
230	0xbd9c3026	-0.07626371
231	0xbc53ea61	-0.012934298
232	0x3d11409b	0.035462003
233	0xbdb5eac9	-0.08882672
234	0xbe54a032	-0.20764235
235	0xbe0e851d	-0.13917966
236	0xbdb996d9	-0.09061975
237	0x3c6afa5b	0.014341916
238	0xbd408afd	-0.04700755
239	0xbe4b7e43	-0.19872384
240	0xbe00c157	-0.12573753
241	0xbe3ca109	-0.18420805
242	0xbdb4cb92	-0.088278905
243	0xbd20833a	-0.039187647
244	0xbdd5a29f	-0.10431408
245	0xbdac0195	-0.08398739
246	0xbe81a7f2	-0.25323445
247	0xbe652ff7	-0.22381578
248	0xbda243cd	-0.07923088
249	0xbd54ce20	-0.05195439
250	0x3d043c16	0.032283865
251	0x3dfc9bef	0.123344295
252	0x3df243c2	0.1182933
253	0x3da1038b	0.07862004
254	0x3c9bfee4	0.01904244
255	0xbcb436d8	-0.021998808

nested_model.unit4.conv.bias f4 [12]
0	0xb577ca45	-9.230901e-07
1	0xb685f43e	-3.9921424e-06
2	0x360a3edb	2.060019e-06
3	0x36c5de07	5.896905e-06
4	0x357039c4	8.949103e-07
5	0x36332c8b	2.6699006e-06
6	0x35a1c71a	1.2053381e-06
7	0xb67ce89b	-3.768632e-06
8	0xb59ef9b0	-1.1844586e-06
9	0x35ac2576	1.2825901e-06
10	0xb50ae43c	-5.174113e-07
11	0x369ffbfc	4.767904e-06

nested_model.unit4.bn.weight f4 [12]
0	0x3f3b7efb	0.7324063
1	0x3f68e127	0.90968555
2	0x3f5766a4	0.8414099
3	0x3f8428bd	1.0324932
4	0x3f1d7bb3	0.61516875
5	0x3f411fc5	0.754391
6	0x3f6bebaa	0.9215647
7	0x3f3625ce	0.71151435
8	0x3f44b4c6	0.7683834
9	0x3f46794e	0.77528846
10	0x3f4faf51	0.81126887
11	0x3f92dab6	1.1472995

nested_model.unit4.bn.bias f4 [12]
0	0x3d89b44e	0.067238435
1	0xbdcdc359	-0.10047025
2	0x3da4631a	0.080267146
3	0xbcb9a48d	-0.022661472
4	0x3d775dc9	0.060392175
5	0x3d108597	0.03528365
6	0x3de6a0f8	0.11261171
7	0x3de02eb5	0.10946409
8	0xbd4f7166	-0.050645255
9	0x3dbbd35e	0.091711745
10	0x3d06cc8c	0.032909915
11	0xbda387aa	-0.0798486

nested_model.unit4.bn.running_mean f4 [12]
0	0xbe35569a	-0.17708817
1	0xbf277452	-0.65411866
2	0xbcfdbc49	-0.03097357
3	0xbe5e3804	-0.21701056
4	0xbd7aa697	-0.06119403
5	0xbdcf04e1	-0.101083525
6	0xbf7b1a5a	-0.98087084
7	0xbf1cc0ad	-0.612315
8	0xbd51abb7	-0.05118915
9	0xbf1b1c91	-0.60590464
10	0x3edae82e	0.42755264
11	0xbd003261	-0.031298045

nested_model.unit4.bn.running_var f4 [12]
0	0x3ec0e3f2	0.37673908
1	0x3eb0b297	0.34511253
2	0x3ecdd588	0.40201974
3	0x3f013d5b	0.50484246
4	0x3eb6c88d	0.35699883
5	0x3eb9e981	0.36310962
6	0x3f4c0afd	0.79704267
7	0x3f08a283	0.53372973
8	0x3ea6f176	0.32606095
9	0x3ed8e7e4	0.42364419
10	0x3f009d28	0.502398
11	0x3edf251f	0.4358301

nested_model.net.0.conv.weight f4 [12, 3, 5, 5]
0	0x3e1f8a83	0.15580182
1	0x3e650d7b	0.22368424
2	0x3dd9dc61	0.10637737
3	0x3e2a4f17	0.16631733
4	0xbd2dda46	-0.04244449
5	0x3dcc1f0a	0.09966858
6	0xbe8dc64a	-0.27690345
7	0x3de49b7b	0.11162468
8	0x3e8b0721	0.27153876
9	0xbca3b61a	-0.019984294
10	0x3dffba7d	0.12486742
11	0x3d6ade13	0.057340693
12	0xbe044f78	-0.1292094
13	0xbe4389d5	-0.19095547
14	0xbe7594db	-0.23982565
15	0xbd6668f2	-0.056252427
16	0x3e41a80d	0.18911763
17	0xbe8e7cb0	-0.27829504
18	0xbdd5456a	-0.1041363
19	0xba8ebcf5	-0.0010890054
20	0xbbe50264	-0.0069888104
21	0x3ba52722	0.0050400654
22	0xbd1c1745	-0.03810813
23	0xbd71bfc7	-0.059020784
24	0xbd84c7f3	-0.0648345
25	0xbe2ba1d7	-0.16760956
26	0x3d2b9575	0.04189058
27	0xbdd9fc81	-0.106438644
28	0x3e2c03bc	0.167983
29	0x3de0288c	0.10945234
30	0xbc9ef6a2	-0.019404713
31	0xbee8971f	-0.45427796
32	0x3e3e5d06	0.18590173
33	0x3e88d2e6	0.26723403
34	0xbd1433d5	-0.036182243
35	0x3dcf0cbd	0.101098515
36	0x3dfd077e	0.12354945
37	0xbcb597ac	-0.02216705
38	0xbd7aa58c	-0.061193034
39	0xbd3f1294	-0.046648577
40	0xbe1e5e2f	-0.15465616
41	0x3e2fc93d	0.1716661
42	0xbe26205b	-0.1622328
43	0x3db7c2d7	0.089727096
44	0x3da53367	0.08066445
45	0xbd60bc9b	-0.05486737
46	0xbd1d6fcf	-0.038436707
47	0x3d58f7fc	0.05297087
48	0x3d50c316	0.0509673
49	0xbd9f2d34	-0.07772294
50	0xbd2dcbb5	-0.0424306
51	0xbd57ca99	-0.052683447
52	0xbe0c872d	-0.1372344
53	0xbd9ea744	-0.07746747
54	0xbddb62cf	-0.107122056
55	0x3dd2f4b2	0.10300578
56	0xbeeba0bc	-0.46021068
57	0x3db205d3	0.08692517
58	0x3e9a0b0b	0.3008655
59	0x3cc3a0bc	0.023880355
60	0x3dd6427e	0.10461901
61	0x3a63e598	0.0008693575
62	0xbdaa2d6e	-0.08309446
63	0x3db40af0	0.08791149
64	0xbe07c0d3	-0.1325715
65	0xbde9d4de	-0.11417554
66	0x3e83ec17	0.2576606
67	0xbdef8eff	-0.11697196
68	0x3daf433a	0.08557744
69	0x3c9958ed	0.01871916
70	0x3db0a106	0.08624463
71	0xbc972da4	-0.01845438
72	0x3b721bdf	0.0036942882
73	0x3e2ff24e	0.17182276
74	0x3d60d273	0.0548882
75	0x3d933770	0.07188308
76	0x3daa17d8	0.08305329
77	0xbc109e19	-0.008826756
78	0xbccb94a4	-0.02485115
79	0xbdcd0b2e	-0.10011898
80	0xbd676004	-0.056488052
81	0xbbfcb749	-0.007712279
82	0xbbd473d8	-0.006483536
83	0xbe180277	-0.1484469
84	0xbdf0ff5c	-0.11767456
85	0xbc6b1bef	-0.014349922
86	0x3d8be3fe	0.068305954
87	0xbd18e4e9	-0.03732768
88	0xbe0a919d	-0.1353211
89	0xbe010231	-0.12598492
90	0x3df47b80	0.11937618
91	0x3e0eb9e6	0.13938102
92	0x3d57e01a	0.052703954
93	0x3d291976	0.041284047
94	0xbc35cf81	-0.011096836
95	0x3da5ae78	0.08089918
96	0x3e445d0f	0.19176124
97	0x3e22d518	0.15901601
98	0x3d86d029	0.06582672
99	0x3d0ff297	0.03514346
100	0x3caabd7b	0.020842304
101	0x3ca5cf7a	0.020240534
102	0xbdc1c1cb	-0.09460791
103	0xbe8241fb	-0.25440964
104	0xbe80c9d3	-0.2515398
105	0x3c70ab54	0.014689285
106	0xbd002fc4	-0.031295553
107	0xbe07fed4	-0.13280803
108	0xbe1c4f3b	-0.15264599
109	0xbe4be532	-0.1991165
110	0x3a3dda0d	0.000724227
111	0x3dade068	0.08490068
112	0x3c71057b	0.014710779
113	0xbe5faee3	-0.21844058
114	0xbe2014c1	-0.15632917
115	0x3dc161b0	0.094424605
116	0x3d98354f	0.07432043
117	0x3cbc13cd	0.02295866
118	0xbe00ea59	-0.12589397
119	0xbdf09191	-0.117465146
120	0x3dd0835b	0.10181304
121	0x3dc14d56	0.09438579
122	0x3b5ffa58	0.0034176316
123	0xbb7f90a8	-0.0038996134
124	0x3ac779c4	0.0015218784
125	0x3d93e771	0.07221878
126	0x3d911dcc	0.070857614
127	0xbdd487ce	-0.10377465
128	0xbe3c93fb	-0.18415825
129	0xbe307906	-0.17233667
130	0x3df0b4fe	0.117532715
131	0x3d98c609	0.07459647
132	0xbc877de3	-0.01653952
133	0xbe228694	-0.1587165
134	0xbda65ff3	-0.081237696
135	0x3e00ffe0	0.12597609
136	0x3df4dc9b	0.1195614
137	0x3d3c6d8a	0.046002902
138	0xbe13222a	-0.14368501
139	0xbde4e019	-0.11175556
140	0x3dc9e509	0.09858138
141	0x3e6611f4	0.22467786
142	0x3e190e91	0.14946963
143	0xbd1f9b4c	-0.038966462
144	0xbc8dd0e2	-0.017311517
145	0x3e7836e2	0.24239686
146	0x3e4485ae	0.1919162
147	0x3e13c44a	0.14430347
148	0x3db8e958	0.09028882
149	0x3ca9418c	0.020661138
150	0x3c9868e8	0.01860471
151	0x3e218632	0.15773848
152	0x3e255239	0.16144647
153	0x3d79224e	0.06082373
154	0x3e10880f	0.14114402
155	0x3da1f12f	0.0790733
156	0x3dfc2282	0.12311269
157	0x3e02d51a	0.12776604
158	0x3dc319db	0.09526416
159	0x3d4bf759	0.049796436
160	0x3e3f6579	0.18691052
161	0xbd86e8d6	-0.06587379
162	0xbeb1ba3f	-0.34712407
163	0x3da1814e	0.07885991
164	0x3d5c3dcf	0.053769883
165	0x3cc29dbd	0.023756856
166	0xbdb2f4c8	-0.087380946
167	0xbe83f3c3	-0.25771913
168	0xbe35fe0b	-0.17772691
169	0xbddd1cb1	-0.10796488
170	0x3cbd94e8	0.023142293
171	0xbe15f97b	-0.1464595
172	0xbdef90fc	-0.116975754
173	0xbd5b0f9b	-0.05348168
174	0xbdcde9cf	-0.10054361
175	0x3d3e5889	0.046471152
176	0x3e675386	0.22590455
177	0x3de0ee69	0.10982973
178	0xbc932651	-0.017962607
179	0x3bd4690c	0.006482249
180	0x3e30fadd	0.17283197
181	0x3dc3b1db	0.095554076
182	0x3e08b3ef	0.13349889
183	0x3d0c320a	0.03422741
184	0xbd8c7153	-0.068575524
185	0x3e7e0eb1	0.24810292
186	0xbd59886b	-0.053108614
187	0xbed8cac6	-0.42342204
188	0x3d65de1f	0.056120034
189	0xbd52cc04	-0.051464096
190	0x3cbc3005	0.022972116
191	0xbdeebd2f	-0.11657178
192	0xbe5b21f4	-0.21399671
193	0xbd576241	-0.052583937
194	0x3b3543e6	0.0027658879
195	0x3d62987e	0.05532121
196	0xbcdf1b52	-0.027234707
197	0xbdff2e73	-0.12460031
198	0x3d32df8f	0.043670233
199	0xbba0715e	-0.004896327
200	0xbdad2cb6	-0.084557936
201	0xbd8a2128	-0.06744605
202	0xbe714c01	-0.2356415
203	0xbe54a526	-0.20766124
204	0xbe021dac	-0.12706631
205	0xbcf080eb	-0.029358348
206	0xbd8925e7	-0.066966824
207	0x3bb33697	0.005469154
208	0xbd920f74	-0.07131854
209	0xbd197357	-0.037463512
210	0x3e1cf8ac	0.15329236
211	0x3c87f57e	0.016596552
212	0xbe5e9f21	-0.2174039
213	0x3e3f2936	0.18668064
214	0x3d11081a	0.035408117
215	0xbcac1c28	-0.02100952
216	0x3c3b8240	0.011444628
217	0xbc7de5d9	-0.0154966945
218	0x3db63102	0.08896066
219	0x3dd260c9	0.102723666
220	0x3d84bc1c	0.064811915
221	0x3c5a8ddc	0.013339486
222	0x3e267e2d	0.1625907
223	0x3e36a0d5	0.1783479
224	0x3e00ff51	0.12597395
225	0xbd8e965f	-0.06962275
226	0x3db82355	0.08991114
227	0xbd3bb4eb	-0.045826834
228	0xbe22f833	-0.15914993
229	0xbe1ae3cd	-0.15125962
230	0x3b822c5d	0.0039725737
231	0x3d2c0cc8	0.042004377
232	0x3e5dcfaf	0.21661256
233	0x3dcdf593	0.10056605
234	0xbce98d2f	-0.028509704
235	0xbd48518e	-0.0489059
236	0xbe014072	-0.1262224
237	0x3e014126	0.12622508
238	0x3d8c83fd	0.06861112
239	0xbd2a6ad1	-0.041605774
240	0xbe4401ca	-0.19141307
241	0xbdfd1bc1	-0.12358809
242	0x3c8de257	0.017319841
243	0x3d196e13	0.03745849
244	0x3ca03e5c	0.019560985
245	0xbc799ade	-0.015234677
246	0x3d30efe8	0.043197542
247	0x3ca37270	0.019952029
248	0xbceb6cd4	-0.028738417
249	0x3c5ec10e	0.0135958325
250	0x3dd10c28	0.10207397
251	0x3e6aa8dd	0.22915979
252	0x3e70d48e	0.23518583
253	0x3e07bec2	0.13256362
254	0x3d98e6e4	0.07465914
255	0x3cb7a195	0.022415916

nested_model.net.0.conv.bias f4 [12]
0	0x3830b9e1	4.2134783e-05
1	0x366a2071	3.48876e-06
2	0x37ed7387	2.8306398e-05
3	0x37d4cc5f	2.5367537e-05
4	0x3761f30e	1.3467636e-05
5	0x3694734c	4.424166e-06
6	0xb7bb8e11	-2.2358292e-05
7	0x3729c87f	1.0119867e-05
8	0xb750a6b8	-1.2436583e-05
9	0x36d95c4e	6.4778496e-06
10	0x369c2bb1	4.6542486e-06
11	0x369dec50	4.706475e-06

nested_model.net.0.bn.weight f4 [12]
0	0x3f68f2b4	0.90995336
1	0x3eed54c4	0.46353734
2	0x3f3219a2	0.6957036
3	0x3efeb3f8	0.4974668
4	0x3eddb8b1	0.4330497
5	0x3df2f317	0.11862772
6	0x3e90f195	0.28309312
7	0x3f06b662	0.52622044
8	0x3f00577f	0.5013351
9	0x3e6164c0	0.2201109
10	0x3e92840d	0.28616372
11	0x3ed14b1a	0.4087761

nested_model.net.0.bn.bias f4 [12]
0	0x3f6f897e	0.9356917
1	0xbde6dd34	-0.1127266
2	0x3ed58041	0.41699412
3	0x3e10a26f	0.14124463
4	0xbd90e2d4	-0.07074514
5	0x3d40300d	0.046920825
6	0xbc7e8cf8	-0.015536539
7	0x3e436d27	0.19084607
8	0xbe04d63c	-0.12972349
9	0xbe4ef7d6	-0.2021173
10	0xbe2ec245	-0.17066295
11	0xbe28a567	-0.16469346

nested_model.net.0.bn.running_mean f4 [12]
0	0x3cd60e25	0.026129792
1	0xbd9235e9	-0.07139189
2	0xbd09199b	-0.033471685
3	0xbca89664	-0.020579524
4	0xbdbdd08f	-0.09268295
5	0x3f9d0585	1.226731
6	0xbdc5119b	-0.096224986
7	0x3d29c17a	0.04144428
8	0x3d17b8cf	0.03704148
9	0xbf852d8c	-1.0404525
10	0xbe5d02a4	-0.21583039
11	0xbfb9c2c3	-1.4512562

nested_model.net.0.bn.running_var f4 [12]
0	0x3cee6320	0.0291
1	0x3ed2b473	0.41153297
2	0x3d8d3484	0.06894782
3	0x3e76a027	0.24084531
4	0x3df13c87	0.11779123
5	0x3f19f0ef	0.6013326
6	0x3d4f482f	0.05060595
7	0x3de010a4	0.10940674
8	0x3ea95535	0.3307282
9	0x3ef8da97	0.4860427
10	0x3df77c62	0.12084271
11	0x3f4b04b8	0.79304075

nested_model.net.1.conv.weight f4 [12, 12, 5, 5]
0	0x2e83ffb2	6.002611e-11
1	0x2eb4267e	8.19229e-11
2	0x2e3f563d	4.3504967e-11
3	0x2f2e9f3d	1.588178e-10
4	0xaf9d1f00	-2.858016e-10
5	0x2daecb63	1.9871832e-11
6	0x2d8f13ed	1.6266067e-11
7	0x2dca8722	2.3024752e-11
8	0x2e661d36	5.232189e-11
9	0xb010fdeb	-5.2747734e-10
10	0xabccab33	-1.4542589e-12
11	0xad37e3e5	-1.0452948e-11
12	0xadf8ce61	-2.8285986e-11
13	0xafd4bf21	-3.869838e-10
14	0xb04fc36c	-7.558387e-10
15	0xade52ab4	-2.605325e-11
16	0xae5ae784	-4.977309e-11
17	0xaf8e9a40	-2.593925e-10
18	0xb03e3b6e	-6.920605e-10
19	0xb164eb76	-3.331221e-09
20	0xaf021174	-1.1829632e-10
21	0xaf7298e7	-2.2064094e-10
22	0xb109afe6	-2.003611e-09
23	0xb237876f	-1.0682796e-08
24	0xb336d8bb	-4.2572292e-08
25	0x80000e46	-5.12e-42
26	0x811602e1	-2.7552714e-38
27	0x12f7bc4d	1.5634311e-27
28	0x9a33380a	-3.70616e-23
29	0x8ae5da20	-2.2133947e-32
30	0x00004517	2.4785e-41
31	0x83d53500	-1.2531183e-36
32	0x13402ca1	2.425581e-27
33	0x992ebed0	-9.0341234e-24
34	0x0653dfb3	3.9849038e-35
35	0x80002b1b	-1.5463e-41
36	0x8141ab5d	-3.557145e-38
37	0x10b28a95	7.042214e-29
38	0x96d5fcc0	-3.4571514e-25
39	0x01b5cc75	6.678228e-38
40	0x00007fe9	4.5886e-41
41	0x803a3ba9	-5.347861e-39
42	0x8d128eb4	-4.5161496e-31
43	0x94190bda	-7.726863e-27
44	0x800325a1	-2.89005e-40
45	0x80000134	-4.32e-43
46	0x8023a546	-3.273531e-39
47	0x896e3b7e	-2.8676181e-33
48	0x92afa8e8	-1.1085691e-27
49	0x00007b25	4.4176e-41
50	0x26124d9e	5.0759116e-16
51	0x2547ac04	1.731878e-16
52	0x23dc6485	2.389502e-17
53	0xa51ab27f	-1.3417848e-16
54	0xa55f438d	-1.9365054e-16
55	0x235275bb	1.1409053e-17
56	0xa4b83fde	-7.9905475e-17
57	0xa49c1a11	-6.7698374e-17
58	0xa33b33fe	-1.01483e-17
59	0xa2ca160a	-5.4775544e-18
60	0xa54f865e	-1.7999913e-16
61	0xa4d63eb6	-9.291394e-17
62	0xa266413c	-3.1205347e-18
63	0xa0425e52	-1.6463647e-19
64	0xa23e7ff0	-2.5817531e-18
65	0xa7313a42	-2.4595266e-15
66	0xa4d4e5a1	-9.232935e-17
67	0xa363335f	-1.2316573e-17
68	0xa4562968	-4.6438925e-17
69	0xa28af19e	-3.7660797e-18
70	0xa4b078db	-7.653257e-17
71	0xa413d71a	-3.2057742e-17
72	0xa200d570	-1.7460228e-18
73	0xa383e2cd	-1.4299102e-17
74	0xa4522e93	-4.557594e-17
75	0x96aba82b	-2.773267e-25
76	0x9445aa87	-9.979589e-27
77	0x91f8a49a	-3.9228944e-28
78	0x0f2acdbf	8.421272e-30
79	0x0f43dc14	9.656628e-30
80	0x978bfd16	-9.046552e-25
81	0x97848c31	-8.565689e-25
82	0x97052ffa	-4.3035173e-25
83	0x9438091b	-9.291422e-27
84	0x930a9995	-1.749377e-27
85	0x99857c53	-1.3802092e-23
86	0x9b038ce5	-1.0881592e-22
87	0x9b39de92	-1.5374758e-22
88	0x9981498d	-1.3367994e-23
89	0x9889c4d4	-3.5612416e-24
90	0x9ccb20d5	-1.34419e-21
91	0x9dc981d1	-5.3338484e-21
92	0x9d5a03e5	-2.8854073e-21
93	0x9ba89c7c	-2.7894394e-22
94	0x9bfa072b	-4.1363663e-22
95	0x9908da55	-7.075127e-24
96	0x97c37951	-1.2632204e-24
97	0x95b70115	-7.391482e-26
98	0x93c21df2	-4.9002013e-27
99	0x97135581	-4.7606183e-25
100	0x800be10d	-1.090923e-39
101	0x01af93aa	6.4496735e-38
102	0x05f2f5f9	2.2847927e-35
103	0x8c1005e0	-1.1095124e-31
104	0x068d8dec	5.324684e-35
105	0x000049c9	2.6469e-41
106	0x80047956	-4.10869e-40
107	0x038994da	8.086311e-37
108	0x8a847bbb	-1.275768e-32
109	0x052c260c	8.094389e-36
110	0x800065ba	-3.6493e-41
111	0x00007599	4.2186e-41
112	0x0184e62d	4.881943e-38
113	0x06222d66	3.0502167e-35
114	0x807a1d7e	-1.121451e-38
115	0x00001f07	1.113e-41
116	0x00000871	3.028e-42
117	0x001689e2	2.069844e-39
118	0x05302171	8.2816224e-36
119	0x00005ef2	3.406e-41
120	0x00005a8b	3.248e-41
121	0x0007ae91	7.05471e-40
122	0x04aeed17	4.1124936e-36
123	0x067f6582	4.8034746e-35
124	0x0000449b	2.4611e-41
125	0x80000d54	-4.781e-42
126	0x000099e6	5.5208e-41
127	0x00005a69	3.2433e-41
128	0x00003809	2.0102e-41
129	0x000083f8	4.7341e-41
130	0x8001dde2	-1.71432e-40
131	0x80004a73	-2.6707e-41
132	0x80000d9c	-4.882e-42
133	0x8000e1a0	-8.0939e-41
134	0x80063e85	-5.73441e-40
135	0x000054aa	3.0372e-41
136	0x00000015	3e-44
137	0x80000c58	-4.428e-42
138	0x8004687c	-4.04824e-40
139	0x8022a23e	-3.180608e-39
140	0x00016446	1.27807e-40
141	0x0000ab3e	6.143e-41
142	0x000084ac	4.7594e-41
143	0x8008558e	-7.65375e-40
144	0x808b5141	-1.2794282e-38
145	0x0000587d	3.1744e-41
146	0x0000a1a1	5.7982e-41
147	0x000075b5	4.2225e-41
148	0x80161809	-2.029003e-39
149	0x806accab	-9.807984e-39
150	0xa7fc864c	-7.0089656e-15
151	0x278005c6	3.5533396e-15
152	0x298018e5	5.6886604e-14
153	0x2a48b251	1.7825434e-13
154	0x2aa15c14	2.8663237e-13
155	0xa7c43d87	-5.4467636e-15
156	0x28a16bae	1.792129e-14
157	0x29dfc545	9.93741e-14
158	0x2a8bf48e	2.4861054e-13
159	0x2a9cb32d	2.7835495e-13
160	0x26d9c253	1.5110071e-15
161	0x28a7336e	1.8563029e-14
162	0x2a1f1523	1.412937e-13
163	0x2ab183c8	3.1532958e-13
164	0x2ada7686	3.880682e-13
165	0x287caf90	1.4026879e-14
166	0x298e1933	6.310438e-14
167	0x2a7b2d57	2.2309009e-13
168	0x2b0a9f0d	4.9248176e-13
169	0x2b5cdb8f	7.84644e-13
170	0x29193cb3	3.4025473e-14
171	0x29d5fece	9.503302e-14
172	0x2aac02b0	3.0555202e-13
173	0x2b94119b	1.0520919e-12
174	0x2c351277	2.5731897e-12
175	0x239f651e	1.728164e-17
176	0x218956a6	9.306417e-19
177	0x21f0bc07	1.6312803e-18
178	0x21c2cd34	1.3200268e-18
179	0x226a15d9	3.172448e-18
180	0x2504fed8	1.153552e-16
181	0x230a385f	7.492932e-18
182	0x23cb2a7e	2.20273e-17
183	0x2433a4cc	3.8954026e-17
184	0x232cfd31	9.377754e-18
185	0x24b0d671	7.669111e-17
186	0x2419d4fb	3.3356988e-17
187	0x26049f14	4.601229e-16
188	0xa5371369	-1.5879296e-16
189	0xa4d74d4b	-9.3372326e-17
190	0x232bbdba	9.310105e-18
191	0x2283085d	3.5516476e-18
192	0xa440a5d2	-4.177382e-17
193	0xa81df4bf	-8.768322e-15
194	0xa6e9d2b6	-1.6224736e-15
195	0x22b1f633	4.823662e-18
196	0x215ff0f9	7.5874264e-19
197	0xa640e564	-6.6924264e-16
198	0xa8987028	-1.692403e-14
199	0xa7c7bd28	-5.543868e-15
200	0x0b362578	3.5080113e-32
201	0x0c29ca98	1.3080252e-31
202	0x0dc448e8	1.2096984e-30
203	0x110f3c75	1.1299341e-28
204	0x93e14e10	-5.687496e-27
205	0x09233f65	1.965022e-33
206	0x0a3827ed	8.866787e-33
207	0x09e2b8d6	5.458134e-33
208	0x8d6402d0	-7.026131e-31
209	0x942140ec	-8.141226e-27
210	0x0a7715ff	1.18967544e-32
211	0x09ab6b97	4.126793e-33
212	0x8d71f130	-7.4554178e-31
213	0x8fec7b85	-2.3318975e-29
214	0x95118361	-2.9386156e-26
215	0x8d2f8a81	-5.4092756e-31
216	0x8e6bf8d7	-2.9085798e-30
217	0x911ad666	-1.2214525e-28
218	0x94a9f6be	-1.7161962e-26
219	0x998b28f0	-1.4388798e-23
220	0x93967d67	-3.798898e-27
221	0x956a01db	-4.7257387e-26
222	0x98909153	-3.7369868e-24
223	0x9b5d9d96	-1.833161e-22
224	0x9e001090	-6.779689e-21
225	0x0000ab80	6.1523e-41
226	0x80009155	-5.2135e-41
227	0x0000af06	6.2787e-41
228	0x8000a73a	-5.999e-41
229	0x000007ab	2.751e-42
230	0x00009735	5.4243e-41
231	0x0000a7ac	6.015e-41
232	0x8000a2d8	-5.8417e-41
233	0x80004760	-2.5605e-41
234	0x80009cb6	-5.6217e-41
235	0x0000a012	5.7422e-41
236	0x80009e41	-5.6771e-41
237	0x0000982e	5.4592e-41
238	0x8000a8a5	-6.0498e-41
239	0x00009fb3	5.7289e-41
240	0x000096f5	5.4153e-41
241	0x80002c71	-1.5943e-41
242	0x00009fed	5.737e-41
243	0x8000a074	-5.756e-41
244	0x00000098	2.13e-43
245	0x80008f87	-5.1488e-41
246	0x80006b02	-3.8387e-41
247	0x80007aad	-4.4008e-41
248	0x80001432	-7.245e-42
249	0x80005f8e	-3.4279e-41
250	0x0000421e	2.3718e-41
251	0x00008ea9	5.1177e-41
252	0x8000aa46	-6.1083e-41
253	0x000016fc	8.245e-42
254	0x00005281	2.9597e-41
255	0x800057d1	-3.1503e-41

nested_model.net.1.conv.bias f4 [12]
0	0x800049b3	-2.6438e-41
1	0x34408c75	1.7932491e-07
2	0xb6e79404	-6.9015678e-06
3	0xb78868e1	-1.6261301e-05
4	0xb6213c11	-2.4025833e-06
5	0x378037f3	1.5284842e-05
6	0x357bf32c	9.385865e-07
7	0xb70233e6	-7.760687e-06
8	0x3769cbb2	1.3935309e-05
9	0x36117bdf	2.1678786e-06
10	0xb5976bac	-1.1281713e-06
11	0x36859b37	3.9817783e-06

nested_model.net.1.bn.weight f4 [12]
0	0xbb06eb4e	-0.002058703
1	0x3e9e8a4e	0.30964893
2	0x3e87181b	0.2638558
3	0x3f07fb0f	0.5311746
4	0x3eaacdf3	0.33360252
5	0x3ec285a2	0.3799258
6	0x3ec16d66	0.37778777
7	0x3e992868	0.2991364
8	0x3ee3c2ec	0.4448465
9	0x3e2b6b85	0.16740234
10	0x3e96ddbf	0.29466054
11	0x3f02f0ab	0.5114848

nested_model.net.1.bn.bias f4 [12]
0	0xbc717ac9	-0.014738747
1	0xbe60a567	-0.21938096
2	0xbe5bdc1d	-0.21470685
3	0xbe6edb1a	-0.23325768
4	0xbe59696c	-0.21231622
5	0xbe68a7e7	-0.227203
6	0xbe0405e6	-0.12892875
7	0xbe326c76	-0.17424187
8	0xbe6e61a9	-0.23279442
9	0xbe4e4a46	-0.2014552
10	0xbe5f4c7f	-0.21806525
11	0xbe54f382	-0.20796016
