experiment_outputs/different_base_nets/diff_fc_relu.model (torch_old, 85451 bytes, 58 tensors)

unit1.conv.weight f4 [12, 3, 5, 5]
000000 a3 da 29 bc 36 2c e3 bc ab e1 37 be b9 b9 77 bd
       -0.010367068 -0.027731042 -0.17957179 -0.060479853
000010 f9 42 4a 3d d7 03 df b9 40 5e 78 bd 67 2e 3f be
       0.049380276 -0.00042536735 -0.06063676 -0.18670045
000020 08 87 a1 bd 7a 07 db bd c9 e9 ff 3d 62 fe e2 3d
       -0.07887083 -0.106947854 0.12495763 0.11083676
000030 1f 71 61 3d 9d c4 39 3c 10 4d 8a 3a 8c 5c d9 3d
       0.05503952 0.01133838 0.0010551531 0.10613355
000040 50 17 f6 3d 90 9f 1b 3e e9 88 19 3e 8e 92 1a 3e
       0.12016165 0.15197587 0.14993633 0.15094969
000050 d6 a7 3a 3d 4f e8 b4 3d 2c 32 5e 3e fa 4c 4c 3e
       0.045570217 0.08833372 0.21698827 0.19951239
000060 0c f7 15 3d cf b4 80 3d 25 37 8c bd e7 d8 62 be
       0.036612555 0.062844865 -0.068464555 -0.22153054
000070 53 06 87 bd 1b 77 ae 3c 64 74 85 3c ea c7 64 bd
       -0.06593003 0.021297028 0.016290851 -0.055854715
000080 e7 1e 4a be df 38 85 be 98 1a 8b bc 77 09 79 ba
       -0.19738351 -0.26019952 -0.016980454 -0.00095000066
000090 57 f3 a9 3d 9d 24 a4 bd 63 d9 2a be 1a 50 2d bd
       0.082983665 -0.08014796 -0.16684489 -0.04231272
0000a0 f4 c7 97 3d 2b a3 a1 3d 13 55 2a 3d 04 4c dc bd
       0.07411185 0.0789245 0.04158504 -0.10756686
0000b0 af 21 a6 bd 6c fa 63 3c 0b d9 1b bd 80 32 49 bd
       -0.081118934 0.013914686 -0.038048785 -0.049120426
0000c0 bd c0 a4 bd b9 8e 74 bd 59 63 51 bb 94 8e 59 bb
       -0.080445744 -0.059706423 -0.0031950085 -0.0033196555
0000d0 01 4e 18 3b b7 d1 c7 3c d6 e7 42 3e 81 9f d6 3d
       0.0023239853 0.024391992 0.19033751 0.10479642
0000e0 c3 ee a2 3d 49 dc d2 bd 19 2b 9b bd 12 8d 29 bd
       0.079556964 -0.10295922 -0.075765796 -0.0413943
0000f0 86 06 15 3e 91 56 3f 3e e9 9b 57 3d 72 4a c2 bd
       0.1455327 0.18685366 0.052638922 -0.094868556
000100 9d ed 00 bd ff e5 06 bb 0a 87 12 3e 7d 32 df 3c
       -0.031476606 -0.0020583866 0.14309326 0.027245754
000110 5a d3 3a bd d2 92 0e be 66 0a b0 bd 05 46 55 3d
       -0.045611717 -0.13923195 -0.08595733 0.05206873
000120 cb 46 c4 3d 30 6e 8c bd 57 6c df bd 86 6d 73 3d
       0.09583815 -0.06856954 -0.10909336 0.05943062
000130 4e bb 6c 3d 28 e9 a4 bc 2c 35 2a 3e dc ef 93 bc
       0.057795815 -0.020130709 0.16621846 -0.01805871
000140 3f 42 6c bd d6 60 0d 3e c8 6d 06 3e c5 32 14 3e
       -0.057680365 0.13806471 0.13127816 0.14472492
000150 8a d6 7f bd 4a ed 2c 3e d4 55 5c 3e 91 0b 8f 3d
       -0.06246046 0.16887394 0.21517116 0.06984628
000160 0b 03 6b bb 81 4a 04 3c 59 f2 4a 3e 24 62 81 3e
       -0.0035859968 0.008074404 0.19819011 0.25270188
000170 19 e7 9a bc 12 11 a1 bd ff db 4f 3d 3a 73 e4 3d
       -0.018909024 -0.07864584 0.050746914 0.1115479
000180 42 c8 3d 3d 16 9d 35 3d 26 7a 00 3d 9a f1 b8 bd
       0.04633356 0.044339262 0.03136649 -0.09030457
000190 71 65 9d bd b0 ce 92 3d a9 f1 b4 3d ff 87 97 3d
       -0.07685364 0.07168329 0.088351555 0.07398986
0001a0 7c c0 3f bd 67 50 61 3c 1a 83 3b 3d e1 59 1d bc
       -0.046814427 0.01375208 0.045779325 -0.009603948
0001b0 d9 a0 ee bc b4 b3 a3 bd 92 ff 05 3d 08 15 6c 3e
       -0.029129433 -0.0799326 0.032714434 0.23054898
0001c0 95 6b 37 3a 47 6b aa 3d d5 27 31 bd 90 67 d1 3d
       0.0006996927 0.08321243 -0.043250877 0.10224831
0001d0 51 04 61 3e 4a 67 f0 3d 1d 5a 75 bc 7a 40 e5 3c
       0.21974303 0.11738451 -0.014975098 0.027984846
0001e0 32 58 b1 3c bb 79 64 bc 59 91 be ba 60 34 a1 bd
       0.0216485 -0.013945038 -0.0014539167 -0.07871318
0001f0 db f7 5a 3d fa c5 73 ba 74 9e d8 3d 22 c3 93 bd
       0.05345903 -0.0009299215 0.105770975 -0.07214953
000200 da 83 ce bd c2 1d 4d 3d 7d 22 61 3d fc ba 2a 3e
       -0.100837424 0.050077207 0.05496453 0.16672891
000210 f9 6b 16 bd 1f ce 94 3b 6a 33 81 3a ea 66 59 3d
       -0.036724064 0.004541173 0.0009857242 0.053076662
000220 5a c7 a2 3d 78 18 82 bc 97 20 8d 3d cb a7 67 bd
       0.079481795 -0.015880808 0.06890982 -0.056556504
000230 61 c5 42 3e 10 e3 50 3e b3 2a 02 3e 68 8f a2 bc
       0.19020607 0.20399117 0.12711601 -0.019843772
000240 d8 d9 ef bc 26 99 e9 3d a5 ab 96 3d 9d 54 aa bc
       -0.02927868 0.11406164 0.07356957 -0.0207923
000250 16 9e 40 bc f2 8e fb bd 89 76 3e 3e 42 99 0c 3e
       -0.011756441 -0.12283124 0.18599905 0.13730338
000260 38 60 0f 3e 72 44 d3 3c 7b 38 30 bd f2 ac cb bc
       0.14001548 0.025789473 -0.043022614 -0.02486274
000270 f4 6d c5 3d 08 18 14 3d 6c 6d 94 bd 6e 4e db bd
       0.096401125 0.03615573 -0.07247433 -0.10708319
000280 36 25 27 bd 4d 36 63 3d 78 8e 50 bc 13 95 3f be
       -0.04080697 0.055471707 -0.01272928 -0.18709211
000290 5d 94 f2 3d 28 ea b6 bd 2f 82 ff bd 52 cf 8b 3d
       0.11844704 -0.089313805 -0.124760024 0.068266526
0002a0 99 ab cb 3d cf 2e a9 3d e1 13 e5 bd bf 6f 2b bc
       0.09944839 0.08260881 -0.11185432 -0.010463654
0002b0 02 26 21 3e 50 12 6c 3e 46 ae b2 3d 59 d5 26 3e
       0.15737155 0.2305386 0.08724646 0.16292323
0002c0 ce a5 ad bd 25 04 36 be 76 d4 ef bc 90 03 2e bd
       -0.0847889 -0.17775019 -0.029276114 -0.042483866
0002d0 70 0c b1 3d a7 37 a8 3b 1c f7 5b be 31 70 82 be
       0.086449504 0.0051335874 -0.21480983 -0.2547622
0002e0 b9 2e 98 3d e7 98 0b bd 2f 73 79 bd 67 29 82 be
       0.07430787 -0.034081366 -0.060900863 -0.25422212
0002f0 20 9c 45 be 3e a5 8c 3d 90 ba 7f 3d 3e f9 2f 3c
       -0.19297838 0.06867455 0.06243378 0.010740576
000300 5c dc b7 bd 55 48 14 be eb d7 6f bd 99 68 52 bd
       -0.08977577 -0.14480717 -0.058555525 -0.051369283
000310 4c a7 7e 3d fb 57 94 bd 2e aa c9 3c 04 f9 a3 3d
       0.062171265 -0.072433434 0.02461728 0.0800648
000320 a3 78 01 be 82 52 4d bd 78 35 33 be b0 21 96 bd
       -0.12643676 -0.050127514 -0.17500865 -0.07330644
000330 f6 ec 3b bc ff e4 ac 3c 1a 8d dd 3d c8 89 95 3c
       -0.01147007 0.021105288 0.108179286 0.018254176
000340 0b b8 e8 bd 80 bb 19 3e cb 49 23 3d d4 d4 bc 3b
       -0.113632284 0.15012932 0.039865296 0.005762676
000350 ff 8d 33 be dc d0 03 be a7 ee 22 3e 00 ca 54 3e
       -0.17534636 -0.12872642 0.15911351 0.20780182
000360 9a e8 40 3d dd e8 42 bd 93 8f 2e 3d de db 39 3e
       0.047096826 -0.047585357 0.04261739 0.18150279
000370 3c e6 14 3e f6 75 48 bc d3 b8 aa bd 1d 09 07 3e
       0.14540952 -0.012235155 -0.08336034 0.1318707
000380 0d 8b df 3d 21 23 a4 bd 63 d7 8c 3c ae df 2f 3d
       0.10915194 -0.08014513 0.017192548 0.042937927
000390 46 eb 9c bd 74 b3 cc bd a1 ad e5 bd 2b 2d 43 3c
       -0.07662062 -0.099951655 -0.11214758 0.011912624
0003a0 4c 02 99 bc 69 c9 02 bc 72 39 ad 3d da 92 c0 bc
       -0.018677853 -0.00798259 0.084582224 -0.023507524
0003b0 49 c6 24 be 26 ca a0 be b0 37 1d 3d 42 26 e6 3d
       -0.16091265 -0.31404227 0.038383186 0.11237766
0003c0 1f a1 f2 bc 90 4b ce bd d3 0b ee bd 89 3f 27 3e
       -0.029617844 -0.10073006 -0.11623349 0.1633283
0003d0 08 50 b4 ba de 38 e8 3d 1b f4 75 3e 7f e9 45 3e
       -0.0013756761 0.113389716 0.240189 0.19327353
0003e0 40 99 3f 3e 35 2c d6 3b d2 ac b5 3d 57 d6 8c 3d
       0.18710804 0.0065360316 0.088708535 0.068768196
0003f0 8b 4d 3b 3e ca 20 ef 3c eb 70 99 bd 18 00 8e 3d
       0.18291299 0.02919044 -0.074922405 0.06933612

unit1.conv.bias f4 [12]
000000 e0 09 cb 36 44 b1 a4 35 be 7e f2 b7 d7 49 7b b8
       6.051021e-06 1.2270543e-06 -2.8907667e-05 -5.9911832e-05
000010 86 76 0d b6 bb d0 28 b8 4c 1c c1 b7 ef 15 2a 37
       -2.1079627e-06 -4.0248717e-05 -2.302057e-05 1.0137896e-05
000020 35 40 8e 37 53 e7 e7 b4 27 95 47 b5 ad 2b a8 b6
       1.6957618e-05 -4.3195413e-07 -7.435032e-07 -5.0118747e-06

unit1.bn.weight f4 [12]
000000 76 25 46 3e 56 e9 03 3e 24 02 eb 3e 2b d8 2f 3f
       0.19350228 0.1288198 0.4590007 0.6868922
000010 22 1a 96 3e b4 1e a6 3e b2 c0 1c 3f 5a 42 63 3f
       0.29316813 0.324453 0.6123153 0.8877312
000020 26 14 fe 3e 06 00 99 3e 97 a0 1f 3f 1f e7 30 3e
       0.49624747 0.2988283 0.62354416 0.17275666

unit1.bn.bias f4 [12]
000000 c5 dc 9f bd bd 74 6b bd c0 67 2c 3e 98 d7 8d 3e
       -0.0780578 -0.057484377 0.16836452 0.27703547
000010 48 d0 05 be 8a 85 05 3c dc 0a b6 bd 14 2e 14 3f
       -0.13067734 0.008149514 -0.0888879 0.5788281
000020 d9 6d d5 bd d0 7f 6f 3e a8 aa 33 be ab 91 fa 3b
       -0.104213424 0.233886 -0.17545569 0.0076467595

unit1.bn.running_mean f4 [12]
000000 ef 04 75 3c 82 e6 a6 3f a5 ea 4f bd dc 02 04 bd
       0.01495479 1.3039095 -0.050760884 -0.03222929
000010 4a 67 c5 bd 81 15 b3 bd f5 7d 7a 3e 58 45 0a 3d
       -0.096388415 -0.08744336 0.24462111 0.033757538
000020 95 94 84 3d d5 08 1d 3e 79 d6 19 bf 2d ea c9 be
       0.06473652 0.153354 -0.60092884 -0.39436474

unit1.bn.running_var f4 [12]
000000 cf d9 e4 3d 94 af 10 3f 49 99 70 3d 9c 1d 9b 3d
       0.11174356 0.5651791 0.058739934 0.07574007
000010 eb 47 08 3e 4d ef 06 3d 42 d0 91 3e 51 a3 d9 3c
       0.13308685 0.03294306 0.284792 0.026567133
000020 96 a6 d3 3c f7 e7 6c 3e e4 a8 3e 3e 48 c8 0e 3e
       0.02583627 0.23135363 0.18619114 0.13943589

unit2.conv.weight f4 [12, 12, 5, 5]
000000 0b 3e 35 3d 73 01 d2 3d 71 13 33 bd b1 e7 19 be
       0.044248622 0.10254183 -0.043719713 -0.1502979
000010 8d 43 58 be fc ad a5 3d bb 11 8c 3d 4d f7 19 bd
       -0.21119519 0.080898255 0.06839319 -0.03758936
000020 9e 43 04 be 2e 3b 0c be 8d 53 25 3d aa 80 a2 3d
       -0.12916419 -0.1369445 0.040362883 0.07934697
000030 4e 88 2e bc 0d fc d6 bd 9a b9 b3 bd db 6f 22 3d
       -0.010652615 -0.104972936 -0.08775635 0.039657455
000040 9f 8b 47 3d 4e d0 14 3d e2 a7 c4 bb 71 c9 29 bb
       0.048717137 0.036331467 -0.0060014585 -0.0025907422
000050 cc 09 46 3c 9c 3f 3f 3d 4a 61 63 3c 19 26 fd bd
       0.012087297 0.046691522 0.013878176 -0.12360782
000060 e5 d3 cd bd 1d e3 de 3c 76 b3 3f 3d 09 0a d8 3c
       -0.10050181 0.027207905 0.046802007 0.026371973
000070 3a f9 56 bd fe a4 12 bb 25 ae 43 ba cd 8b 5b 3c
       -0.052483775 -0.0022376175 -0.0007464609 0.01340003
000080 09 65 1a 3b 70 16 f2 bc 20 d2 3e bd db 0d e2 bc
       0.0023558757 -0.029551715 -0.04658711 -0.027594497
000090 2b 02 69 3d c2 76 8e 3c bd 79 3b bd d2 b3 29 bd
       0.056886833 0.017390613 -0.045770396 -0.041431256
0000a0 1c 9f 8e bd da 10 65 bd a5 c9 48 bc db 90 67 bd
       -0.069639415 -0.055924274 -0.012255107 -0.05653463
0000b0 03 38 09 be 5f 3a ca bd d8 20 b6 bd 14 5f 03 bd
       -0.13400273 -0.09874415 -0.08892983 -0.032073095
0000c0 4b 8a 5c bd 95 26 e5 bd c6 09 0f be 39 fc 58 3b
       -0.053842824 -0.111889996 -0.13968572 0.003310932
0000d0 2b d1 13 3e 40 01 38 3e 16 38 91 bd b6 40 cf bd
       0.1443526 0.17969227 -0.07090776 -0.101197645
0000e0 d0 b0 70 3b 2b b9 6c 3e 74 64 9e 3e 62 a5 e2 3c
       0.0036726482 0.23117511 0.30936015 0.027666751
0000f0 b7 ea 4c be b8 34 c9 bd 02 9b 62 3e b8 2c a3 3e
       -0.20011412 -0.098245084 0.22129443 0.31870055
000100 18 bf 97 3d fe 43 4b be 54 52 f8 bd 97 44 68 3e
       0.07409495 -0.19850156 -0.12125078 0.22682415
000110 89 7e 8c 3e 24 a7 2e 3d f7 30 92 be 3f b0 38 be
       0.2744029 0.042639866 -0.28552982 -0.18035983
000120 d8 f5 61 3e 95 5a 4c 3e 2a e5 6f bd 66 60 55 bd
       0.22066438 0.1995643 -0.058568157 -0.052093886
000130 bd 0a f5 bc 39 f5 e3 ba 5c 0b c5 3d 7f 7f 9e bb
       -0.029912347 -0.0017391808 0.09621307 -0.004836976
000140 c9 7c 07 be 69 6a c4 bd 60 a4 d1 3d f4 93 26 3e
       -0.13231196 -0.095906086 0.1023643 0.16267377
000150 61 ad 70 3d 59 00 31 be 3a 95 e0 bd 09 03 be 3d
       0.058759097 -0.17285289 -0.10965963 0.09277923
000160 e0 44 27 3e a3 5e b4 3c ed 2a 9e bd b0 2a e8 bd
       0.16334867 0.022017783 -0.07723031 -0.11336267
000170 80 05 ac 3d 70 99 e6 3d a9 5a 7d bd 87 34 57 bd
       0.083994865 0.11259735 -0.06185404 -0.05254033
000180 b8 95 05 bb 07 eb ae 3d 67 29 d9 3d ba c5 cd bc
       -0.0020383429 0.08540922 0.106036 -0.025118697
000190 5e 59 b0 bd c5 be 2d be 1d 10 f3 bd 60 a9 f0 bc
       -0.086107954 -0.16967304 -0.11868308 -0.02937764
0001a0 0a 74 14 3e 59 92 37 be db aa fb bd 3f 33 6c bd
       0.1449739 -0.17926921 -0.122884475 -0.05766606
0001b0 c4 cc cd 3d be ca 36 3e 57 a3 f8 bd f8 18 f5 bd
       0.100488216 0.17850778 -0.121405296 -0.11967653
0001c0 7c 78 9d bb 45 8f 04 3e 8c 8d 4f 3e 92 f0 c5 bc
       -0.0048056226 0.12945278 0.2026884 -0.024162564
0001d0 45 3f 45 3d de 63 b5 3d 0b 91 16 3e c4 19 32 3e
       0.04815604 0.08856939 0.14703767 0.17392641
0001e0 02 94 23 3d 05 7b be 3d 25 bb 8f 38 13 ad 49 3d
       0.039936073 0.09300808 6.85363e-05 0.049237322
0001f0 95 f7 08 3d 2d df 3e bd 52 7b 00 be bc 79 ac bd
       0.033439238 -0.046599556 -0.12547043 -0.084216565
000200 3a 8e 2d bd f2 53 aa 3d 2b 17 f2 bd fe 94 cb bd
       -0.042371966 0.083167925 -0.11820825 -0.099405274
000210 f1 d9 dd bd e6 a4 80 bd 42 83 52 b9 3a d6 6f be
       -0.10832585 -0.06281452 -0.00020076058 -0.23421565
000220 6c df 28 be bf 7e 66 bd 48 f3 d6 bc 06 80 4f 3d
       -0.16491479 -0.05627322 -0.026239052 0.050659202
000230 65 8b 62 be ac 4f fa bd 56 c5 8a bd 46 fd 08 bc
       -0.22123487 -0.122222275 -0.0677592 -0.008361166
000240 a1 ee ad 3c 00 72 43 be 94 3c 11 be 2f c8 c5 bd
       0.021231951 -0.19086456 -0.14183265 -0.096573226
000250 0f 9e c4 bd 6a ef 4b bd 26 4e 2b 3e af c1 89 3d
       -0.0960046 -0.04978887 0.1672903 0.06726395
000260 b2 5c 52 bd f9 f4 2a bd 98 89 e9 bd 18 c1 2a 3d
       -0.051357932 -0.04173753 -0.11403197 0.041688055
000270 88 64 35 3d 36 f3 58 bd 2f b5 3c bd 00 56 f6 bd
       0.044285327 -0.05296632 -0.046071228 -0.12028122
000280 24 f7 e8 39 d7 fc c4 bc 6c 24 55 bd ea 4e e5 bc
       0.00044434622 -0.024046345 -0.052036688 -0.02799173
000290 4e b1 4d bb 73 51 08 bd 7e b6 fe bd a6 cc 89 bd
       -0.00313862 -0.0332808 -0.12437151 -0.06728487
0002a0 48 fe 86 bc 5a 8b a0 3c 44 4a 7a bd 68 23 86 bd
       -0.016478673 0.019597698 -0.06110598 -0.06549722
0002b0 65 8e d2 bd ed 64 b2 bb 6c 88 7d bd 6c eb 83 bd
       -0.10281066 -0.00544416 -0.06189768 -0.064413875
0002c0 90 29 ce bd 6a 35 81 bc 91 51 bf bc c9 0e 9e bd
       -0.10066521 -0.01577254 -0.023354324 -0.07717664
0002d0 ad 5a 21 3d c2 4f 5e bd d8 ce c5 3c 89 78 b8 3d
       0.039393116 -0.05427528 0.024146482 0.09007365
0002e0 4b 86 1e bd 4a 77 30 3d d0 0f aa bd 8f ef f0 bc
       -0.03870229 0.043082513 -0.08303797 -0.029411105
0002f0 e3 73 3b 3e 8d 78 56 bc 88 d4 20 bc ec 99 9c bd
       0.18305926 -0.013090265 -0.009816296 -0.07646546
000300 78 78 ad bc c4 08 0a 3e fb 2b 9d bc b4 e6 e3 bd
       -0.021175608 0.13479906 -0.01918601 -0.111279875
000310 a5 a1 a0 bb 9f 06 da 3b e5 1d 31 3c 19 c3 5c bc
       -0.004902082 0.0066536213 0.01081035 -0.013474249
000320 a8 a0 e8 bd 4f ce c7 bd e2 f8 66 bc 59 9f 0a bd
       -0.11358768 -0.09756147 -0.014097424 -0.033843372
000330 71 07 aa 3d 95 1b 0d be e8 04 45 be f8 10 4f bd
       0.083022006 -0.13780053 -0.19240153 -0.050553292
000340 d2 a4 b8 bc 0f 5c 25 3d b4 97 7f bc 52 b0 af bd
       -0.02253953 0.040370997 -0.015600134 -0.08578552
000350 54 38 37 bd 20 06 19 3d 0a 26 42 3c d4 fa 5b 3c
       -0.044731453 0.037359357 0.0118498895 0.013426501
000360 5f b8 17 bd c1 89 ff 3c 88 14 cd 3d 80 1f 9a 3d
       -0.037041064 0.031193616 0.10013682 0.075255394
000370 42 47 3f bd 1c 11 17 bc 1c 4e 5b 3d 47 f7 47 3d
       -0.046698816 -0.009220388 0.053541288 0.048819806
000380 e3 ed a1 3d 29 f4 2a be 47 2e 72 be be 1b f4 bd
       0.079067014 -0.16694702 -0.23650466 -0.11919354
000390 69 a1 d7 3d c9 27 1d 3e 5a a9 d9 bd aa 75 17 be
       0.105288334 0.15347208 -0.10628004 -0.14790979
0003a0 91 ec cf bd b7 2c 06 3e 53 29 30 3e 5b ac 4e be
       -0.10152543 0.13102995 0.17203264 -0.20182936
0003b0 2e ff 3b be ae 2c 5c bd 6c e0 22 3e 6d c9 64 3e
       -0.18359062 -0.053753547 0.15905923 0.22342463
0003c0 d3 d6 0e be aa 01 df bd 0a 6e bc bd 2b 6a d1 3d
       -0.13949136 -0.10888989 -0.09200676 0.10225328
0003d0 e7 66 30 3e 7c f0 30 be 77 c9 81 bd 19 f4 64 bb
       0.17226754 -0.17279238 -0.063372545 -0.0034935533
0003e0 96 4c 45 3e 4f ae 80 3e 58 66 c0 bd 1f 9e 8b bd
       0.19267496 0.25132987 -0.093945205 -0.068172686
0003f0 88 f0 9f bd 6b 7b b8 3c c7 ba 19 3e fd d7 de bc
       -0.078095496 0.022519788 0.15012656 -0.0272026

unit2.conv.bias f4 [12]
000000 35 6a 10 b7 a1 69 b5 35 a3 58 30 b6 d7 cc ff 36
       -8.607797e-06 1.3516293e-06 -2.6277637e-06 7.6234387e-06
000010 9f 3e d8 b6 66 6c f9 34 b0 a2 79 35 c7 ec 84 b7
       -6.4445917e-06 4.6458734e-07 9.299647e-07 -1.5845884e-05
000020 fe d6 81 b7 9f ec b7 b7 b9 65 3f 37 e6 fc aa 36
       -1.5478112e-05 -2.1925485e-05 1.1408171e-05 5.095836e-06

unit2.bn.weight f4 [12]
000000 23 2b d4 3e b1 c0 76 3e df ca df 3e 0f 8d e5 3e
       0.4143916 0.24096943 0.43709466 0.44834182
000010 73 27 3d 3f 65 1a 19 3f ee 97 05 3f 91 4d ab 3e
       0.7388832 0.598059 0.5218495 0.33457616
000020 de ff 41 3f d7 62 69 3f fa b7 0b 3f 71 af ec 3e
       0.7578105 0.9116644 0.545776 0.462276

unit2.bn.bias f4 [12]
000000 22 33 27 be ea fa 09 be 3f 1c 41 be 2b 0a 41 be
       -0.163281 -0.13474622 -0.18858431 -0.18851535
000010 cd 6a b4 be 49 01 8b be 05 c8 f7 bd 0e c3 b5 3c
       -0.35237733 -0.27149418 -0.120986976 0.022187736
000020 aa 12 b7 be 6a 84 2b be 8a 6a 2e be a0 7e 1e be
       -0.35756427 -0.1674973 -0.17032829 -0.15477991

unit2.bn.running_mean f4 [12]
000000 38 ea 95 be fe dd e6 be 85 b4 bd be 00 96 7c bf
       -0.29280257 -0.45091242 -0.37051788 -0.9866638
000010 b6 6c bc bf 49 cf 1d be f4 01 0e be 11 97 08 c0
       -1.4720676 -0.15411104 -0.13867933 -2.1342204
000020 ad 4d 27 bf a3 1e 3a bf 5d 36 78 be a0 bd 30 c0
       -0.653529 -0.72703 -0.24239488 -2.7615738

unit2.bn.running_var f4 [12]
000000 cb 4b cd 3f a5 47 fa 3e 7d a7 8f 3f 36 80 8b 3f
       1.6038755 0.48882785 1.1222988 1.0898502
000010 1d 31 a4 3f c2 c1 a8 3f e0 a3 8e 3f 7f 9f 8b 3f
       1.2827488 1.318413 1.1143761 1.0908049
000020 db 1c 76 3f 54 57 9c 3f 2a 3b a6 3f e0 fb 1c 40
       0.9613778 1.221415 1.2986805 2.4528732

unit3.conv.weight f4 [12, 12, 5, 5]
000000 1e 58 4f 3c 41 84 d7 bd f5 67 20 bd b0 61 65 3b
       0.012655286 -0.10523272 -0.03916164 0.0035000853
000010 8a ff 7f bd 83 f2 c4 bd 66 c7 37 be b9 53 3c bd
       -0.06249956 -0.09616568 -0.17947158 -0.04597828
000020 ae 4e 04 3d b5 b4 3e bc f4 a2 d3 bd 52 25 1b be
       0.032301597 -0.011639764 -0.10333815 -0.15150955
000030 ad 27 5b bd c8 37 88 3d b9 26 80 3c c3 1a 54 bd
       -0.053504635 0.066512644 0.015643464 -0.051783334
000040 47 0b 0c 3d f4 f9 38 bd 8b 50 45 3d 25 a5 87 3d
       0.034190442 -0.04516025 0.048172515 0.06623296
000050 19 93 b1 bc 68 1f a7 3a 24 ff c3 bd ed 32 3d bd
       -0.021676587 0.0012750449 -0.095701486 -0.046191145
000060 c1 40 a9 3d 64 62 59 bd 85 07 0a 3d 96 b2 fb 3b
       0.08264304 -0.05307235 0.033698577 0.007681201
000070 74 c9 a3 bd 0f 3b 45 bd 1f da cb 3d b6 f5 e2 3d
       -0.079974085 -0.048152026 0.09953713 0.11082022
000080 70 17 17 3e e4 53 36 bd f8 52 02 bc 29 e0 00 3e
       0.14755034 -0.044513598 -0.007954352 0.1258551
000090 f7 30 34 3e 16 19 50 3e 90 15 00 3e 9a cf 08 3d
       0.17596804 0.2032207 0.12508225 0.03340111
0000a0 d5 52 30 bc 49 f7 01 3e 36 4e 5e 3e 4d 72 38 3e
       -0.010761936 0.12691988 0.21709523 0.18012352
0000b0 38 16 87 3d 35 86 0a be 26 01 7d bd 8a af e6 3d
       0.06596035 -0.13527758 -0.061768673 0.1126395
0000c0 69 9f b9 3d 40 2a 0c 3d 67 8b 1c bd 74 93 b1 bc
       0.09063608 0.03421998 -0.038218882 -0.021676756
0000d0 44 01 61 3c 03 3d 89 3d fc 24 12 3c 59 32 98 bd
       0.013733212 0.0670109 0.008919951 -0.07431478
0000e0 ec fe 42 be 3c b8 a6 bd ca 73 c1 3d c2 85 db 3b
       -0.19042557 -0.08140609 0.09445913 0.006699295
0000f0 a4 ca ae 3d e9 28 89 bd 9a 82 13 be 10 1c ba 3d
       0.085347444 -0.06697256 -0.1440529 0.09087384
000100 0c 1f d5 bc 88 38 41 3e b9 08 93 3d 7f be 49 bd
       -0.02601578 0.18869221 0.07179398 -0.049253937
000110 f7 cb 45 bd dc 28 8f bd a7 ad 19 3e 11 7b fa 3d
       -0.04829022 -0.06990215 0.1500765 0.12230504
000120 d5 8d df 3b 37 e0 4e 3b 7c 67 fd bb d2 ef d6 bd
       0.0068223276 0.0031566748 -0.0077332836 -0.10494961
000130 93 27 2a 3b 5c a5 cb bc 31 12 67 bc 68 52 9b 3d
       0.002596353 -0.024859123 -0.014103458 0.07584077
000140 05 75 b6 bd 33 af 84 bc cb 50 b4 bc 2f 12 44 bb
       -0.089090385 -0.016196823 -0.022011181 -0.0029918065
000150 a9 d8 00 bc 4e da 5b be 48 9c b5 bd 61 f5 27 3c
       -0.007864156 -0.21469995 -0.08867699 0.010251374
000160 4a 49 0d 3e b0 8b bb 3c 0e 34 10 be 00 2c aa bd
       0.13797489 0.022893757 -0.14082357 -0.083091736
000170 35 4e 9c 3d e6 40 ab 3d 3b 54 26 3e 32 38 82 3b
       0.07632104 0.08361988 0.16243069 0.003973984
000180 94 51 f9 bc 68 66 65 3d 0e 0e 35 3d b5 02 a7 3d
       -0.030434407 0.056005865 0.044202857 0.08154813
000190 86 77 2b bc 54 ea 9f bd 24 22 6a be 58 b3 60 bd
       -0.010465508 -0.078083664 -0.22864586 -0.054858536
0001a0 fc 22 b7 3d 53 f4 00 bd 5d e1 2e bd fe f7 19 be
       0.089422196 -0.031483006 -0.042695392 -0.15036008
0001b0 e8 29 b7 bc 08 81 59 3e f5 fb 93 bd 95 4a 70 bd
       -0.02235885 0.21240628 -0.07225791 -0.058664877
0001c0 69 6d f0 bd 6f 3d 3d bc 36 53 5e 3e 39 cb f4 bd
       -0.11739618 -0.011550291 0.2171143 -0.11952824
0001d0 00 ea 51 3d 43 c8 89 3d 72 ba 82 3d 98 fd 3d 3e
       0.05124855 0.0672765 0.06383218 0.1855377
0001e0 7c 3b 3d be 14 6f 6c bb ec 76 d7 3c 99 a9 ee 3d
       -0.18479723 -0.003607695 0.026301824 0.11653442
0001f0 26 4c fa 3d 13 8b b1 bd 5b 2c bd bd 7e 96 36 bd
       0.122215554 -0.086691044 -0.09236976 -0.044577114
000200 62 bf e1 bd 07 84 44 be d9 67 db bc 2f c7 53 bd
       -0.110228315 -0.1919099 -0.026782917 -0.05170363
000210 02 46 86 bb 2e e9 a0 bd db 6b b8 bd e3 b5 b8 bc
       -0.004097701 -0.078569755 -0.09004947 -0.022547668
000220 13 e2 99 bc a8 6c c5 bc 32 40 01 be ab 74 00 be
       -0.018784558 -0.024099663 -0.12622145 -0.12544505
000230 2c 4d 18 be 8b 47 7b bd 62 c9 05 be db a6 e1 bd
       -0.14873189 -0.061347526 -0.13065103 -0.11018153
000240 13 28 f1 bd e8 4c a9 be 54 c8 12 be a8 6a 09 be
       -0.11775222 -0.33066487 -0.14334232 -0.13419592
000250 19 34 3c be 48 4e fc bd e3 10 15 be 48 e9 f2 bd
       -0.18379249 -0.123196185 -0.14557223 -0.11860901
000260 ab 61 ba bd 19 aa 19 bd eb 90 2e 3d 53 65 d9 bc
       -0.0910066 -0.037515733 0.042618673 -0.026537573
000270 58 dc 43 bb 4f 49 24 3d 60 3f 05 bd 4a 14 da 3b
       -0.0029885974 0.040108975 -0.032531142 0.0066552507
000280 eb 82 17 3a 04 26 59 3c 6c 2f 19 3b 76 e7 9f bd
       0.0005779701 0.013253693 0.0023374213 -0.078078195
000290 5d 5c 31 be 10 7d aa 3d ec ef 6b 3d e2 2d b4 3c
       -0.1732039 0.08324635 0.057601854 0.021994535
0002a0 4a 7c 92 bd f6 47 42 be 0f 37 07 3d 0b f6 e9 3d
       -0.071526125 -0.18972763 0.033011492 0.11423882
0002b0 98 c5 4c bb c8 fb 9e bd 42 6c 2b be 92 38 ac 3b
       -0.0031245705 -0.07762867 -0.16740516 0.005255767
0002c0 70 9a 2d bc d7 c5 9d 3c 98 d8 49 bc a6 d8 16 bd
       -0.010595903 0.019259376 -0.012319706 -0.036827706
0002d0 c4 6d 29 bc a1 55 19 bd f5 a8 d0 bc a9 d8 08 bd
       -0.010341112 -0.037435178 -0.02547119 -0.03340975
0002e0 c3 9f 03 bd 10 0b f5 bd b9 e1 69 bb b7 58 83 bd
       -0.032134783 -0.11965001 -0.003568752 -0.064134054
0002f0 c2 c2 5a bd 8c 00 1a 3c 1d b4 df bd 51 55 91 bd
       -0.05340839 0.009399544 -0.10923026 -0.07096351
000300 cd 8c cc bd c1 e1 8d bd b7 16 db 3d 99 2d 20 bd
       -0.09987793 -0.06927825 0.10697692 -0.039105985
000310 4a eb ab 3c 98 e8 45 bc 0a 52 63 3d 44 a6 3f 3e
       0.020986218 -0.01207938 0.05549816 0.18715769
000320 70 9a 70 bc 08 1e da 3d ce f3 9d bd ac 0c 38 be
       -0.014685258 0.10650259 -0.07712518 -0.17973584
000330 0f 14 8a bd c8 49 a7 bc 47 a0 0f 3e 34 a6 8e bd
       -0.06742107 -0.020420924 0.14025985 -0.069652945
000340 73 31 7a be e2 9a 86 3d d4 6c e6 3c 3b 5f b5 3d
       -0.24432926 0.0657251 0.028128065 0.088560544
000350 78 1d d7 bd e5 bc 1c be 34 63 6d 3d 49 ea 3a bd
       -0.105036676 -0.15306433 0.057955936 -0.045633588
000360 a4 eb 7e bd 8a 84 c8 bd a7 f6 0f bd c7 eb e6 3d
       -0.062236443 -0.09790905 -0.035147335 0.1127544
000370 9b 39 55 bc 86 3a ca ba cf 93 84 bc 69 44 bb 3d
       -0.0130142225 -0.0015428818 -0.016183762 0.091439076
000380 10 6c af 3d 14 e8 df 3d 6e f6 05 3e 6e 88 85 3d
       0.08565533 0.10932937 0.13082287 0.065201625
000390 d9 f7 26 bd 13 01 f8 bc 02 77 53 3d d9 32 85 3d
       -0.04076371 -0.03027395 0.051627167 0.06503839
0003a0 1b ed 21 3e 95 31 89 3d 1f b3 dd bd ec 8a ab 3d
       0.15813105 0.0669891 -0.1082518 0.083761066
0003b0 95 f8 0d be 44 9f 97 bd 58 4a db bd 32 e8 ad bd
       -0.13864358 -0.074034244 -0.10707539 -0.08491553
0003c0 f6 fd 81 3e c7 6c 02 3e 83 82 b6 bd e4 8c 1c be
       0.2538907 0.12736808 -0.08911612 -0.1528812
0003d0 0d 31 83 bd 47 5a 63 3e 94 2d ec 3d 9f ad bd 3c
       -0.0640584 0.22202407 0.11532131 0.023154078
0003e0 4b e7 83 3b 7a a6 99 bd b6 db 11 be d0 f4 e2 3c
       0.004025375 -0.07502456 -0.1424397 0.027704626
0003f0 f5 7b 98 3d 3c 06 20 3b 36 37 f7 3b 12 80 b6 bd
       0.07445518 0.0024417778 0.0075444235 -0.08911146

unit3.conv.bias f4 [12]
000000 d8 a3 75 36 2b 96 af b6 f2 61 26 b6 4e 31 b6 36
       3.6603215e-06 -5.2328883e-06 -2.479294e-06 5.4297625e-06
000010 23 2d 23 34 80 0f 49 36 9c e4 30 35 fa e0 98 b3
       1.5196979e-07 2.9960356e-06 6.589778e-07 -7.1189746e-08
000020 0f 83 00 00 c6 a4 33 36 37 91 c9 b6 9e 40 22 b5
       4.7015e-41 2.676899e-06 -6.007172e-06 -6.0443733e-07

unit3.bn.weight f4 [12]
000000 bf d1 0f 3f 69 fc 33 3f b7 12 dc 3e eb 37 93 3e
       0.5617942 0.7030702 0.42983028 0.287536
000010 18 4e 1f 3f 77 bf b2 3e 2d 5a b3 3e 8c 88 e7 3e
       0.62228537 0.349117 0.35029736 0.45221364
000020 99 ee 84 b6 73 36 b9 3e e8 02 e8 3e 22 80 00 3f
       -3.961683e-06 0.36174354 0.45314717 0.50195515

unit3.bn.bias f4 [12]
000000 8a 34 66 be 0f a5 40 be 59 0b 53 be 62 a6 cb bd
       -0.2248098 -0.18812965 -0.20609798 -0.099438444
000010 77 60 a2 bd 67 23 17 bd d2 c3 b9 bd 83 24 04 be
       -0.079285555 -0.036898997 -0.09070553 -0.12904553
000020 dc 0b 0a b7 02 9f 3e be 73 86 4b be 57 54 e7 bc
       -8.228202e-06 -0.18615344 -0.19875507 -0.028238459

unit3.bn.running_mean f4 [12]
000000 9d b7 fd be 40 39 a9 be 58 0d 82 bf 8f 13 ab bf
       -0.49554148 -0.3305149 -1.0160322 -1.3365344
000010 91 d9 a7 bf 0e ec 34 bf e1 4f 1c bf 90 d6 5e bd
       -1.3113271 -0.7067269 -0.61059386 -0.05440384
000020 69 71 00 00 75 ae 0c 3e 7d bd a5 be 75 07 62 bf
       4.0684e-41 0.13738425 -0.3237113 -0.8829263

unit3.bn.running_var f4 [12]
000000 88 a2 6c 3f 50 52 64 3f 1f 03 88 3f 45 08 aa 3f
       0.92435503 0.891881 1.0625952 1.3283774
000010 59 af a4 3f 68 96 77 3f cf db 6a 3f 3e 7d 49 3f
       1.2866012 0.96713877 0.9174165 0.7870673
000020 04 00 00 00 56 cc 2c 3f 7c 19 78 3f 86 72 99 3f
       6e-45 0.6749929 0.96913886 1.1988075

unit4.conv.weight f4 [12, 12, 5, 5]
000000 92 db 82 3c 99 60 53 bc f0 d4 60 bd 12 19 85 bd
       0.01597384 -0.012901449 -0.054890573 -0.064989224
000010 ea 11 a8 bd bb f1 9d 3c 70 00 e9 3d df c1 23 3c
       -0.08206542 0.019280305 0.113770366 0.009994953
000020 31 71 95 3c 32 8b 97 bd 94 df 2b bd 61 d6 18 3e
       0.01824245 -0.07399596 -0.041961268 0.14925529
000030 16 6e 70 3d 30 8f c0 3d 81 0f a6 bd 44 91 bf 3d
       0.058698736 0.09402311 -0.08108426 0.09353879
000040 c1 eb 3c 3e 29 b6 34 3e 99 71 c7 3d 11 40 54 3d
       0.18449308 0.17647614 0.09738464 0.05181891
000050 96 78 4e bd 29 3c a4 3d f1 9c 3e 3e 74 fc 1b 3e
       -0.05040797 0.08019287 0.18614556 0.15233022
000060 37 5f 82 3d 9c 16 47 be 23 07 51 be 6e a7 08 be
       0.06365817 -0.19442219 -0.20412879 -0.1334512
000070 7c 02 c6 3b 69 33 00 3e ce 37 4c be 1a 19 44 be
       0.0060427766 0.12519611 -0.19943163 -0.191502
000080 2c b2 02 be 5c 4d 27 bd d3 af e7 bc d7 67 d8 bd
       -0.1276328 -0.04084526 -0.028282082 -0.10566681
000090 e5 54 ae bc 10 fd 30 bd 3e a8 fb 3b 4d 5d 0d bc
       -0.021280715 -0.04321009 0.007679968 -0.008628202
0000a0 fb 76 38 bd ab a9 c3 bd 6e f7 28 3b d7 57 55 bd
       -0.045035344 -0.09553846 0.0025782245 -0.052085724
0000b0 5b e6 c4 bd 67 4d 40 be 1d 4e 0b be c8 09 0e be
       -0.09614249 -0.18779527 -0.13604017 -0.13870919
0000c0 7b c9 29 bd fb 07 fd bd 2a 97 37 be 44 85 68 be
       -0.041451912 -0.12355038 -0.17928758 -0.22707087
0000d0 35 af 5c be 76 ac 85 be 51 1c 41 be 39 a9 65 be
       -0.21551211 -0.2610814 -0.18858458 -0.22427835
0000e0 e8 94 8b be 6c 35 4e be 22 08 18 be d0 bf d6 bd
       -0.27262044 -0.20137566 -0.14846852 -0.10485804
0000f0 c3 98 90 be 86 e7 7e be 42 23 1e be 38 90 16 be
       -0.28241548 -0.24893007 -0.15443137 -0.14703453
000100 4f b8 93 bd 74 79 38 be 7e 70 77 be 7d 3d 15 be
       -0.072128884 -0.1801508 -0.24164006 -0.14574237
000110 20 b7 9f bd 01 ca f6 3b da d6 f8 bd 18 d8 b9 bd
       -0.077986 0.007531405 -0.12150355 -0.0907442
000120 0b 1c 60 bd ff c8 07 3c 1d 3a 85 3d 40 8d 73 be
       -0.054714244 0.008287667 0.06505225 -0.23784351
000130 0f fb 8f bd 8b b9 af bc 03 95 fc bc 8b 66 6f be
       -0.070303075 -0.021450778 -0.030832773 -0.23378961
000140 e9 fe 78 be 74 03 0c be 94 e8 39 bd 97 22 50 ba
       -0.2431599 -0.13673192 -0.04538782 -0.00079397246
000150 41 cc 04 be 0b bf 3a be 26 c7 1f be a5 18 3d bd
       -0.12968542 -0.1823694 -0.15603313 -0.04616608
000160 2f 1f 62 bc ae 48 78 bd 95 19 22 be 85 6b e4 bd
       -0.01380138 -0.060616188 -0.15830071 -0.1115332
000170 ec 4c 26 bd 75 90 97 bc 21 e2 38 bc 3c 64 49 be
       -0.040600702 -0.0185015 -0.011284382 -0.19667143
000180 7d 48 1a be b6 6e e1 bd 9a 10 91 3c c7 4b 17 3d
       -0.15066715 -0.110074446 0.017708112 0.0369375
000190 05 ed ba bd 0f e2 47 bd a8 2f 2b bd 62 6c 39 bc
       -0.09127239 -0.04879957 -0.041793495 -0.011317344
0001a0 d1 34 11 be 64 07 37 be 3f b7 c3 bd c3 9e ee bd
       -0.14180304 -0.17873913 -0.09556436 -0.11651375
0001b0 26 26 27 3c 5b 3b 0c be 43 7d 54 be aa 87 37 be
       0.010201966 -0.13694517 -0.20750909 -0.17922845
0001c0 36 64 0c be db 9d d1 bd ab 7e d0 bd ec 96 33 be
       -0.13710102 -0.10235187 -0.1018041 -0.17538041
0001d0 8e 68 0b be 04 c6 b0 bd 8d a5 9b bd ca 29 e7 bd
       -0.13614103 -0.086315185 -0.07599936 -0.112872675
0001e0 95 2c 89 bd f2 d0 fa bd 60 6f e7 bd 22 b3 bd bd
       -0.066979565 -0.122468844 -0.1130054 -0.092626825
0001f0 70 b6 9c bd 4c d5 c9 3d cd f3 54 3e df 8d ef 3d
       -0.07651985 0.09855136 0.20796128 0.11696982
000200 38 ac c1 3c 43 c3 de bd a9 51 e3 3d ae 79 28 3e
       0.02364169 -0.10877087 0.1109956 0.16452667
000210 1a 7e d1 3d 12 60 eb 3d 93 26 99 3c f6 03 19 3d
       0.1022913 0.11492933 0.018695151 0.037357293
000220 e0 e7 8a 3d cc 6f 8d 3d 5e 21 f4 3b c2 d6 fa 3c
       0.06782508 0.06906089 0.0074502667 0.030619983
000230 0b 24 63 bd a0 f3 65 3d f8 cf 3c 3d 1f d8 70 bc
       -0.055454295 0.056140542 0.046096772 -0.014699965
000240 09 dd 7c 3d e4 23 67 3c 55 1c 3e bd d9 fe 9e bd
       0.061734233 0.014107678 -0.04641374 -0.07763452
000250 a7 eb 98 bc ec f4 7c bc 27 be 3a 3e f4 3f 34 3e
       -0.018667055 -0.015439253 0.182366 0.17602521
000260 0a 70 0b 3e e4 ad 01 3e ff 65 21 3e 22 74 44 3e
       0.13616958 0.1266399 0.15761565 0.19184926
000270 1d 21 f9 3d 8c 00 af 3d 62 b4 f6 3d 52 b6 08 3e
       0.12164519 0.08545026 0.12046124 0.133508
000280 f5 75 97 3d 69 a3 a5 bc ce cd 2b bd e5 7f 1c bb
       0.073955454 -0.020219522 -0.041944318 -0.0023879942
000290 ed 64 07 3e c0 00 59 bc a8 22 a2 bd f7 67 0d be
       0.13222094 -0.013244808 -0.079167664 -0.1380919
0002a0 48 5d 63 bd 3d a9 31 3d 8b 93 66 3c 61 8b 73 bd
       -0.05550888 0.04337429 0.014073263 -0.059459094
0002b0 32 37 e8 bd e3 69 34 bd 7e 71 2b bc a4 d5 98 bd
       -0.11338653 -0.044046294 -0.01046407 -0.07462624
0002c0 a3 98 45 bd 66 6d 47 bc 31 bb 5a bd ec 55 fc bd
       -0.04824127 -0.012172079 -0.053401176 -0.12321076
0002d0 34 1e e8 bd c6 80 22 3d b8 ca 94 3d 69 53 50 bd
       -0.11333886 0.03967359 0.07265228 -0.050860796
0002e0 08 7a 2c 3c 22 c0 ad bd df 98 c6 bc c0 70 12 bd
       0.010527141 -0.08483912 -0.024242816 -0.035752058
0002f0 72 78 cc bc 04 53 58 3d 6b 21 60 bd 81 1e 26 bd
       -0.024959777 0.052813545 -0.05471937 -0.040556435
000300 dc 64 37 bd bf b9 73 3b 8c 75 16 bc 5a a2 17 bd
       -0.04477392 0.003718957 -0.009183299 -0.037020065
000310 f8 34 07 bd 86 df d4 bc 4d b0 c3 3c a9 dd 18 3c
       -0.0330095 -0.02598549 0.023887778 0.009330192
000320 3f 79 00 80 1e 27 00 80 70 29 00 80 ab 78 00 00
       -4.3495e-41 -1.4033e-41 -1.4865e-41 4.3288e-41
000330 29 17 00 00 c9 5f 00 00 ae 43 00 80 5f 18 00 80
       8.308e-42 3.4361e-41 -2.4279e-41 -8.743e-42
000340 ab 6d 00 00 b1 83 00 80 f2 35 00 80 9b ab 00 80
       3.9341e-41 -4.7242e-41 -1.9352e-41 -6.156e-41
000350 05 ab 00 80 cc 54 00 00 f4 9c 00 80 4d 9a 00 80
       -6.135e-41 3.042e-41 -5.6304e-41 -5.5353e-41
000360 38 34 00 00 41 0a 00 80 72 a1 00 00 f1 82 00 00
       1.8733e-41 -3.678e-42 5.7916e-41 4.6973e-41
000370 fa 19 00 00 14 39 00 80 bb 4b 00 00 04 a1 00 80
       9.319e-42 -2.0476e-41 2.7167e-41 -5.7762e-41
000380 43 2b 00 80 d1 64 13 3e e9 e5 18 3c f9 e4 f5 bc
       -1.552e-41 0.14393927 0.009332159 -0.03001641
000390 5e 04 4d 3d ba ba 41 3d bb 35 17 3e 5e d6 6e 3c
       0.050052993 0.047297217 0.1476659 0.014577476
0003a0 7c cb b9 bd a2 e2 60 3c 3a 88 fa 3c bf 36 a4 3d
       -0.09072015 0.0137259085 0.030582536 0.080182545
0003b0 d9 9c c1 bc 6a 85 e2 bd 37 2b ee bd a5 58 e2 bc
       -0.023634361 -0.11060603 -0.11629336 -0.02763016
0003c0 c7 8e 04 3d 58 bb ea 3c 15 10 4f bd f0 6c d6 bd
       0.032362726 0.028653786 -0.050552446 -0.10469997
0003d0 b4 8b d8 bb 40 b5 2a 3d cf 8b 91 3d 9e 76 dd 3b
       -0.006608451 0.04167676 0.071067445 0.006758525
0003e0 c3 77 ab 3c 0c c7 a5 bb 70 2b d2 3d 4c dc 83 3d
       0.02093113 -0.0050591286 0.10262191 0.06438503
0003f0 b7 14 64 3d 65 26 57 3c ea 9a 61 bd dd 41 fb 3d
       0.055683818 0.013131713 -0.05507938 0.12268422

unit4.conv.bias f4 [12]
000000 80 7d 45 b6 cb 30 cc 35 f8 07 27 35 01 3a 5f b7
       -2.9428338e-06 1.5213385e-06 6.2223944e-07 -1.3305341e-05
000010 40 d1 91 36 6e 2c 91 b6 23 10 4b 36 af a7 a2 b5
       4.3456967e-06 -4.326509e-06 3.025875e-06 -1.2118743e-06
000020 5b 81 81 35 d0 3b 17 b6 dd 97 1e 36 00 9f 2b b7
       9.648896e-07 -2.2535569e-06 2.363223e-06 -1.0229414e-05

unit4.bn.weight f4 [12]
000000 ee 6b 30 3f 18 d2 1a 3f 35 b8 66 3f 20 f3 7c 3f
       0.6891469 0.6047683 0.9012483 0.9880848
000010 79 80 3e 3f a0 f9 fd 3e 3e 1f 58 3f 9c 68 31 3f
       0.74414784 0.4960451 0.8442267 0.69300246
000020 84 85 1a 3f 28 9d 1a 3f e8 a0 06 3f 89 a0 78 3f
       0.6035998 0.6039605 0.52589273 0.9711996

unit4.bn.bias f4 [12]
000000 e1 56 c0 3d 9d 8e 69 bc 69 63 ff bd c5 d7 7a be
       0.09391571 -0.014255193 -0.12470133 -0.24496372
000010 63 69 39 be 61 6f b7 3c 20 ab 8c bd aa 1c 00 be
       -0.18106608 0.022391977 -0.06868577 -0.12510934
000020 37 2b cf bd 65 d1 b0 bd 2e 88 18 bd 18 d0 07 be
       -0.101156645 -0.08633689 -0.037239246 -0.13262975

unit4.bn.running_mean f4 [12]
000000 f6 72 14 bf b8 0a 8a 3d b5 7e 46 be 9b 27 26 bf
       -0.57987916 0.06740326 -0.19384272 -0.64904183
000010 46 93 34 be 92 09 2a bf 88 42 a3 be d2 61 7c 3e
       -0.17634305 -0.66420853 -0.31886697 0.2464669
000020 9a c4 f5 be b3 2d d0 3e 89 16 2e bf 02 c3 a5 3e
       -0.48001558 0.40659866 -0.68003136 0.32375342

unit4.bn.running_var f4 [12]
000000 b6 d3 ea 3e 11 d3 b6 3e 93 f1 91 3e 04 c9 9b 3e
       0.45864648 0.35707906 0.2850462 0.304268
000010 16 64 9b 3e 67 07 9d 3e 2e 09 b2 3e 7f 01 a7 3e
       0.30349797 0.3066971 0.3477263 0.3261833
000020 91 8c cf 3e 00 2a a4 3e c7 ea ba 3e 0e b6 92 3e
       0.4053693 0.32063293 0.36507246 0.28654522

net.0.conv.weight f4 [12, 3, 5, 5]
000000 a3 da 29 bc 36 2c e3 bc ab e1 37 be b9 b9 77 bd
       -0.010367068 -0.027731042 -0.17957179 -0.060479853
000010 f9 42 4a 3d d7 03 df b9 40 5e 78 bd 67 2e 3f be
       0.049380276 -0.00042536735 -0.06063676 -0.18670045
000020 08 87 a1 bd 7a 07 db bd c9 e9 ff 3d 62 fe e2 3d
       -0.07887083 -0.106947854 0.12495763 0.11083676
000030 1f 71 61 3d 9d c4 39 3c 10 4d 8a 3a 8c 5c d9 3d
       0.05503952 0.01133838 0.0010551531 0.10613355
000040 50 17 f6 3d 90 9f 1b 3e e9 88 19 3e 8e 92 1a 3e
       0.12016165 0.15197587 0.14993633 0.15094969
000050 d6 a7 3a 3d 4f e8 b4 3d 2c 32 5e 3e fa 4c 4c 3e
       0.045570217 0.08833372 0.21698827 0.19951239
000060 0c f7 15 3d cf b4 80 3d 25 37 8c bd e7 d8 62 be
       0.036612555 0.062844865 -0.068464555 -0.22153054
000070 53 06 87 bd 1b 77 ae 3c 64 74 85 3c ea c7 64 bd
       -0.06593003 0.021297028 0.016290851 -0.055854715
000080 e7 1e 4a be df 38 85 be 98 1a 8b bc 77 09 79 ba
       -0.19738351 -0.26019952 -0.016980454 -0.00095000066
000090 57 f3 a9 3d 9d 24 a4 bd 63 d9 2a be 1a 50 2d bd
       0.082983665 -0.08014796 -0.16684489 -0.04231272
0000a0 f4 c7 97 3d 2b a3 a1 3d 13 55 2a 3d 04 4c dc bd
       0.07411185 0.0789245 0.04158504 -0.10756686
0000b0 af 21 a6 bd 6c fa 63 3c 0b d9 1b bd 80 32 49 bd
       -0.081118934 0.013914686 -0.038048785 -0.049120426
0000c0 bd c0 a4 bd b9 8e 74 bd 59 63 51 bb 94 8e 59 bb
       -0.080445744 -0.059706423 -0.0031950085 -0.0033196555
0000d0 01 4e 18 3b b7 d1 c7 3c d6 e7 42 3e 81 9f d6 3d
       0.0023239853 0.024391992 0.19033751 0.10479642
0000e0 c3 ee a2 3d 49 dc d2 bd 19 2b 9b bd 12 8d 29 bd
       0.079556964 -0.10295922 -0.075765796 -0.0413943
0000f0 86 06 15 3e 91 56 3f 3e e9 9b 57 3d 72 4a c2 bd
       0.1455327 0.18685366 0.052638922 -0.094868556
000100 9d ed 00 bd ff e5 06 bb 0a 87 12 3e 7d 32 df 3c
       -0.031476606 -0.0020583866 0.14309326 0.027245754
000110 5a d3 3a bd d2 92 0e be 66 0a b0 bd 05 46 55 3d
       -0.045611717 -0.13923195 -0.08595733 0.05206873
000120 cb 46 c4 3d 30 6e 8c bd 57 6c df bd 86 6d 73 3d
       0.09583815 -0.06856954 -0.10909336 0.05943062
000130 4e bb 6c 3d 28 e9 a4 bc 2c 35 2a 3e dc ef 93 bc
       0.057795815 -0.020130709 0.16621846 -0.01805871
000140 3f 42 6c bd d6 60 0d 3e c8 6d 06 3e c5 32 14 3e
       -0.057680365 0.13806471 0.13127816 0.14472492
000150 8a d6 7f bd 4a ed 2c 3e d4 55 5c 3e 91 0b 8f 3d
       -0.06246046 0.16887394 0.21517116 0.06984628
000160 0b 03 6b bb 81 4a 04 3c 59 f2 4a 3e 24 62 81 3e
       -0.0035859968 0.008074404 0.19819011 0.25270188
000170 19 e7 9a bc 12 11 a1 bd ff db 4f 3d 3a 73 e4 3d
       -0.018909024 -0.07864584 0.050746914 0.1115479
000180 42 c8 3d 3d 16 9d 35 3d 26 7a 00 3d 9a f1 b8 bd
       0.04633356 0.044339262 0.03136649 -0.09030457
000190 71 65 9d bd b0 ce 92 3d a9 f1 b4 3d ff 87 97 3d
       -0.07685364 0.07168329 0.088351555 0.07398986
0001a0 7c c0 3f bd 67 50 61 3c 1a 83 3b 3d e1 59 1d bc
       -0.046814427 0.01375208 0.045779325 -0.009603948
0001b0 d9 a0 ee bc b4 b3 a3 bd 92 ff 05 3d 08 15 6c 3e
       -0.029129433 -0.0799326 0.032714434 0.23054898
0001c0 95 6b 37 3a 47 6b aa 3d d5 27 31 bd 90 67 d1 3d
       0.0006996927 0.08321243 -0.043250877 0.10224831
0001d0 51 04 61 3e 4a 67 f0 3d 1d 5a 75 bc 7a 40 e5 3c
       0.21974303 0.11738451 -0.014975098 0.027984846
0001e0 32 58 b1 3c bb 79 64 bc 59 91 be ba 60 34 a1 bd
       0.0216485 -0.013945038 -0.0014539167 -0.07871318
0001f0 db f7 5a 3d fa c5 73 ba 74 9e d8 3d 22 c3 93 bd
       0.05345903 -0.0009299215 0.105770975 -0.07214953
000200 da 83 ce bd c2 1d 4d 3d 7d 22 61 3d fc ba 2a 3e
       -0.100837424 0.050077207 0.05496453 0.16672891
000210 f9 6b 16 bd 1f ce 94 3b 6a 33 81 3a ea 66 59 3d
       -0.036724064 0.004541173 0.0009857242 0.053076662
000220 5a c7 a2 3d 78 18 82 bc 97 20 8d 3d cb a7 67 bd
       0.079481795 -0.015880808 0.06890982 -0.056556504
000230 61 c5 42 3e 10 e3 50 3e b3 2a 02 3e 68 8f a2 bc
       0.19020607 0.20399117 0.12711601 -0.019843772
000240 d8 d9 ef bc 26 99 e9 3d a5 ab 96 3d 9d 54 aa bc
       -0.02927868 0.11406164 0.07356957 -0.0207923
000250 16 9e 40 bc f2 8e fb bd 89 76 3e 3e 42 99 0c 3e
       -0.011756441 -0.12283124 0.18599905 0.13730338
000260 38 60 0f 3e 72 44 d3 3c 7b 38 30 bd f2 ac cb bc
       0.14001548 0.025789473 -0.043022614 -0.02486274
000270 f4 6d c5 3d 08 18 14 3d 6c 6d 94 bd 6e 4e db bd
       0.096401125 0.03615573 -0.07247433 -0.10708319
000280 36 25 27 bd 4d 36 63 3d 78 8e 50 bc 13 95 3f be
       -0.04080697 0.055471707 -0.01272928 -0.18709211
000290 5d 94 f2 3d 28 ea b6 bd 2f 82 ff bd 52 cf 8b 3d
       0.11844704 -0.089313805 -0.124760024 0.068266526
0002a0 99 ab cb 3d cf 2e a9 3d e1 13 e5 bd bf 6f 2b bc
       0.09944839 0.08260881 -0.11185432 -0.010463654
0002b0 02 26 21 3e 50 12 6c 3e 46 ae b2 3d 59 d5 26 3e
       0.15737155 0.2305386 0.08724646 0.16292323
0002c0 ce a5 ad bd 25 04 36 be 76 d4 ef bc 90 03 2e bd
       -0.0847889 -0.17775019 -0.029276114 -0.042483866
0002d0 70 0c b1 3d a7 37 a8 3b 1c f7 5b be 31 70 82 be
       0.086449504 0.0051335874 -0.21480983 -0.2547622
0002e0 b9 2e 98 3d e7 98 0b bd 2f 73 79 bd 67 29 82 be
       0.07430787 -0.034081366 -0.060900863 -0.25422212
0002f0 20 9c 45 be 3e a5 8c 3d 90 ba 7f 3d 3e f9 2f 3c
       -0.19297838 0.06867455 0.06243378 0.010740576
000300 5c dc b7 bd 55 48 14 be eb d7 6f bd 99 68 52 bd
       -0.08977577 -0.14480717 -0.058555525 -0.051369283
000310 4c a7 7e 3d fb 57 94 bd 2e aa c9 3c 04 f9 a3 3d
       0.062171265 -0.072433434 0.02461728 0.0800648
000320 a3 78 01 be 82 52 4d bd 78 35 33 be b0 21 96 bd
       -0.12643676 -0.050127514 -0.17500865 -0.07330644
000330 f6 ec 3b bc ff e4 ac 3c 1a 8d dd 3d c8 89 95 3c
       -0.01147007 0.021105288 0.108179286 0.018254176
000340 0b b8 e8 bd 80 bb 19 3e cb 49 23 3d d4 d4 bc 3b
       -0.113632284 0.15012932 0.039865296 0.005762676
000350 ff 8d 33 be dc d0 03 be a7 ee 22 3e 00 ca 54 3e
       -0.17534636 -0.12872642 0.15911351 0.20780182
000360 9a e8 40 3d dd e8 42 bd 93 8f 2e 3d de db 39 3e
       0.047096826 -0.047585357 0.04261739 0.18150279
000370 3c e6 14 3e f6 75 48 bc d3 b8 aa bd 1d 09 07 3e
       0.14540952 -0.012235155 -0.08336034 0.1318707
000380 0d 8b df 3d 21 23 a4 bd 63 d7 8c 3c ae df 2f 3d
       0.10915194 -0.08014513 0.017192548 0.042937927
000390 46 eb 9c bd 74 b3 cc bd a1 ad e5 bd 2b 2d 43 3c
       -0.07662062 -0.099951655 -0.11214758 0.011912624
0003a0 4c 02 99 bc 69 c9 02 bc 72 39 ad 3d da 92 c0 bc
       -0.018677853 -0.00798259 0.084582224 -0.023507524
0003b0 49 c6 24 be 26 ca a0 be b0 37 1d 3d 42 26 e6 3d
       -0.16091265 -0.31404227 0.038383186 0.11237766
0003c0 1f a1 f2 bc 90 4b ce bd d3 0b ee bd 89 3f 27 3e
       -0.029617844 -0.10073006 -0.11623349 0.1633283
0003d0 08 50 b4 ba de 38 e8 3d 1b f4 75 3e 7f e9 45 3e
       -0.0013756761 0.113389716 0.240189 0.19327353
0003e0 40 99 3f 3e 35 2c d6 3b d2 ac b5 3d 57 d6 8c 3d
       0.18710804 0.0065360316 0.088708535 0.068768196
0003f0 8b 4d 3b 3e ca 20 ef 3c eb 70 99 bd 18 00 8e 3d
       0.18291299 0.02919044 -0.074922405 0.06933612

net.0.conv.bias f4 [12]
000000 e0 09 cb 36 44 b1 a4 35 be 7e f2 b7 d7 49 7b b8
       6.051021e-06 1.2270543e-06 -2.8907667e-05 -5.9911832e-05
000010 86 76 0d b6 bb d0 28 b8 4c 1c c1 b7 ef 15 2a 37
       -2.1079627e-06 -4.0248717e-05 -2.302057e-05 1.0137896e-05
000020 35 40 8e 37 53 e7 e7 b4 27 95 47 b5 ad 2b a8 b6
       1.6957618e-05 -4.3195413e-07 -7.435032e-07 -5.0118747e-06

net.0.bn.weight f4 [12]
000000 76 25 46 3e 56 e9 03 3e 24 02 eb 3e 2b d8 2f 3f
       0.19350228 0.1288198 0.4590007 0.6868922
000010 22 1a 96 3e b4 1e a6 3e b2 c0 1c 3f 5a 42 63 3f
       0.29316813 0.324453 0.6123153 0.8877312
000020 26 14 fe 3e 06 00 99 3e 97 a0 1f 3f 1f e7 30 3e
       0.49624747 0.2988283 0.62354416 0.17275666

net.0.bn.bias f4 [12]
000000 c5 dc 9f bd bd 74 6b bd c0 67 2c 3e 98 d7 8d 3e
       -0.0780578 -0.057484377 0.16836452 0.27703547
000010 48 d0 05 be 8a 85 05 3c dc 0a b6 bd 14 2e 14 3f
       -0.13067734 0.008149514 -0.0888879 0.5788281
000020 d9 6d d5 bd d0 7f 6f 3e a8 aa 33 be ab 91 fa 3b
       -0.104213424 0.233886 -0.17545569 0.0076467595

net.0.bn.running_mean f4 [12]
000000 ef 04 75 3c 82 e6 a6 3f a5 ea 4f bd dc 02 04 bd
       0.01495479 1.3039095 -0.050760884 -0.03222929
000010 4a 67 c5 bd 81 15 b3 bd f5 7d 7a 3e 58 45 0a 3d
       -0.096388415 -0.08744336 0.24462111 0.033757538
000020 95 94 84 3d d5 08 1d 3e 79 d6 19 bf 2d ea c9 be
       0.06473652 0.153354 -0.60092884 -0.39436474

net.0.bn.running_var f4 [12]
000000 cf d9 e4 3d 94 af 10 3f 49 99 70 3d 9c 1d 9b 3d
       0.11174356 0.5651791 0.058739934 0.07574007
000010 eb 47 08 3e 4d ef 06 3d 42 d0 91 3e 51 a3 d9 3c
       0.13308685 0.03294306 0.284792 0.026567133
000020 96 a6 d3 3c f7 e7 6c 3e e4 a8 3e 3e 48 c8 0e 3e
       0.02583627 0.23135363 0.18619114 0.13943589
