experiment_outputs/different_base_nets/diff_fc_tanh_agg_feat-36.model (torch_old, 169148 bytes, 58 tensors)

unit1.conv.weight f4 [12, 3, 5, 5]
00000000: 19f1 063e 1ce4 8d3d f070 1e3e ac74 893e
00000010: 7c94 ee3d 34a8 553d 2bb4 4fbe 25cb 583e
00000020: 5193 343e 40de 76bd 31f0 14be 979e 64be
00000030: 64bc 2f3e e388 933c d0a5 fd3c ffb3 2ebe
00000040: 08a7 6fbc 6513 da3d c4b1 23be 38cd b53d
00000050: 2126 0abe 0542 53bd ebc4 843d 8838 1e3d
00000060: 846d 64bd 5006 a5bd 1c66 1e3d 5560 e6bd
00000070: 6a06 043b c30c 283d 7bc7 4c3d b9e3 c0bd
00000080: 014d 6dbd f004 7f3d a07c 69be f392 513d
00000090: 3ebc 1abe b40b c0bc 4cfe 4cbe 48c3 31be
000000a0: 0a4e 21be e694 61bd b397 c43d f9e7 48be
000000b0: cabc 3fbe a54d b83d c52c 64bb a8c6 25be
000000c0: 8133 efbc 7154 a73c b5eb 163d 37fa 01bd
000000d0: d78c 543d 2cac 64bc 4f92 4fbd 371d d1bc
000000e0: e6f6 34be 34b5 733d e2fd b43d 7f62 82bd
000000f0: ca60 b5bc e315 ec3c 5592 8d3e b355 8c3c
00000100: 7ee3 fabd b957 853d 2001 c33d 3f28 803e
00000110: a8de bc3d 333d 093d 9775 643d f765 073d
00000120: 745f 163e a942 5c3d 48d1 4d3d e020 53bd
00000130: fd3b a3bd 937d a63d 7057 4dbd a69a f83b
00000140: bfba e53d 9540 ac3c da1d cbbd c616 39be
00000150: 89db 94bd b6fe cc3d 47ef e03d 2490 113d
00000160: dd0c 1cbe 8361 3e3d 30b6 c6bc 789e 603d
00000170: 5b3b 70bb 3d5c 75bd 4ea1 7bbc 3daf 4e3d
00000180: 0280 e5bd 907f c0bd df82 063d a854 183c
00000190: ee18 d5bd 8c71 8cbd 2c7c a6bd 6109 14be
000001a0: 4a1c fc3c 840c d33b 00c4 acbd 2221 0bbe
000001b0: 219c d8bd 2e6e 0ebe 3526 b53d 7fa0 293e
000001c0: 38a5 a03d 19a7 613d 3a0e fe3c 4459 183e
000001d0: 49e4 4b3e 50a0 4b3e 7af7 fa3d 0fd1 af3d
000001e0: 8e65 663c 0e60 b43b 6b4b a9bc cb53 083e
000001f0: 3649 e03d b5a2 1cbd b55c 12be 4d29 57be
00000200: 9600 a6bd 226f cfbb e8bb a8bd 6a6d 84be
00000210: df42 b1be eac2 d2be 2bab 2dbe bb8d 813b
00000220: 0af5 8b3d e18a 5ebb e157 35be 43c9 89bd
00000230: a32a 79bd 0891 ef3c fe60 59bc 766b 02be
00000240: ab61 0abe 809c 5dbe 46b2 38be 0305 c4bd
00000250: 4da6 f5bd 06d5 abbd 3638 a03d 644c 08be
00000260: 42fa 18be c544 61bc 4fb6 5a3e 596b 08be
00000270: ca7f d5bd 8146 a5be 7c25 41bd 1acc a0bc
00000280: 3f51 29be c370 0fbd af1d adbe 1db0 1bbe
00000290: 0919 b8bc ddf9 7fbd 7a1d 22bd ec3e 1cbe
000002a0: 06a9 cb3b 1f53 903d d389 533e 93ba 2c3e
000002b0: 5cf5 243e a292 163e e2fc 103e 29c5 31bc
000002c0: 4a77 f13d e18e 7f3c c6ad c23d 7009 383e
000002d0: fd8d cdbd f3da 00be 048e 6bbe 29d6 25bc
000002e0: e4d1 b63d 797b fcbd acc0 28bb 82a0 81be
000002f0: 9d7d 5abe d110 bebd 514b bb3d 42b0 ac3d
00000300: a344 1abe d331 e4bd 5274 8a3d fee0 f0bc
00000310: e410 9dbd 8ee8 983d ef67 313d 97e9 78bb
00000320: df4f 8c3d 8840 8d3d 7b3f 4d3e e107 443e
00000330: 1df3 3abc e331 e53d a65f 9b3d 59f3 82bd
00000340: 0ddb efbc 4b31 e2bc ef0d ff3b 3931 113e
00000350: 39ca b7bd d06a babd 588e 28bd e86b 0f3d
00000360: 9458 be3c d799 a93d 5f01 79bd 130b 80bd
00000370: 0bfa 0c3d 4837 5a3d 1a88 bf3d 1dd3 043d
00000380: 85fc 1a3b 6233 aebd 60b6 33bd 9563 a3bd
00000390: 1582 e7bd b42e 0f3c faab d7bd 9cf7 503c
000003a0: 1ac9 a93d 9b35 c1bd b540 803c f51d a5bd
000003b0: b373 a3bd 3909 84bb efa9 38bd 8aa9 acbd
000003c0: d545 9dbd efcb 013e d4b3 b23d 5f94 04bd
000003d0: a033 073d 6ee9 033e 2d88 dcbc 4971 38bd
000003e0: 07b5 ae3d 0c97 eeba 33e0 25be b2c1 0839
000003f0: e59d 0cbd 0027 c4bc a3cc 043c d1be 01be
0.13177909 0.06928274 0.1547277 0.26846826 0.11649415 0.052162364 -0.20283572 0.21171243
0.17634322 -0.060270548 -0.14544751 -0.22326122 0.17161709 0.018009609 0.030962855 -0.1706085
-0.014627226 0.106482305 -0.15985781 0.08877033 -0.13491108 -0.051576633 0.064828716 0.03862813
-0.055768505 -0.08057845 0.038671598 -0.112488426 0.0020145425 0.041027796 0.049994927 -0.09418435
-0.057934765 0.06226057 -0.22801447 0.051165532 -0.15110871 -0.02344308 -0.20018882 -0.1735965
-0.15752426 -0.05507364 0.09599247 -0.1961974 -0.18724361 0.089991845 -0.0034816724 -0.16189063
-0.029199364 0.020426007 0.03684588 -0.031732764 0.051892128 -0.013957065 -0.05067664 -0.025526626
-0.1767231 0.05949898 0.08837487 -0.06366443 -0.02214088 0.02881903 0.27650705 0.017130708
-0.12250422 0.065108724 0.09521699 0.25030705 0.09222156 0.03350563 0.055776205 0.033056226
0.1468485 0.05377451 0.050248414 -0.051545024 -0.07970426 0.0812942 -0.050132215 0.007586795
0.112172596 0.021026889 -0.09917803 -0.18075094 -0.072684355 0.1000952 0.109831385 0.035537854
-0.15239282 0.046479713 -0.024256796 0.054838628 -0.0036656472 -0.05990242 -0.015358282 0.05046009
-0.11206056 -0.093993306 0.032839652 0.009297527 -0.104051456 -0.06857595 -0.08129153 -0.14456703
0.030775208 0.006440701 -0.084358215 -0.13586858 -0.10576654 -0.13909218 0.08845178 0.1656513
0.07844013 0.055090997 0.031012643 0.14877802 0.19911303 0.19885373 0.12254234 0.08584797
0.014062298 0.0055046147 -0.020665845 0.13313214 0.10951464 -0.038241107 -0.14293177 -0.21011849
-0.081055805 -0.0063303867 -0.08238965 -0.25864726 -0.3462133 -0.41164333 -0.16959827 0.003953663
0.06833847 -0.003395729 -0.17709304 -0.06727841 -0.060831677 0.029243961 -0.013267754 -0.12736306
-0.1351382 -0.21641731 -0.18036756 -0.095712684 -0.1199461 -0.0839024 0.078232214 -0.1331039
-0.14939216 -0.013749306 0.21358608 -0.133222 -0.104247645 -0.32280353 -0.04715489 -0.019628573
-0.16534899 -0.035019647 -0.3381171 -0.152039 -0.022472875 -0.062494148 -0.039578892 -0.15258378
0.0062152175 0.07047104 0.20658045 0.16868047 0.16109222 0.14704373 0.14158967 -0.010850229
0.11790331 0.01559803 0.09505801 0.1797235 -0.10036848 -0.12583522 -0.23003393 -0.010121861
0.08926752 -0.12328238 -0.0025749607 -0.2531777 -0.2133698 -0.09280551 0.09145225 0.08432056
-0.15065245 -0.11142316 0.067604676 -0.02940416 -0.07669237 0.07466231 0.04331201 -0.0037981027
0.06851172 0.06897074 0.20043747 0.1914363 -0.011410502 0.11191156 0.07586603 -0.06394071
-0.029279256 -0.027611395 0.0077836434 0.14178933 -0.08974118 -0.09102404 -0.041151375 0.035015017
0.023235597 0.08281296 -0.060792323 -0.06252112 0.034418147 0.053275377 0.09352131 0.032427896
0.0023649049 -0.08505894 -0.0438751 -0.07977978 -0.11304108 0.008739162 -0.10530849 0.012754347
0.0829031 -0.094340526 0.015655855 -0.080623545 -0.07981052 -0.0040294197 -0.045083936 -0.084307745
-0.07679335 0.1267545 0.08725706 -0.03236806 0.033008218 0.12882015 -0.026920402 -0.045029912
0.08530622 -0.0018202974 -0.16198806 0.00013042128 -0.034330267 -0.023944378 0.00810543 -0.12670447

unit1.conv.bias f4 [12]
00000000: 37d2 37b8 d7b4 c736 154c ee37 ed12 2bb6
00000010: 572b 9337 6070 0000 3425 8d38 8459 47b7
00000020: dc01 c5b7 131b 0cb9 9413 8cb7 6ce4 f736
-4.3826378e-05 5.9517147e-06 2.840724e-05 -2.5492002e-06 1.7543947e-05 4.0313e-41 6.7303336e-05 -1.1882166e-05
-2.3485096e-05 -0.00013361526 -1.6698417e-05 7.3877654e-06

unit1.bn.weight f4 [12]
00000000: 1737 a93e d014 9c3e 2030 333f db68 293e
00000010: b2a4 1a3f 094d ab2a 8bba 6c3f d8ff 1d3f
00000020: 94fc 403f a3fc 513f 9c51 183f 1488 4b3f
0.33049843 0.3048463 0.6999531 0.16543905 0.60407555 3.0429156e-13 0.9247214 0.6171851
0.75385404 0.8202612 0.59499526 0.79504514

unit1.bn.bias f4 [12]
00000000: 6ada fa3d 9df3 18be 010a 33be e0da a6bd
00000010: 8590 cbbd 5cef f299 5c1c 9a3e efd7 613d
00000020: 75e9 873e 761e 003f e636 fbbc 8b52 813d
0.122486904 -0.14936681 -0.17484285 -0.08147216 -0.09939674 -2.511889e-23 0.3009976 0.05513757
0.265453 0.5004648 -0.030665826 0.06314572

unit1.bn.running_mean f4 [12]
00000000: 4e2f 22bd 1cf5 74bf bb7e bbbe 6be8 1f3f
00000010: 7d59 9b3e 146d 0000 f01a 0d3e fb76 fb3b
00000020: 9389 9e3c 94ff 80bc f4c7 5ebe f70f f83c
-0.039595895 -0.9568651 -0.36620125 0.62464017 0.30341712 3.913e-41 0.13779807 0.0076740957
0.01935271 -0.01574687 -0.21755964 0.03028105

unit1.bn.running_var f4 [12]
00000000: 91cf 253d 810a da3e 7ec1 f33d 1c63 973e
00000010: 4a94 143e 0400 0000 ff9d 2d3d 2cc5 013e
00000020: fabb 473d 7afa bb3c a437 cd3d 5dd6 813d
0.040481154 0.4258614 0.1190214 0.29567802 0.14509693 6e-45 0.042387005 0.12672871
0.048763253 0.022946585 0.10020378 0.06339715

unit2.conv.weight f4 [12, 12, 5, 5]
00000000: 639e a6bd 9feb b8bd 11e0 943a eedb 863a
00000010: 80a8 55bd 4c8a bbbd ebbd d8bd b419 1a3d
00000020: cbcf 523d aa1d edbd 9e6a 09be 918a 2ebd
00000030: dcf0 513d 12e5 19bc f53a 1ebe e9b4 f0bd
00000040: 1a64 a83d e225 a03c 9a51 7dbd 28ae 1fbe
00000050: 27ad 23bd 42a1 e13d 88be debc 8949 0abe
00000060: 6886 edbc 125f 8bbd b462 81bd 7837 4dbd
00000070: 7007 dfbd ff4e 88bd 1df3 57bd 67ec 60bd
00000080: 4feb d5bc 3cfe acbd a34b babc 557e c3bd
00000090: eaa9 8ebd c9cf 7ebd c093 f8bc 70b6 5bbd
000000a0: 40b6 2cbd 4bc0 00bd 054d 96bd 3a8e 57bd
000000b0: 996c 86bd 6e57 73bd f800 86bd f604 7fbd
000000c0: 2078 04bc f38c 4fbd 5fb2 c4bd 1b9d f9bd
000000d0: 91d4 b2bd c25d 0abe 43f8 50be 6258 30bb
000000e0: 973a 5ebd d85d c0bd c565 f5bd 7427 f1bd
000000f0: 3af4 41bd 9c94 aebd 5ac2 d6bd 3f3c dabd
00000100: 3142 f7bd be4a 89bd c08d 32be b63f 06be
00000110: cdc7 1ebd 02b9 55bc 17ac 14be 02a7 58be
00000120: 9a8f 38be fdf1 193d c6c1 d33c 36f0 b93c
00000130: 284a 873d 3db2 903c c7b7 f8bc 27da b0bd
00000140: 0e8e 603d 6f2b ba3d 5051 543d 1109 9dbc
00000150: c588 1ebd cb75 d03c 194a 873d 6b8c 8a3c
00000160: 8db1 6fbd bf2e 9cbd a094 53bd 8fdb dabc
00000170: 0539 8abd 4575 a2bd 8691 b3bd 0bcf b5bd
00000180: 1117 61bd c1d2 71bd bb90 dabd df1d d6bd
00000190: ab4f 42bd 2e3f a7bc 6f5c 71bd 573a 8cbd
000001a0: b386 d0bd 2aee 31bd 6f48 2f3c 0389 f83c
000001b0: d4f0 b4bd 27e5 e2bd 083a 21bd dd87 2d3d
000001c0: 5a40 a7bc cf9b 6dbc c379 c2bd 0e91 7cbd
000001d0: cb40 113d a801 fbbc f01b 8abd 3303 92bd
000001e0: 2719 1dbd b72b ef3c 9c97 3bbd 4a64 8bbd
000001f0: 7da7 bfbd 2626 0080 2b0a 0000 1019 0000
00000200: da75 0080 ee4c 0080 1445 0000 c606 0000
00000210: d004 0000 d840 0000 7ea3 0080 5286 0000
00000220: f684 0000 415f 0080 3a61 0080 4e0e 0080
00000230: 0633 0080 7a76 0080 d38e 0080 d565 0080
00000240: 5c20 0080 ae0c 0080 7151 0080 7d50 0000
00000250: 2892 0080 9610 0000 8e3d e9bd d644 98bd
00000260: 027f 4c3d c0de 9c3c 7da4 7bbc 3afb 33be
00000270: b488 dbbc 7b78 1e3d 2884 623d 3f24 163d
00000280: d977 14be 056f 8dbd 4960 693d cb7d ad3d
00000290: 7b90 b3bc 74a8 24be b17c bbbd c3c5 753d
000002a0: 45d2 733d 6c19 f73c fdce 3dbe c1d1 98bd
000002b0: 653c e5bc 2a76 f4bc e50f 80bd c3c2 a43d
000002c0: 35b9 233e 7a05 bd3d 9543 f23c 4798 023d
000002d0: c6ab 843c ead1 8e3d 6eb8 113d 50ae 5b3c
000002e0: b1a4 7d3c ac58 cc3c 4ca0 da3c c9f7 b43b
000002f0: 8f12 e0bd d50d 11bd 95f6 343e 8c4b ef3d
00000300: 7d3c 0bbb 2283 98bd 652c babd c406 4c3e
00000310: d7b5 b73d a4ed 6dbc 17ea 8dbd b2f4 31bd
00000320: 479e 10bd e451 60bc caea fc3b 9ed9 2b3d
00000330: 7876 0e3e c43c a73b 4775 bfbd 01f6 86bd
00000340: 8a2e 623d 68ab 9c3d 1a2f d1bd e9c5 8bbe
00000350: c61d 1fbe 331c 05bd 8a00 1dbb 73fe a3bd
00000360: d0ff 81be 9485 9abd 0dcc b43c 84b5 323d
00000370: ddad dabc fd82 a4bd cd33 ba3d e1db d23d
00000380: 4857 a13c 5d2e 3fbb 4d8a 40bd 7394 72be
00000390: 0c04 4bbe 539f d0bd 43ac 913d e649 cf3c
000003a0: 1c22 83be 8968 91bd 8031 453d b4df a23d
000003b0: 7a1d 3dbd f500 95be 2546 d3bd f00a c9bc
000003c0: 8a36 0e3d 1b71 43bd 550e 1abe 8c07 c83d
000003d0: b184 b83d 3aef 443d eec9 4ebd caa7 18be
000003e0: 9050 2b3d f94e 90bc 7e6e adbe 4575 31be
000003f0: 5af7 08bd 264c 443d b819 e83d d024 95be
-0.081356786 -0.09029316 0.0011358281 0.0010288933 -0.052162647 -0.091572374 -0.10583099 0.03762217
0.051467698 -0.115779236 -0.13419577 -0.042612616 0.051255092 -0.0093929935 -0.15452178 -0.11753256
0.08222218 0.019549314 -0.0618454 -0.15593779 -0.039960053 0.110170856 -0.027190462 -0.13504614
-0.028994754 -0.068052426 -0.06317654 -0.050101727 -0.108900905 -0.06655692 -0.052722085 -0.05491295
-0.02611318 -0.08446929 -0.022741145 -0.0954558 -0.06966002 -0.062209878 -0.03034389 -0.053640783
-0.042165995 -0.031433385 -0.07338909 -0.052625872 -0.06563682 -0.05940955 -0.065431535 -0.06226059
-0.008085281 -0.05067153 -0.09604334 -0.121881686 -0.0873195 -0.13512328 -0.20407204 -0.002690815
-0.054255094 -0.09392899 -0.119823016 -0.11775103 -0.047352053 -0.08524439 -0.10486288 -0.10656022
-0.12073172 -0.06703709 -0.17436886 -0.13110241 -0.038764764 -0.013044598 -0.14518772 -0.21157458
-0.1802353 0.037584294 0.025849234 0.02269755 0.06605941 0.017663116 -0.03036107 -0.08635359
0.054822974 0.090903156 0.05183536 -0.019169362 -0.038704652 0.025446793 0.0660593 0.01691266
-0.058518935 -0.076261036 -0.05165541 -0.026716022 -0.06749157 -0.07932524 -0.08767991 -0.08877381
-0.05495364 -0.05903888 -0.106721364 -0.10454916 -0.04743926 -0.020415869 -0.058926042 -0.06847065
-0.10181942 -0.04344002 0.010698422 0.03033877 -0.08834997 -0.110788636 -0.039361984 0.042365897
-0.020416427 -0.01450248 -0.094958805 -0.061661772 0.035462182 -0.030640438 -0.0674361 -0.071295165
-0.038354065 0.02919565 -0.045798883 -0.06806238 -0.09358118 -1.3685e-41 3.648e-42 8.991e-42
-4.2277e-41 -2.7597e-41 2.478e-41 2.43e-42 1.726e-42 2.3262e-41 -5.865e-41 4.8185e-41
4.7697e-41 -3.417e-41 -3.4878e-41 -5.132e-42 -1.8304e-41 -4.2501e-41 -5.1236e-41 -3.653e-41
-1.1608e-41 -4.549e-42 -2.9216e-41 2.8874e-41 -5.2431e-41 5.95e-42 -0.11388694 -0.074350044
0.04992581 0.019149184 -0.015359041 -0.17576304 -0.026798584 0.038689118 0.055301815 0.03665566
-0.14498843 -0.06905941 0.05697659 0.08471259 -0.02191948 -0.16079885 -0.091546424 0.060003053
0.0595267 0.03016349 -0.18535991 -0.074618824 -0.0279829 -0.029841501 -0.06253032 0.0804496
0.1598862 0.0922956 0.029573241 0.031883504 0.01619519 0.06973632 0.035576276 0.013408259
0.01548116 0.024944626 0.026687764 0.0055227024 -0.1094104 -0.035413582 0.17672189 0.11684331
-0.002124577 -0.074468866 -0.09090499 0.19924456 0.0897023 -0.01452199 -0.06929415 -0.04344625
-0.035307195 -0.013691399 0.0077184187 0.041955583 0.1391238 0.0051036794 -0.09348541 -0.0658989
0.055220164 0.07649881 -0.10214062 -0.2729943 -0.15538701 -0.032497596 -0.002395662 -0.08007517
-0.25390482 -0.07545009 0.022069955 0.043630138 -0.026694233 -0.080327965 0.090919115 0.10295845
0.01969494 -0.0029171922 -0.047006894 -0.23689441 -0.19825763 -0.10186639 0.071129344 0.025303792
-0.2561196 -0.071000166 0.04814291 0.07952824 -0.04617069 -0.29102293 -0.103161134 -0.024541348
0.03471998 -0.047715288 -0.1504453 0.097670645 0.09009684 0.048079707 -0.050485544 -0.14907756
0.041824877 -0.017615782 -0.3387336 -0.17329891 -0.033439018 0.047924183 0.113330305 -0.29129648

unit2.conv.bias f4 [12]
00000000: c889 2836 c535 81b6 10ff f6b5 ef9a c036
00000010: 7128 d036 d709 0eb6 219d c0b5 0e73 3cb7
00000020: e3ce a834 b2e0 9ab5 981c 30b6 a5d2 a337
2.511415e-06 -3.850759e-06 -1.8402661e-06 5.7400825e-06 6.203591e-06 -2.1165376e-06 -1.4350845e-06 -1.12324615e-05
3.1442968e-07 -1.1539289e-06 -2.6242687e-06 1.9529203e-05

unit2.bn.weight f4 [12]
00000000: 611c f93e 20d8 053f 665e 093f 6f23 313f
00000010: ec8f 113f c40b 3c3f fa50 4a3f 6618 2b3f
00000020: 7dcd 3f3f 32d8 f13e 3c26 f63e 31f8 403f
0.48654464 0.52282906 0.53659666 0.6919469 0.5686023 0.7345545 0.7902981 0.66834104
0.74922925 0.47235256 0.48076046 0.7537871

unit2.bn.bias f4 [12]
00000000: 5a2a 31be 1b40 99be 225a 3fbe e950 d1be
00000010: 38cc 0fbe 5131 97be 03b9 b9be 43b9 85be
00000020: dada acbe ecc6 6abe f054 3fbe 8b73 55be
-0.17301312 -0.2993172 -0.18686727 -0.40882042 -0.14042747 -0.29529813 -0.36273965 -0.26117906
-0.3376072 -0.22927445 -0.18684745 -0.20844857

unit2.bn.running_mean f4 [12]
00000000: 05e5 42c0 7111 95bf f810 e63e 6c36 acbf
00000010: 729d 89bf 84a7 edbe aa32 8dbf 65ff 8ebf
00000020: 2afb b3be 52f9 97bf 66a7 05c0 b2c0 0ebf
-3.0452282 -1.1645948 0.4493482 -1.3454108 -1.0751173 -0.46416867 -1.1031086 -1.117169
-0.3515256 -1.1872962 -2.0883422 -0.5576278

unit2.bn.running_var f4 [12]
00000000: 01a9 8940 7f38 b93f af8d d03f 3dd6 d33f
00000010: 292a 2f40 cd9c 1840 5d36 ed3f 8dcb e83f
00000020: de96 703f 72ad 8f3f 1f05 0a40 3a8e cf3f
4.3018804 1.4470366 1.6293238 1.6549755 2.7369483 2.3845704 1.8532215 1.8187119
0.93980205 1.1224806 2.1565626 1.6215279

unit3.conv.weight f4 [12, 12, 5, 5]
00000000: 01f3 3c3e c57e 0abc 0b27 4e3a dfd5 803c
00000010: 8561 803d b301 373e 8622 1fbd a396 e9bc
00000020: ba47 c3bd fa70 3cbd 715b f03d b252 39bd
00000030: b725 e43b 6d17 d8bd b1d0 f3bd dbc0 0a39
00000040: 2793 2cbd f5a4 b33c bb08 1ebd ae3e 75bd
00000050: 1577 903d db3b cabc 86fc 003d 7c5c b7bb
00000060: 8d69 2d3c 2b54 e5bc 4c8d 88bd 5e39 61bd
00000070: b5b7 793d 4283 2e3c b478 9fbb 37d5 51bd
00000080: fa96 92bd 44f4 3bbe e75b 2fbe adef 11be
00000090: 07ef 5a3d 1b5a de3a 245c 64bc d83d a4bc
000000a0: e249 47bd 0933 f93d dc34 bb3d 5a56 9c3d
000000b0: cadf 023e c9e5 fdb9 a18d aa3d 691c 223e
000000c0: 5114 9b3d 252d 0c3e f1fc debc 9413 cdbc
000000d0: 7b59 e33c ff09 273e 3495 3b3e c83a ffbd
000000e0: 3196 cbbd 2816 22bd 0104 953d af52 b83d
000000f0: 9b0d dbbd d590 87bd aecf 3d3d c394 923d
00000100: f1e4 18bd b3b1 b8bc 109a a93c 60ce d03d
00000110: 1cf9 0c3d 0982 7bbd 1749 14bd 35d3 373d
00000120: 68cb 6b3d 6e31 4ebd b66d 19be 3ea2 a63d
00000130: b400 b23d 82dd c7bb fef0 1fbd fdd2 54bc
00000140: 1939 ee3d f27e 4abb 2d29 e9bd 1c11 eabd
00000150: f178 a0bd 3e6f c93d 8c08 043c 36df 6cbe
00000160: eed3 8dbe bdc4 46be ac37 d53d 1a49 533c
00000170: 38e7 2bbe 74c2 21be 89d9 17be 9d57 2e3e
00000180: 09aa 493d d62f 01be aa2e 60bd ec07 d8bd
00000190: 7c93 ae3d 8b69 703d 0503 aa3b 519a b63d
000001a0: bf66 0d3e 9446 b33d 622e b1bd 9610 00bd
000001b0: 2543 b4bd 6807 8b3c d435 123c e979 88bd
000001c0: a146 94bd e83c 3ebe a8e4 e3bd a6af f63c
000001d0: ab34 20bd e17d a8bd 6174 c9bd 177b eabd
000001e0: c597 633d fb55 593d 0014 1abd 02b6 1ebe
000001f0: 4496 14be 5657 ac3c ab3c 263e 8082 5b3c
00000200: 968c c8bd 01e0 16bd 1e00 253d 462a 2e3e
00000210: 5e72 a8bb 0e9e 30bd a6f1 a33c 4a86 153c
00000220: f822 de3d ec52 b33d 5f9f a83c ee36 773d
00000230: 8c9e c43d 2a30 423d 14ff 843c d71c b4bd
00000240: 6863 cc3d e6e5 b53d f801 b63d e907 933c
00000250: ffd8 3dbd bfdb ad3d 0996 75be 9883 81be
00000260: bc6d ddbd 7697 1e3c c8b2 7c3e 31c6 ecbd
00000270: 71b0 1abe a14f 31be 5acd b2bd 8c60 b13d
00000280: 1c3b 57bd 73f2 05bc 49c0 abbd 9d7e 57bd
00000290: 843c 46bd 0505 e0bc b923 30bb 341b 4b3d
000002a0: 8ad0 debb 30cb 4abd a440 07bd 8d05 83bd
000002b0: b79c bd3d 642c 9a3c 8d5b fdbd 77dd 2b3e
000002c0: b8f8 a63d 51d2 eb3c 0209 603c afd2 9dbc
000002d0: 4c9f 853d 958b ffbc ce3e d8bd 14b4 0ebe
000002e0: 2508 23be 5afd 503c f92f eebd 6fb2 febd
000002f0: 8547 1bbe 2f44 4abe a303 94bd dfec 0ebe
00000300: 91dc d23b e258 85bc ca01 f9bd 4104 e2bc
00000310: 606d 3f3d 8d77 433d 253a f53d b9be 1cbd
00000320: 99b1 16be 2f7d 18be 3525 00be 3933 82bd
00000330: 17da be3d aac2 98bd d782 80bd 09ae 82bd
00000340: 3a1a 53bd 7a9f 89bc 6134 e2bd ef5d 7a3d
00000350: 9833 a13d 5c3a ca3d 05d3 cd3d e315 9e3d
00000360: a868 4f3d a725 b0bc 8538 293e 3ed9 ba3d
00000370: 3a94 4d3b a5be 523d 4228 8a3d 2ffb 223d
00000380: 6c48 a8b9 5c80 533d 92ab c4bd c937 28be
00000390: 9902 31be 7d0c 07bd 8132 983c 29a8 86bd
000003a0: 938e c5bd e4b1 48be dba3 f1bc adc4 873d
000003b0: 61c8 283d c3d1 7f3d ea8e 4cbd 874c d23b
000003c0: 6dc3 f03d a858 303d 84c1 a23d 59e7 a43d
000003d0: fa8a 143e 41c3 363d d3b5 14ba 0346 ef3d
000003e0: 1f58 db3d 8d9b 563e 5de3 da3d 15f0 39bd
000003f0: 1ad7 e8bc 9b98 06be 03dd 0ebe 4d0c a13d
0.18452074 -0.008453076 0.0007864094 0.015726982 0.062686004 0.17871742 -0.038851283 -0.028514212
-0.09535165 -0.04600618 0.11736191 -0.04524488 0.006962504 -0.10551343 -0.11905039 0.0001323255
-0.042132523 0.021929244 -0.038582545 -0.05987423 0.07053963 -0.024686744 0.031490825 -0.005595742
0.010584247 -0.027994236 -0.06667575 -0.05498635 0.060966212 0.0106514115 -0.004866684 -0.05122873
-0.07157703 -0.18354899 -0.17124902 -0.14251585 0.05345061 0.0016964109 -0.013937984 -0.02004902
-0.048654445 0.12167937 0.091409415 0.07633658 0.12780681 -0.00048427124 0.08327795 0.1583115
0.075722344 0.13689096 -0.027220221 -0.02503375 0.027752629 0.16312407 0.18318635 -0.124623835
-0.09940756 -0.03957191 0.07276154 0.09000146 -0.106959544 -0.066194214 0.046340637 0.0715728
-0.03732771 -0.022545671 0.020703346 0.10195613 0.034417257 -0.061403308 -0.036202516 0.044879157
0.05756703 -0.05034011 -0.14983258 0.08136414 0.0869154 -0.006099404 -0.039048187 -0.012989757
0.11631984 -0.003089842 -0.11384807 -0.114290446 -0.07835568 0.09835671 0.008058678 -0.23132023
-0.27700752 -0.19410987 0.10411009 0.012895847 -0.16787422 -0.15796834 -0.14829077 0.1702561
0.049234424 -0.12615904 -0.054732002 -0.10548386 0.08524224 0.058694404 0.0051883482 0.08916152
0.13808726 0.08753696 -0.08651425 -0.031265818 -0.08801869 0.016971305 0.008923966 -0.066638775
-0.07240034 -0.18577921 -0.11127597 0.030113053 -0.039112728 -0.082271345 -0.09836651 -0.11449259
0.05556466 0.053060513 -0.03761673 -0.15499118 -0.14510447 0.021037739 0.1623408 0.013397813
-0.0979244 -0.03683472 0.040283315 0.17008314 -0.0051405868 -0.043119483 0.020012688 0.009126255
0.108465135 0.087560505 0.020583807 0.06035512 0.09600553 0.047409214 0.016234912 -0.08794563
0.09979898 0.0888174 0.08887094 0.017948108 -0.04634952 0.08489179 -0.23983015 -0.2529571
-0.10811946 0.009679666 0.24677575 -0.115612395 -0.1510637 -0.17315532 -0.08730574 0.08660993
-0.052546605 -0.00817548 -0.08386285 -0.052610982 -0.048397556 -0.027346143 -0.002687676 0.04958649
-0.006799762 -0.04951018 -0.03302063 -0.06397543 0.092584066 0.018819995 -0.123709776 0.16783701
0.08152908 0.02878681 0.013674023 -0.0192655 0.06524524 -0.031194488 -0.10558854 -0.13935882
-0.15921076 0.012755716 -0.11630244 -0.12436377 -0.15164001 -0.19752572 -0.07227256 -0.13957547
0.006434985 -0.016277734 -0.12158544 -0.027589919 0.046735168 0.047721434 0.11973981 -0.038267825
-0.14716186 -0.14891504 -0.12514193 -0.06357426 0.09318941 -0.07459004 -0.06274956 -0.06380851
-0.051538683 -0.016799677 -0.11045147 0.06112474 0.07871169 0.098744124 0.100500144 0.07719018
0.050636917 -0.021502329 0.16525467 0.09123467 0.0031368867 0.051451344 0.0674596 0.03979033
-0.00032097416 0.051636085 -0.09603037 -0.1642753 -0.17286147 -0.032970894 0.01857877 -0.06575043
-0.096463345 -0.1959911 -0.029497078 0.0662931 0.04120672 0.062455904 -0.04994098 0.006417814
0.117560245 0.0430533 0.079470664 0.080519386 0.1450614 0.044619802 -0.0005672846 0.116832756
0.10710167 0.20957775 0.10687897 -0.045394976 -0.02842288 -0.13144152 -0.13951497 0.07863674

unit3.conv.bias f4 [12]
00000000: 6e59 2535 b4e1 4536 0342 1bb5 6242 8735
00000010: 7bae 1f35 89f5 5cb5 aa55 8535 59c9 0eb4
00000020: e32e e2b6 609d cf34 c378 9b35 a2fe 81b6
6.159743e-07 2.9486664e-06 -5.783806e-07 1.0077604e-06 5.948602e-07 -8.231369e-07 9.934204e-07 -1.329803e-07
-6.740783e-06 3.867126e-07 1.1583546e-06 -3.8741427e-06

unit3.bn.weight f4 [12]
00000000: d4ed 073f 1894 ef3e e635 863e ad0e 163f
00000010: ad60 3c3f 4992 d23e 4fb4 113f 2945 c33e
00000020: 8f7b ff3e 433f 573f 7e9a 213f e751 1e3f
0.5309727 0.46792674 0.26212996 0.58616143 0.73585016 0.41127232 0.56915754 0.38138703
0.49898955 0.84080905 0.6312636 0.61843723

unit3.bn.bias f4 [12]
00000000: 10f2 3bbe 890e 94be 27a5 ddbd cd22 31be
00000010: 2256 3abe a5b8 f9bd a547 81bc a0a2 52bb
00000020: d0ba 10be cf12 b4be f066 85bd 7881 3bbe
-0.18354058 -0.2891734 -0.10822516 -0.17298432 -0.1819692 -0.12193421 -0.015781233 -0.003214039
-0.14133763 -0.351706 -0.065137744 -0.18311107

unit3.bn.running_mean f4 [12]
00000000: 835e 55be 63fb 8a3e c93f 3f3e bc89 4c3d
00000010: dfab 98be 61ac d2bf 8f57 d0bf 1a3d 13bf
00000020: c147 e73e 8a58 91bf 48ed 313e c9a4 45bf
-0.20836835 0.27144918 0.18676676 0.04993604 -0.29818627 -1.6458856 -1.6276721 -0.5751511
0.4517193 -1.1355145 0.17375672 -0.7720457

unit3.bn.running_var f4 [12]
00000000: efc7 823f 6a87 303f 9a7a 573f d021 693f
00000010: c2a4 4e3f 8bfb 953f 1176 fa3f f973 893f
00000020: 5631 5c3f 37bf 5f3f 20f2 563f 5893 5f3f
1.0217265 0.68956625 0.8417145 0.9106722 0.8072015 1.171739 1.9567281 1.0738517
0.8601278 0.87401146 0.83963203 0.87334204

unit4.conv.weight f4 [12, 12, 5, 5]
00000000: d5d5 cc3c a3bd 2a3d 8704 853d 8b68 913d
00000010: 3c09 d3bc 2616 1f3d 30ad d03d 39bc de3d
00000020: eba7 95bc 205d babb b0de 153d fd0d 163e
00000030: 8144 df3c 57da 8bbc 9491 ddbc 6d92 6fbc
00000040: ca51 35bc 1aea 183b 14fb 66bd ad3a 05be
00000050: b89a 3ebc 35c7 cfbc 65e2 e0bc 3b81 5ebd
00000060: a7a1 bbbd cce2 9dbd 6821 00be a3f2 17be
00000070: daac 0abe 318d 3ebe c3a9 29be a68c e6bd
00000080: c141 f4bd 04e5 0cbe 688a 29be 4cde 12be
00000090: 74c6 63be e804 55be 1aa6 5cbd e294 94bd
000000a0: 0a49 fdbd e602 20be 5855 60bd f344 b73c
000000b0: c0bd e4bd 5e10 88bd 6c0d b9bd f81a 82bd
000000c0: 85c2 723c 8b56 cbbd dd2d 213e 1188 c03d
000000d0: 665f 113e 3079 cb3c fa86 a2bd cb5a 75ba
000000e0: c567 2dbd 5a2f 323c 5e3f d2ba 74a8 80bc
000000f0: 3c50 14be 3637 cabd db6a 1b3d aae3 6c3d
00000100: 4cde c6bc f55c 15be bc04 b5bc ce55 203d
00000110: 6eba 913d 6169 c1bc 3b31 c7bd 35e8 feba
00000120: 0067 4c3d b5f3 373d 58cf e73c 9add e3bd
00000130: 3007 e4bd 0e16 a53c e969 633d d7fd 7fbc
00000140: b7ef debd 6c87 16be 10b2 8cbd e06c e13d
00000150: 9d1c 2bbd ccd6 09be c977 ecbd 15eb b9bb
00000160: 6a7d 263d 3ef8 943c b42e 69be b99d b0bd
00000170: ab4c 813d 133c c53d 9eac a53d 38e0 25be
00000180: d6c0 a8bd 504a 4a3d 52b4 443d 82d5 2e3d
00000190: a697 313b fcae 8abc 0d3f e33c 894d 8d3d
000001a0: 9716 48bd 8bb3 803d 598c d03d 6343 403d
000001b0: f5fc b53d 1fd9 c93d 842e 1c3e b37d 463e
000001c0: e307 0c3d 2dfc 783d f907 0d3e c15b 573e
000001d0: f89c 5b3e 8c1e 3a3d 8232 ad3c 3fa7 453e
000001e0: 7a83 1b3e 128d 713d bacf e9bd 3ab9 a7bd
000001f0: 80e0 473e de27 fc3d e3ec 5ebc cfd4 303c
00000200: 3e12 b5bd 4b16 4bbe bec3 013e 7341 5e3d
00000210: cf41 ca3c ec08 7bbd cf08 87be 2f1c 8c3e
00000220: 80f8 b43d 4884 c1bb 7252 97bd f10f 23be
00000230: 9f11 613e 2751 6e3d 210a 083d 9530 99bd
00000240: b9e5 1dbe 52e3 183e 16c9 d23c fabc 60bd
00000250: f834 15be 9a98 1abe 8c63 2abb 5ed8 80bc
00000260: caf1 23be 1a59 e8bd 50b8 bebd 05be ac3c
00000270: 998d 193d 2cae 0ebd 9b19 0bbd 23c0 95bd
00000280: 2de7 a6bc 2c8f d13c 6b83 8abd 6804 b1bb
00000290: 5210 053d 2345 abbd 4e4c c6bd 3552 2dbe
000002a0: ed08 16bd 12f5 013c de64 cebd 8e5c 00be
000002b0: 19a7 58be 52b3 25be 4b93 df39 614f 07be
000002c0: 076d afbd 43c9 983d 49ab b03d e860 f63d
000002d0: 2588 09be 0f0b adbd 12bf 95bd 9bd0 8c3d
000002e0: 0a05 013e 8247 2bbe 10c1 72be 75ef 81be
000002f0: 2d11 60bd c8ff e73d f307 4cbe 562f 9bbe
00000300: 1626 76be c44a b1bd 4cb7 a23c ed98 10be
00000310: f7cd 40be bbff 0abe 115a 73bd c754 bc3c
00000320: 35be 843e 32aa 783e 0036 833d 1c99 13bd
00000330: dee3 a7bd 573f 9b3d 7da7 763e 6542 253e
00000340: 6416 b43d 80a6 1b3c e734 863b a1df c93d
00000350: 0901 4e3e 2442 043e 2a19 9f3d b4b9 3e3d
00000360: d836 cb3d 96f3 113e 6dde 0e3e 75aa 433d
00000370: b969 fb3a c654 183e 0c0a 313e a3e5 403e
00000380: d9ad ff3d b5a7 463d d8ac 7f3d 0e8b 3dbc
00000390: 20e3 2fbb 5f00 093e a3a4 8f3d b8d1 b33c
000003a0: 67c0 24bd a765 14bc 7d49 df3d df4f acbd
000003b0: b4c3 01bd 01e3 b23d 6bb5 a03d 82b2 c63d
000003c0: c781 a2bd 8239 89bd 8123 313d d27a 2d3d
000003d0: 2e91 933d 1798 44be a872 1ebe e856 75bd
000003e0: abe4 013d 542f 163e 9507 073c 534e aebc
000003f0: 4564 b83c 8075 7dbd 6566 eb3c d753 1abd
0.025004307 0.041684758 0.06495004 0.07100018 -0.02576124 0.03883948 0.10189283 0.108757444
-0.018268546 -0.005687371 0.036589324 0.14653774 0.027254345 -0.017071886 -0.027046956 -0.014622313
-0.011066863 0.0023332895 -0.05639179 -0.13010664 -0.0116335675 -0.025363544 -0.027451703 -0.054322463
-0.09161692 -0.07709274 -0.12512743 -0.14838652 -0.135425 -0.18608548 -0.16568665 -0.11257295
-0.11926604 -0.13759238 -0.16556704 -0.14342612 -0.22243673 -0.20802653 -0.053869344 -0.0725496
-0.12367447 -0.15626106 -0.05476889 0.022371745 -0.111690044 -0.06643747 -0.09035763 -0.063528
0.014816885 -0.09928616 0.15740152 0.094009526 0.14196548 0.02483806 -0.07935901 -0.00093595375
-0.04233529 0.010875547 -0.0016040613 -0.015705325 -0.14483732 -0.09873812 0.037943702 0.057834305
-0.024275921 -0.14586242 -0.022096984 0.03914433 0.07115637 -0.023609819 -0.09726187 -0.0019447865
0.049902916 0.04491015 0.028297111 -0.111262515 -0.111341834 0.020152118 0.055520926 -0.015624485
-0.10885566 -0.14700097 -0.068699 0.110070944 -0.041775335 -0.13460845 -0.11546285 -0.005673776
0.040646948 0.018184777 -0.22771722 -0.08623833 0.063134514 0.09630599 0.08089565 -0.16198814
-0.082399055 0.049387276 0.04802353 0.042684086 0.0027098446 -0.016929142 0.027740026 0.06899554
-0.04884967 0.06284245 0.10183019 0.046939265 0.08886138 0.09855866 0.1525212 0.19383888
0.03418721 0.06078737 0.13772573 0.21031095 0.21446598 0.045439288 0.021142248 0.1930208
0.15186873 0.058972426 -0.11416574 -0.08189626 0.19519234 0.123122916 -0.013606283 0.010792925
-0.0884137 -0.19832723 0.12672326 0.054261636 0.024689583 -0.061287805 -0.26373908 0.27365252
0.0883646 -0.0059056617 -0.07388772 -0.1592405 0.21979378 0.05818286 0.033212785 -0.074799694
-0.15419663 0.14930466 0.02573065 -0.054867722 -0.14570987 -0.15097275 -0.0025999276 -0.015728172
-0.16010204 -0.1134512 -0.093124986 0.021086702 0.037488554 -0.034834072 -0.033959966 -0.07312038
-0.020373905 0.025580965 -0.06763347 -0.0054021366 0.032486267 -0.08362796 -0.09682523 -0.1692589
-0.036629606 0.0079319645 -0.10077833 -0.12535307 -0.21157493 -0.16181687 0.00042643616 -0.13213874
-0.08565717 0.074602626 0.0862642 0.12030202 -0.13430841 -0.08449375 -0.073118344 0.06875726
0.12599578 -0.16726497 -0.2370646 -0.25378004 -0.05470388 0.11328083 -0.19924907 -0.30309552
-0.24037966 -0.086568385 0.019862793 -0.14120837 -0.1882857 -0.13574116 -0.059412066 0.022989644
0.25926366 0.24283674 0.06406784 -0.03603469 -0.08197759 0.075804405 0.24087329 0.16138609
0.08793333 0.009500146 0.004095662 0.09857107 0.20117582 0.12915856 0.077684715 0.04656382
0.0992257 0.14253077 0.13952036 0.047769982 0.0019181288 0.14876089 0.17288989 0.188376
0.12484331 0.04849978 0.062420696 -0.011568798 -0.0026838258 0.13379048 0.07013824 0.021950588
-0.04022255 -0.009057439 0.10902689 -0.08413672 -0.031680778 0.08734704 0.07847103 0.097020164
-0.07934909 -0.06700422 0.04324675 0.04235346 0.07205425 -0.19198643 -0.15473425 -0.059897333
0.031712215 0.14666492 0.008241554 -0.021277582 0.02250875 -0.061879635 0.028735349 -0.037677612

unit4.conv.bias f4 [12]
00000000: 211f 10b6 c6c1 5b35 956c d235 073c 4237
00000010: 3378 2836 32dd 3e36 8745 bdb5 a02b dc35
00000020: a603 4eb6 58da d836 525f 93b6 b971 04b6
-2.1475792e-06 8.1865835e-07 1.5677821e-06 1.1577277e-05 2.5103916e-06 2.844096e-06 -1.4101832e-06 1.6403974e-06
-3.0698516e-06 6.46272e-06 -4.392038e-06 -1.9735728e-06

unit4.bn.weight f4 [12]
00000000: 05cd 363f c5da cf3e 2871 bd3e acb7 503f
00000010: 66e3 ef3e fa74 503f 22d0 a73e 885d 173f
00000020: 236b 0a3f 9dcd ca3e 132d 153f 28bd 013f
0.71406585 0.40596595 0.37000394 0.8153026 0.4685318 0.8142849 0.3277598 0.5912709
0.5406973 0.39609995 0.582719 0.50679255

unit4.bn.bias f4 [12]
00000000: 7832 fdbd 604b 9b3c 441f 06be 4fb2 a2be
00000010: d75b da3c b9fa 8dbe 59c0 d8bd 8493 b4bd
00000020: 028d 4abe b360 d2bd cf71 10be 5bb9 e9bd
-0.12363142 0.01895684 -0.13097864 -0.31776664 0.02665512 -0.2773035 -0.105835624 -0.08817199
-0.19780353 -0.1027235 -0.14105915 -0.11412307

unit4.bn.running_mean f4 [12]
00000000: ac5a 92bd 9f67 cebe 07a6 8fbd 271d 28bf
00000010: 1df4 6abe 1f37 98bd 8d4c 1ebf 0751 32be
00000020: 7db9 5fbf a751 7dbf e693 ee3e c4de b73b
-0.071462005 -0.40313432 -0.07014089 -0.6566948 -0.22944684 -0.074323885 -0.6183556 -0.17413722
-0.8739241 -0.98952717 0.46597213 0.0056112725

unit4.bn.running_var f4 [12]
00000000: 6137 0e3f de6e 233f fbb3 3d3f 7556 353f
00000010: 958a 3f3f 6876 0a3f a611 003f 9080 533f
00000020: b8b1 153f 186c 143f a9e0 143f c802 053f
0.5555325 0.63841045 0.74102753 0.7083505 0.74820834 0.54086924 0.5002693 0.82618046
0.584743 0.5797744 0.58155304 0.5195737

net.0.conv.weight f4 [12, 3, 5, 5]
00000000: 19f1 063e 1ce4 8d3d f070 1e3e ac74 893e
00000010: 7c94 ee3d 34a8 553d 2bb4 4fbe 25cb 583e
00000020: 5193 343e 40de 76bd 31f0 14be 979e 64be
00000030: 64bc 2f3e e388 933c d0a5 fd3c ffb3 2ebe
00000040: 08a7 6fbc 6513 da3d c4b1 23be 38cd b53d
00000050: 2126 0abe 0542 53bd ebc4 843d 8838 1e3d
00000060: 846d 64bd 5006 a5bd 1c66 1e3d 5560 e6bd
00000070: 6a06 043b c30c 283d 7bc7 4c3d b9e3 c0bd
00000080: 014d 6dbd f004 7f3d a07c 69be f392 513d
00000090: 3ebc 1abe b40b c0bc 4cfe 4cbe 48c3 31be
000000a0: 0a4e 21be e694 61bd b397 c43d f9e7 48be
000000b0: cabc 3fbe a54d b83d c52c 64bb a8c6 25be
000000c0: 8133 efbc 7154 a73c b5eb 163d 37fa 01bd
000000d0: d78c 543d 2cac 64bc 4f92 4fbd 371d d1bc
000000e0: e6f6 34be 34b5 733d e2fd b43d 7f62 82bd
000000f0: ca60 b5bc e315 ec3c 5592 8d3e b355 8c3c
00000100: 7ee3 fabd b957 853d 2001 c33d 3f28 803e
00000110: a8de bc3d 333d 093d 9775 643d f765 073d
00000120: 745f 163e a942 5c3d 48d1 4d3d e020 53bd
00000130: fd3b a3bd 937d a63d 7057 4dbd a69a f83b
00000140: bfba e53d 9540 ac3c da1d cbbd c616 39be
00000150: 89db 94bd b6fe cc3d 47ef e03d 2490 113d
00000160: dd0c 1cbe 8361 3e3d 30b6 c6bc 789e 603d
00000170: 5b3b 70bb 3d5c 75bd 4ea1 7bbc 3daf 4e3d
00000180: 0280 e5bd 907f c0bd df82 063d a854 183c
00000190: ee18 d5bd 8c71 8cbd 2c7c a6bd 6109 14be
000001a0: 4a1c fc3c 840c d33b 00c4 acbd 2221 0bbe
000001b0: 219c d8bd 2e6e 0ebe 3526 b53d 7fa0 293e
000001c0: 38a5 a03d 19a7 613d 3a0e fe3c 4459 183e
000001d0: 49e4 4b3e 50a0 4b3e 7af7 fa3d 0fd1 af3d
000001e0: 8e65 663c 0e60 b43b 6b4b a9bc cb53 083e
000001f0: 3649 e03d b5a2 1cbd b55c 12be 4d29 57be
00000200: 9600 a6bd 226f cfbb e8bb a8bd 6a6d 84be
00000210: df42 b1be eac2 d2be 2bab 2dbe bb8d 813b
00000220: 0af5 8b3d e18a 5ebb e157 35be 43c9 89bd
00000230: a32a 79bd 0891 ef3c fe60 59bc 766b 02be
00000240: ab61 0abe 809c 5dbe 46b2 38be 0305 c4bd
00000250: 4da6 f5bd 06d5 abbd 3638 a03d 644c 08be
00000260: 42fa 18be c544 61bc 4fb6 5a3e 596b 08be
00000270: ca7f d5bd 8146 a5be 7c25 41bd 1acc a0bc
00000280: 3f51 29be c370 0fbd af1d adbe 1db0 1bbe
00000290: 0919 b8bc ddf9 7fbd 7a1d 22bd ec3e 1cbe
000002a0: 06a9 cb3b 1f53 903d d389 533e 93ba 2c3e
000002b0: 5cf5 243e a292 163e e2fc 103e 29c5 31bc
000002c0: 4a77 f13d e18e 7f3c c6ad c23d 7009 383e
000002d0: fd8d cdbd f3da 00be 048e 6bbe 29d6 25bc
000002e0: e4d1 b63d 797b fcbd acc0 28bb 82a0 81be
000002f0: 9d7d 5abe d110 bebd 514b bb3d 42b0 ac3d
00000300: a344 1abe d331 e4bd 5274 8a3d fee0 f0bc
00000310: e410 9dbd 8ee8 983d ef67 313d 97e9 78bb
00000320: df4f 8c3d 8840 8d3d 7b3f 4d3e e107 443e
00000330: 1df3 3abc e331 e53d a65f 9b3d 59f3 82bd
00000340: 0ddb efbc 4b31 e2bc ef0d ff3b 3931 113e
00000350: 39ca b7bd d06a babd 588e 28bd e86b 0f3d
00000360: 9458 be3c d799 a93d 5f01 79bd 130b 80bd
00000370: 0bfa 0c3d 4837 5a3d 1a88 bf3d 1dd3 043d
00000380: 85fc 1a3b 6233 aebd 60b6 33bd 9563 a3bd
00000390: 1582 e7bd b42e 0f3c faab d7bd 9cf7 503c
000003a0: 1ac9 a93d 9b35 c1bd b540 803c f51d a5bd
000003b0: b373 a3bd 3909 84bb efa9 38bd 8aa9 acbd
000003c0: d545 9dbd efcb 013e d4b3 b23d 5f94 04bd
000003d0: a033 073d 6ee9 033e 2d88 dcbc 4971 38bd
000003e0: 07b5 ae3d 0c97 eeba 33e0 25be b2c1 0839
000003f0: e59d 0cbd 0027 c4bc a3cc 043c d1be 01be
0.13177909 0.06928274 0.1547277 0.26846826 0.11649415 0.052162364 -0.20283572 0.21171243
0.17634322 -0.060270548 -0.14544751 -0.22326122 0.17161709 0.018009609 0.030962855 -0.1706085
-0.014627226 0.106482305 -0.15985781 0.08877033 -0.13491108 -0.051576633 0.064828716 0.03862813
-0.055768505 -0.08057845 0.038671598 -0.112488426 0.0020145425 0.041027796 0.049994927 -0.09418435
-0.057934765 0.06226057 -0.22801447 0.051165532 -0.15110871 -0.02344308 -0.20018882 -0.1735965
-0.15752426 -0.05507364 0.09599247 -0.1961974 -0.18724361 0.089991845 -0.0034816724 -0.16189063
-0.029199364 0.020426007 0.03684588 -0.031732764 0.051892128 -0.013957065 -0.05067664 -0.025526626
-0.1767231 0.05949898 0.08837487 -0.06366443 -0.02214088 0.02881903 0.27650705 0.017130708
-0.12250422 0.065108724 0.09521699 0.25030705 0.09222156 0.03350563 0.055776205 0.033056226
0.1468485 0.05377451 0.050248414 -0.051545024 -0.07970426 0.0812942 -0.050132215 0.007586795
0.112172596 0.021026889 -0.09917803 -0.18075094 -0.072684355 0.1000952 0.109831385 0.035537854
-0.15239282 0.046479713 -0.024256796 0.054838628 -0.0036656472 -0.05990242 -0.015358282 0.05046009
-0.11206056 -0.093993306 0.032839652 0.009297527 -0.104051456 -0.06857595 -0.08129153 -0.14456703
0.030775208 0.006440701 -0.084358215 -0.13586858 -0.10576654 -0.13909218 0.08845178 0.1656513
0.07844013 0.055090997 0.031012643 0.14877802 0.19911303 0.19885373 0.12254234 0.08584797
0.014062298 0.0055046147 -0.020665845 0.13313214 0.10951464 -0.038241107 -0.14293177 -0.21011849
-0.081055805 -0.0063303867 -0.08238965 -0.25864726 -0.3462133 -0.41164333 -0.16959827 0.003953663
0.06833847 -0.003395729 -0.17709304 -0.06727841 -0.060831677 0.029243961 -0.013267754 -0.12736306
-0.1351382 -0.21641731 -0.18036756 -0.095712684 -0.1199461 -0.0839024 0.078232214 -0.1331039
-0.14939216 -0.013749306 0.21358608 -0.133222 -0.104247645 -0.32280353 -0.04715489 -0.019628573
-0.16534899 -0.035019647 -0.3381171 -0.152039 -0.022472875 -0.062494148 -0.039578892 -0.15258378
0.0062152175 0.07047104 0.20658045 0.16868047 0.16109222 0.14704373 0.14158967 -0.010850229
0.11790331 0.01559803 0.09505801 0.1797235 -0.10036848 -0.12583522 -0.23003393 -0.010121861
0.08926752 -0.12328238 -0.0025749607 -0.2531777 -0.2133698 -0.09280551 0.09145225 0.08432056
-0.15065245 -0.11142316 0.067604676 -0.02940416 -0.07669237 0.07466231 0.04331201 -0.0037981027
0.06851172 0.06897074 0.20043747 0.1914363 -0.011410502 0.11191156 0.07586603 -0.06394071
-0.029279256 -0.027611395 0.0077836434 0.14178933 -0.08974118 -0.09102404 -0.041151375 0.035015017
0.023235597 0.08281296 -0.060792323 -0.06252112 0.034418147 0.053275377 0.09352131 0.032427896
0.0023649049 -0.08505894 -0.0438751 -0.07977978 -0.11304108 0.008739162 -0.10530849 0.012754347
0.0829031 -0.094340526 0.015655855 -0.080623545 -0.07981052 -0.0040294197 -0.045083936 -0.084307745
-0.07679335 0.1267545 0.08725706 -0.03236806 0.033008218 0.12882015 -0.026920402 -0.045029912
0.08530622 -0.0018202974 -0.16198806 0.00013042128 -0.034330267 -0.023944378 0.00810543 -0.12670447

net.0.conv.bias f4 [12]
00000000: 37d2 37b8 d7b4 c736 154c ee37 ed12 2bb6
00000010: 572b 9337 6070 0000 3425 8d38 8459 47b7
00000020: dc01 c5b7 131b 0cb9 9413 8cb7 6ce4 f736
-4.3826378e-05 5.9517147e-06 2.840724e-05 -2.5492002e-06 1.7543947e-05 4.0313e-41 6.7303336e-05 -1.1882166e-05
-2.3485096e-05 -0.00013361526 -1.6698417e-05 7.3877654e-06

net.0.bn.weight f4 [12]
00000000: 1737 a93e d014 9c3e 2030 333f db68 293e
00000010: b2a4 1a3f 094d ab2a 8bba 6c3f d8ff 1d3f
00000020: 94fc 403f a3fc 513f 9c51 183f 1488 4b3f
0.33049843 0.3048463 0.6999531 0.16543905 0.60407555 3.0429156e-13 0.9247214 0.6171851
0.75385404 0.8202612 0.59499526 0.79504514

net.0.bn.bias f4 [12]
00000000: 6ada fa3d 9df3 18be 010a 33be e0da a6bd
00000010: 8590 cbbd 5cef f299 5c1c 9a3e efd7 613d
00000020: 75e9 873e 761e 003f e636 fbbc 8b52 813d
0.122486904 -0.14936681 -0.17484285 -0.08147216 -0.09939674 -2.511889e-23 0.3009976 0.05513757
0.265453 0.5004648 -0.030665826 0.06314572

net.0.bn.running_mean f4 [12]
00000000: 4e2f 22bd 1cf5 74bf bb7e bbbe 6be8 1f3f
00000010: 7d59 9b3e 146d 0000 f01a 0d3e fb76 fb3b
00000020: 9389 9e3c 94ff 80bc f4c7 5ebe f70f f83c
-0.039595895 -0.9568651 -0.36620125 0.62464017 0.30341712 3.913e-41 0.13779807 0.0076740957
0.01935271 -0.01574687 -0.21755964 0.03028105

net.0.bn.running_var f4 [12]
00000000: 91cf 253d 810a da3e 7ec1 f33d 1c63 973e
00000010: 4a94 143e 0400 0000 ff9d 2d3d 2cc5 013e
00000020: fabb 473d 7afa bb3c a437 cd3d 5dd6 813d
0.040481154 0.4258614 0.1190214 0.29567802 0.14509693 6e-45 0.042387005 0.12672871
0.048763253 0.022946585 0.10020378 0.06339715

net.1.conv.weight f4 [12, 12, 5, 5]
00000000: 639e a6bd 9feb b8bd 11e0 943a eedb 863a
00000010: 80a8 55bd 4c8a bbbd ebbd d8bd b419 1a3d
00000020: cbcf 523d aa1d edbd 9e6a 09be 918a 2ebd
00000030: dcf0 513d 12e5 19bc f53a 1ebe e9b4 f0bd
00000040: 1a64 a83d e225 a03c 9a51 7dbd 28ae 1fbe
00000050: 27ad 23bd 42a1 e13d 88be debc 8949 0abe
00000060: 6886 edbc 125f 8bbd b462 81bd 7837 4dbd
00000070: 7007 dfbd ff4e 88bd 1df3 57bd 67ec 60bd
00000080: 4feb d5bc 3cfe acbd a34b babc 557e c3bd
00000090: eaa9 8ebd c9cf 7ebd c093 f8bc 70b6 5bbd
000000a0: 40b6 2cbd 4bc0 00bd 054d 96bd 3a8e 57bd
000000b0: 996c 86bd 6e57 73bd f800 86bd f604 7fbd
000000c0: 2078 04bc f38c 4fbd 5fb2 c4bd 1b9d f9bd
000000d0: 91d4 b2bd c25d 0abe 43f8 50be 6258 30bb
000000e0: 973a 5ebd d85d c0bd c565 f5bd 7427 f1bd
000000f0: 3af4 41bd 9c94 aebd 5ac2 d6bd 3f3c dabd
00000100: 3142 f7bd be4a 89bd c08d 32be b63f 06be
00000110: cdc7 1ebd 02b9 55bc 17ac 14be 02a7 58be
00000120: 9a8f 38be fdf1 193d c6c1 d33c 36f0 b93c
00000130: 284a 873d 3db2 903c c7b7 f8bc 27da b0bd
00000140: 0e8e 603d 6f2b ba3d 5051 543d 1109 9dbc
00000150: c588 1ebd cb75 d03c 194a 873d 6b8c 8a3c
00000160: 8db1 6fbd bf2e 9cbd a094 53bd 8fdb dabc
00000170: 0539 8abd 4575 a2bd 8691 b3bd 0bcf b5bd
00000180: 1117 61bd c1d2 71bd bb90 dabd df1d d6bd
00000190: ab4f 42bd 2e3f a7bc 6f5c 71bd 573a 8cbd
000001a0: b386 d0bd 2aee 31bd 6f48 2f3c 0389 f83c
000001b0: d4f0 b4bd 27e5 e2bd 083a 21bd dd87 2d3d
000001c0: 5a40 a7bc cf9b 6dbc c379 c2bd 0e91 7cbd
000001d0: cb40 113d a801 fbbc f01b 8abd 3303 92bd
000001e0: 2719 1dbd b72b ef3c 9c97 3bbd 4a64 8bbd
000001f0: 7da7 bfbd 2626 0080 2b0a 0000 1019 0000
00000200: da75 0080 ee4c 0080 1445 0000 c606 0000
00000210: d004 0000 d840 0000 7ea3 0080 5286 0000
00000220: f684 0000 415f 0080 3a61 0080 4e0e 0080
00000230: 0633 0080 7a76 0080 d38e 0080 d565 0080
00000240: 5c20 0080 ae0c 0080 7151 0080 7d50 0000
00000250: 2892 0080 9610 0000 8e3d e9bd d644 98bd
00000260: 027f 4c3d c0de 9c3c 7da4 7bbc 3afb 33be
00000270: b488 dbbc 7b78 1e3d 2884 623d 3f24 163d
00000280: d977 14be 056f 8dbd 4960 693d cb7d ad3d
00000290: 7b90 b3bc 74a8 24be b17c bbbd c3c5 753d
000002a0: 45d2 733d 6c19 f73c fdce 3dbe c1d1 98bd
000002b0: 653c e5bc 2a76 f4bc e50f 80bd c3c2 a43d
000002c0: 35b9 233e 7a05 bd3d 9543 f23c 4798 023d
000002d0: c6ab 843c ead1 8e3d 6eb8 113d 50ae 5b3c
000002e0: b1a4 7d3c ac58 cc3c 4ca0 da3c c9f7 b43b
000002f0: 8f12 e0bd d50d 11bd 95f6 343e 8c4b ef3d
00000300: 7d3c 0bbb 2283 98bd 652c babd c406 4c3e
00000310: d7b5 b73d a4ed 6dbc 17ea 8dbd b2f4 31bd
00000320: 479e 10bd e451 60bc caea fc3b 9ed9 2b3d
00000330: 7876 0e3e c43c a73b 4775 bfbd 01f6 86bd
00000340: 8a2e 623d 68ab 9c3d 1a2f d1bd e9c5 8bbe
00000350: c61d 1fbe 331c 05bd 8a00 1dbb 73fe a3bd
00000360: d0ff 81be 9485 9abd 0dcc b43c 84b5 323d
00000370: ddad dabc fd82 a4bd cd33 ba3d e1db d23d
00000380: 4857 a13c 5d2e 3fbb 4d8a 40bd 7394 72be
00000390: 0c04 4bbe 539f d0bd 43ac 913d e649 cf3c
000003a0: 1c22 83be 8968 91bd 8031 453d b4df a23d
000003b0: 7a1d 3dbd f500 95be 2546 d3bd f00a c9bc
000003c0: 8a36 0e3d 1b71 43bd 550e 1abe 8c07 c83d
000003d0: b184 b83d 3aef 443d eec9 4ebd caa7 18be
000003e0: 9050 2b3d f94e 90bc 7e6e adbe 4575 31be
000003f0: 5af7 08bd 264c 443d b819 e83d d024 95be
-0.081356786 -0.09029316 0.0011358281 0.0010288933 -0.052162647 -0.091572374 -0.10583099 0.03762217
0.051467698 -0.115779236 -0.13419577 -0.042612616 0.051255092 -0.0093929935 -0.15452178 -0.11753256
0.08222218 0.019549314 -0.0618454 -0.15593779 -0.039960053 0.110170856 -0.027190462 -0.13504614
-0.028994754 -0.068052426 -0.06317654 -0.050101727 -0.108900905 -0.06655692 -0.052722085 -0.05491295
-0.02611318 -0.08446929 -0.022741145 -0.0954558 -0.06966002 -0.062209878 -0.03034389 -0.053640783
-0.042165995 -0.031433385 -0.07338909 -0.052625872 -0.06563682 -0.05940955 -0.065431535 -0.06226059
-0.008085281 -0.05067153 -0.09604334 -0.121881686 -0.0873195 -0.13512328 -0.20407204 -0.002690815
-0.054255094 -0.09392899 -0.119823016 -0.11775103 -0.047352053 -0.08524439 -0.10486288 -0.10656022
-0.12073172 -0.06703709 -0.17436886 -0.13110241 -0.038764764 -0.013044598 -0.14518772 -0.21157458
-0.1802353 0.037584294 0.025849234 0.02269755 0.06605941 0.017663116 -0.03036107 -0.08635359
0.054822974 0.090903156 0.05183536 -0.019169362 -0.038704652 0.025446793 0.0660593 0.01691266
-0.058518935 -0.076261036 -0.05165541 -0.026716022 -0.06749157 -0.07932524 -0.08767991 -0.08877381
-0.05495364 -0.05903888 -0.106721364 -0.10454916 -0.04743926 -0.020415869 -0.058926042 -0.06847065
-0.10181942 -0.04344002 0.010698422 0.03033877 -0.08834997 -0.110788636 -0.039361984 0.042365897
-0.020416427 -0.01450248 -0.094958805 -0.061661772 0.035462182 -0.030640438 -0.0674361 -0.071295165
-0.038354065 0.02919565 -0.045798883 -0.06806238 -0.09358118 -1.3685e-41 3.648e-42 8.991e-42
-4.2277e-41 -2.7597e-41 2.478e-41 2.43e-42 1.726e-42 2.3262e-41 -5.865e-41 4.8185e-41
4.7697e-41 -3.417e-41 -3.4878e-41 -5.132e-42 -1.8304e-41 -4.2501e-41 -5.1236e-41 -3.653e-41
-1.1608e-41 -4.549e-42 -2.9216e-41 2.8874e-41 -5.2431e-41 5.95e-42 -0.11388694 -0.074350044
0.04992581 0.019149184 -0.015359041 -0.17576304 -0.026798584 0.038689118 0.055301815 0.03665566
-0.14498843 -0.06905941 0.05697659 0.08471259 -0.02191948 -0.16079885 -0.091546424 0.060003053
0.0595267 0.03016349 -0.18535991 -0.074618824 -0.0279829 -0.029841501 -0.06253032 0.0804496
0.1598862 0.0922956 0.029573241 0.031883504 0.01619519 0.06973632 0.035576276 0.013408259
0.01548116 0.024944626 0.026687764 0.0055227024 -0.1094104 -0.035413582 0.17672189 0.11684331
-0.002124577 -0.074468866 -0.09090499 0.19924456 0.0897023 -0.01452199 -0.06929415 -0.04344625
-0.035307195 -0.013691399 0.0077184187 0.041955583 0.1391238 0.0051036794 -0.09348541 -0.0658989
0.055220164 0.07649881 -0.10214062 -0.2729943 -0.15538701 -0.032497596 -0.002395662 -0.08007517
-0.25390482 -0.07545009 0.022069955 0.043630138 -0.026694233 -0.080327965 0.090919115 0.10295845
0.01969494 -0.0029171922 -0.047006894 -0.23689441 -0.19825763 -0.10186639 0.071129344 0.025303792
-0.2561196 -0.071000166 0.04814291 0.07952824 -0.04617069 -0.29102293 -0.103161134 -0.024541348
0.03471998 -0.047715288 -0.1504453 0.097670645 0.09009684 0.048079707 -0.050485544 -0.14907756
0.041824877 -0.017615782 -0.3387336 -0.17329891 -0.033439018 0.047924183 0.113330305 -0.29129648

net.1.conv.bias f4 [12]
00000000: c889 2836 c535 81b6 10ff f6b5 ef9a c036
00000010: 7128 d036 d709 0eb6 219d c0b5 0e73 3cb7
00000020: e3ce a834 b2e0 9ab5 981c 30b6 a5d2 a337
2.511415e-06 -3.850759e-06 -1.8402661e-06 5.7400825e-06 6.203591e-06 -2.1165376e-06 -1.4350845e-06 -1.12324615e-05
3.1442968e-07 -1.1539289e-06 -2.6242687e-06 1.9529203e-05

net.1.bn.weight f4 [12]
00000000: 611c f93e 20d8 053f 665e 093f 6f23 313f
00000010: ec8f 113f c40b 3c3f fa50 4a3f 6618 2b3f
00000020: 7dcd 3f3f 32d8 f13e 3c26 f63e 31f8 403f
0.48654464 0.52282906 0.53659666 0.6919469 0.5686023 0.7345545 0.7902981 0.66834104
0.74922925 0.47235256 0.48076046 0.7537871

net.1.bn.bias f4 [12]
00000000: 5a2a 31be 1b40 99be 225a 3fbe e950 d1be
00000010: 38cc 0fbe 5131 97be 03b9 b9be 43b9 85be
00000020: dada acbe ecc6 6abe f054 3fbe 8b73 55be
-0.17301312 -0.2993172 -0.18686727 -0.40882042 -0.14042747 -0.29529813 -0.36273965 -0.26117906
-0.3376072 -0.22927445 -0.18684745 -0.20844857

net.1.bn.running_mean f4 [12]
00000000: 05e5 42c0 7111 95bf f810 e63e 6c36 acbf
00000010: 729d 89bf 84a7 edbe aa32 8dbf 65ff 8ebf
00000020: 2afb b3be 52f9 97bf 66a7 05c0 b2c0 0ebf
-3.0452282 -1.1645948 0.4493482 -1.3454108 -1.0751173 -0.46416867 -1.1031086 -1.117169
-0.3515256 -1.1872962 -2.0883422 -0.5576278

net.1.bn.running_var f4 [12]
00000000: 01a9 8940 7f38 b93f af8d d03f 3dd6 d33f
00000010: 292a 2f40 cd9c 1840 5d36 ed3f 8dcb e83f
00000020: de96 703f 72ad 8f3f 1f05 0a40 3a8e cf3f
4.3018804 1.4470366 1.6293238 1.6549755 2.7369483 2.3845704 1.8532215 1.8187119
0.93980205 1.1224806 2.1565626 1.6215279
