experiment_outputs/different_base_nets/diff_fc_sigmoid.model (torch_old, 85448 bytes, 58 tensors)

unit1.conv.weight f4 [12, 3, 5, 5]
-0.087938994 0.00014058682 0.08108528 0.006822808 0.05213748 0.18048258 0.0071297702 -0.023671577
0.16466103 0.10101867 0.10494606 0.18621276 0.19943295 0.13710018 -0.027392594 0.1305244
0.052807737 0.23543495 0.12748787 0.04656944 0.1404476 0.0025869752 0.0050382833 0.08950461
0.035791125 -0.08069535 -0.11141987 -0.10479405 -0.20587184 -0.09749005 -0.0089620445 -0.1265304
-0.27624425 -0.091092065 0.022722948 -0.0749706 -0.046134133 -0.23769765 -0.22219594 -0.1933336
-0.19169602 -0.11278343 0.0104399575 -0.13316824 -0.20900534 -0.1514019 -0.12304832 -0.15447417
-0.20220238 -0.07165931 -0.06121292 0.045456693 -0.07240741 0.06316682 0.1046551 0.17416635
0.069027215 -0.0468505 -0.05423154 -0.016522245 0.20917489 0.17782322 0.07194496 -0.029325673
-0.062474582 0.12083587 0.12878148 0.18332094 -0.060929522 0.04663418 0.0148274135 0.075701706
0.15074302 -0.045180805 0.17009959 0.0323037 0.081540816 0.14901637 0.049334213 -0.022547308
0.0990722 0.014704469 0.048235934 0.065962285 0.17382203 -0.041236054 -0.011984517 0.011663861
0.40148628 0.46635404 -0.047410548 -0.014759284 0.23765695 0.08983347 0.13094078 0.012803548
0.011096402 0.11247823 -0.05461974 0.06751134 -0.19457039 -0.032900088 -0.035868723 -0.031488474
-0.057157263 -0.061013218 -0.09414769 -0.16318856 -0.043012653 -0.03290079 -0.102346286 -0.19696546
-0.14080724 0.12634914 0.113756105 -0.19782777 -0.07009422 0.07057639 -0.09886582 -0.09973844
-0.08971538 -0.007839147 -0.14139357 -0.06467341 -0.037297133 -0.056845274 -0.08065767 -0.037974834
0.05225414 0.1542467 0.06791834 -0.014960875 -0.09385269 0.104876615 0.2134161 -0.09457313
0.02620002 -0.094358675 0.1699568 0.072056875 0.03768004 -0.104147755 0.09091737 0.0035910509
0.15155166 -0.06168432 0.108840965 -0.008334973 0.08948901 0.11057033 -0.099130966 -0.05139543
-0.09317721 -0.11273647 0.14365996 -0.14505571 -0.34450078 -0.06865901 0.23011449 -0.09183348
0.10494351 0.00056956644 0.16450909 0.063957445 0.12604924 0.0839166 0.27891847 -0.0585504
-0.004292409 -0.03126791 0.109947786 0.044885427 -0.0076367506 0.030708676 -0.07745685 -0.06443403
-0.01810003 -0.05441347 0.039771445 0.13740402 -0.17773326 -0.35473776 -0.15841635 0.21168706
-0.07905248 0.18280643 -0.28032368 -0.018704092 0.14763784 -0.095862344 0.07184875 0.14353055
0.042227175 -0.042340804 -0.03740581 -0.014353971 0.013167957 0.06532857 -0.083655335 0.039732758
0.039796073 -0.0371173 0.17687449 0.0408264 0.0800518 0.0862161 -0.2429291 -0.029772315
0.2737663 0.030386962 0.07044731 -0.18572894 0.10273432 0.11099968 0.009819232 0.0014576381
0.12065216 0.022852693 0.046128433 -0.05717661 -0.0062406096 -0.047203444 -0.21165057 0.06954675
-0.097647235 -0.08620488 0.12025162 0.14397353 -0.03500714 0.16403328 0.0016083859 0.09044652
0.114586204 0.05875358 0.020680914 -0.041150633 0.16888772 0.27624452 -0.16845377 -0.05765376
0.0009035545 -0.08445659 -0.2867822 -0.0013467062 0.03358845 -0.0043383553 0.00027803538 -0.085019015
-0.10112011 -0.16813783 -0.014694651 -0.10628025 -0.03683038 -0.03483035 0.14368966 -0.00063024723
00000000: 5c19 b4bd 7d6a 1339 0a10 a63d dd91 df3b
00000010: 1c8e 553d 6dd0 383e d9a0 e93b e5ea c1bc
00000020: e79c 283e e0e2 ce3d f6ed d63d 8fae 3e3e
00000030: 2738 4c3e fd63 0c3e 6f66 e0bc 30a8 053e
00000040: ed4c 583d dc15 713e 2e8c 023e 99bf 3e3d
00000050: 7fd1 0f3e 3e8a 293b 2f18 a53b 314e b73d
00000060: b799 123d 9b43 a5bd 1a30 e4bd 439e d6bd
00000070: 11d0 52be dda8 c7bd 8ad5 12bc 2f91 01be
00000080: e36f 8dbe 7a8e babd 7a25 ba3c 308a 99bd
00000090: 25f7 3cbd 0367 73be 5587 63be 3ef9 45be
000000a0: f64b 44be 00fb e6bd 5b0c 2b3c 415d 08be
000000b0: 7f05 56be 1a09 1bbe c200 fcbd 7a2e 1ebe
000000c0: 240e 4fbe 1ec2 92bd 66ba 7abd cc30 3a3d
000000d0: 564a 94bd 9b5d 813d 6a55 d63d aa58 323e
000000e0: 245e 8d3d 4fe6 3fbd e421 5ebd a959 87bc
000000f0: f131 563e 4a17 363e e157 933d 653c f0bc
00000100: 59e5 7fbd cc78 f73d 4bdf 033e 7cb8 3b3e
00000110: 3c91 79bd 7b03 3f3d aeee 723c 7f09 9b3d
00000120: 615c 1a3e 820f 39bd 962e 2e3e e250 043d
00000130: dffe a63d bf97 183e ac12 4a3d 22b5 b8bc
00000140: 5ee6 ca3d 03eb 703c 0b93 453d 3c17 873d
00000150: 67fe 313e 23e7 28bd b55a 44bc c719 3f3c
00000160: 9c8f cd3e f5c5 ee3e 9031 42bd edd0 71bc
00000170: 585c 733e 9cfa b73d 5715 063e f9c5 513c
00000180: afcd 353c fc5a e63d f3b8 5fbd 6343 8a3d
00000190: 763d 47be 3ec2 06bd 15eb 12bd 0ffa 00bd
000001a0: bc1d 6abd ffe8 79bd 81d0 c0bd e71a 27be
000001b0: 092e 30bd fbc2 06bd ee9a d1bd 50b1 49be
000001c0: c62f 10be ab61 013e f6f8 e83d 5d93 4abe
000001d0: 8f8d 8fbd 5b8a 903d 2a7a cabd ab43 ccbd
000001e0: b2bc b7bd c46f 00bc 7ac9 10be 7e73 84bd
000001f0: e1c4 18bd 97d6 68bd d92f a5bd 808b 1bbd
00000200: 7008 563d d9f2 1d3e c518 8b3d 751e 75bc
00000210: d735 c0bd 8dc9 d63d c089 5a3e 8faf c1bd
00000220: 6da1 d63c 1f3f c1bd 2809 2e3e 8e92 933d
00000230: 6356 1a3d 6b4b d5bd e332 ba3d d657 6b3b
00000240: 5c30 1b3e b3a8 7cbd 03e8 de3d 698f 08bc
00000250: 0446 b73d b272 e23d 2d05 cbbd 0484 52bd
00000260: b1d3 bebd 61e2 e6bd 991b 133e 7c89 14be
00000270: 6862 b0be 189d 8cbd 22a3 6b3e 3113 bcbd
00000280: 9fec d63d f54e 153a 1275 283e 1ffc 823d
00000290: 0d13 013e 77dc ab3d 67ce 8e3e 8bd2 6fbd
000002a0: 56a7 8cbb c812 00bd 4e2c e13d c8d9 373d
000002b0: b53d fabb c390 fb3c b2a1 9ebd fdf5 83bd
000002c0: 8446 94bc a9e0 5ebd 62e7 223d a4b3 0c3e
000002d0: b5ff 35be 30a0 b5be e537 22be 7ec4 583e
000002e0: 44e6 a1bd 9c31 3b3e 9686 8fbe 5339 99bc
000002f0: 602e 173e 7a53 c4bd 7025 933d acf9 123e
00000300: 67f6 2c3d 8d6d 2dbd d636 19bd eb2c 6bbc
00000310: 6abe 573c fcca 853d 7d53 abbd d1be 223d
00000320: 3501 233d 4f08 18bd 961e 353e 9539 273d
00000330: 33f2 a33d 1192 b03d 68c2 78be 12e5 f3bc
00000340: 192b 8c3e 14ee f83c ae46 903d ba2f 3ebe
00000350: 5f66 d23d cd53 e33d d8e0 203c 380e bf3a
00000360: 7b18 f73d 9235 bb3c 2bf1 3c3d 0532 6abd
00000370: 077e ccbb 6658 41bd edba 58be 876e 8e3d
00000380: 46fb c7bd 2f8c b0bd 7b46 f63d cc6d 133e
00000390: a663 0fbd 57f8 273e 7ad0 d23a 063c b93d
000003a0: 2cac ea3d 98a7 703d 056b a93c 918d 28bd
000003b0: e7f0 2c3e ec6f 8d3e 257f 2cbe 5926 6cbd
000003c0: 84dc 6c3a 94f7 acbd 1ed5 92be f683 b0ba
000003d0: 0b94 093d c328 8ebb 47c5 9139 731e aebd
000003e0: 0f18 cfbd 532c 2cbe d5c1 70bc 76a9 d9bd
000003f0: 74db 16bd 45aa 0ebd 6223 133e 2d37 25ba

unit1.conv.bias f4 [12]
-3.082697e-05 4.7545477e-06 -1.4037341e-05 -4.6844274e-05 2.0992591e-05 -6.7969995e-06 -2.2137794e-05 2.64858e-05
-1.713733e-05 -2.2534208e-07 -1.5071011e-05 1.5234166e-05
00000000: 354c 01b8 4189 9f36 ec81 6bb7 a87a 44b8
00000010: 3f19 b037 c811 e4b6 8db4 b9b7 d32d de37
00000020: 23c2 8fb7 8ff5 71b4 80d9 7cb7 3f96 7f37

unit1.bn.weight f4 [12]
0.25832096 0.6280851 0.7274654 0.92733675 0.6381932 0.2315916 0.36935237 0.4992116
0.6309124 0.56064975 0.6097066 0.40029472
00000000: a542 843e 2fca 203f 2c3b 3a3f f165 6d3f
00000010: a160 233f 5926 6d3e c11b bd3e aa98 ff3e
00000020: 7a83 213f be86 0f3f bb15 1c3f 6ef3 cc3e

unit1.bn.bias f4 [12]
-0.007626622 -0.074384786 0.39539713 0.7277758 -0.12029384 0.01617099 0.067603424 0.02003587
0.31736332 -0.1342836 0.21263793 -0.14915118
00000000: bee8 f9bb 0d57 98bd 7e71 ca3e 844f 3a3f
00000010: 9e5c f6bd 0679 843c aa73 8a3d 4422 a43c
00000020: 727d a23e a481 09be c2bd 593e 16bb 18be

unit1.bn.running_mean f4 [12]
0.045768976 0.5175359 0.0637708 0.03986506 -0.32185155 -0.27578986 0.3300375 0.044112265
-0.051696412 -0.4671766 -0.07625813 -0.13211288
00000000: 4078 3b3d 3c7d 043f 449a 823d 8c49 233d
00000010: bac9 a4be 5434 8dbe adfa a83e 10af 343d
00000020: 9ebf 53bd c531 efbe 392d 9cbd 9948 07be

unit1.bn.running_var f4 [12]
0.058438625 0.21751563 0.062344138 0.019972026 0.10379544 0.11459957 0.23291966 0.07756727
0.053782333 0.26101175 0.07917348 0.052323435
00000000: 575d 6f3d 6bbc 5e3e 915c 7f3d 609c a33c
00000010: b492 d43d 2eb3 ea3d 7e82 6e3e 97db 9e3d
00000020: dd4a 5c3d 55a3 853e b525 a23d 1951 563d

unit2.conv.weight f4 [12, 12, 5, 5]
-0.035711616 0.010951805 0.15154071 0.014099251 -0.09069517 0.046462923 0.058231235 0.09872255
0.013662104 -0.04412615 0.10278323 0.1693896 0.103871986 0.019377977 -0.021081852 0.13953695
0.09347275 0.041525606 0.11307064 0.0347591 0.21325733 0.13630167 0.080224596 0.13285527
0.08053705 0.08818774 -0.08778479 -0.064729415 -0.038156338 0.014108092 0.04706568 -0.06965903
-0.09259093 -0.029545154 0.03308868 -0.058949158 -0.08898732 -0.103899285 0.08370145 0.12722155
-0.10127637 -0.025439125 -0.013056561 0.13171116 0.09001767 -0.10455581 -0.068646565 0.04291129
0.027841141 -0.0074327723 0.049434457 0.13094059 0.064174235 -0.054361343 -0.018393125 0.07744558
0.12490926 -0.1239618 -0.27759036 0.0005832737 0.09832556 0.099922836 -0.15131567 -0.3048452
0.12353626 -0.079240635 0.029476577 -0.13825412 -0.081470735 0.27659902 -0.00415852 -0.047156774
-0.009942228 0.096050315 0.15941074 -0.13474074 -0.10908767 -0.10755516 0.1262971 0.0031559689
0.030269887 -0.19759439 0.0030069898 0.3147454 -0.08984 0.04289862 -0.19909258 0.18562357
0.2845782 -0.21733978 0.07691689 -0.13072726 0.18839629 -0.0013551598 -0.1870284 0.014302437
-0.1301367 -0.006850923 -0.0093267895 -0.041662205 -0.18509336 -0.09856643 -0.11853375 0.009049307
-0.01554331 -0.081285 -0.020708395 -0.015014924 0.15387797 0.041240767 0.062135886 -0.038042936
0.00023055912 0.12450612 0.087458014 -0.020819817 -0.06740877 0.019368054 0.035604596 -0.0010658647
0.04350486 0.040635433 0.054949734 0.07187975 0.07426248 -0.111582115 -0.10927647 -0.116525225
-0.11490789 -0.046866607 -0.07782191 -0.080691025 -0.100608386 -0.051943857 0.08926206 -0.0285868
-0.07741319 -0.09971351 0.08122482 0.20045418 -0.009012277 -0.10447035 0.005392579 0.17639437
0.13269623 -0.02751905 -0.03450356 0.092500255 0.15248035 0.055613056 0.10782985 0.053184114
0.07225553 0.10269959 -0.024993103 0.09945627 0.061087947 -0.030244997 -0.0253882 -0.09034399
0.074696824 0.03817902 -0.06590251 -0.06746387 -0.012738109 0.028995719 -0.050441176 -0.020457735
0.031006891 -0.025349211 -0.014277879 -0.039468776 0.031311214 0.092518725 -0.05564982 0.021181522
-0.071665734 -0.20881598 -0.04994342 0.03184438 -0.0039599626 -0.13837351 -0.21856672 0.052355282
0.015639197 0.08497948 -0.038341135 -0.037414227 0.18297517 -0.09770198 0.1026687 -0.03779288
-0.034800235 -0.04560298 -0.1756503 0.0888819 0.07611927 0.017197568 -0.06073427 -0.11329447
-0.13580021 -0.08975753 -0.06937871 0.21386606 0.14655061 -0.079038784 -0.050264347 -0.09465205
0.2202259 0.09978071 -0.050699577 0.024282847 -0.12308901 0.091279835 0.07949997 -0.007003325
-0.090968736 -0.2083401 0.012057 -0.019818133 0.044201758 0.0016324754 -0.07856778 -0.060961988
-0.07478743 -0.0957653 -0.05294934 -0.009694412 -0.11798761 -0.12351632 -0.14010984 -0.062817894
-0.037188333 -0.19085647 -0.074687354 -0.049190998 -0.06796754 0.07181848 -0.0034420046 0.007892457
-0.07083941 -0.04369887 0.03651219 0.024733959 0.039479963 -0.08330438 0.02552115 -0.038669363
-0.031058379 0.012425891 0.009002096 -0.011677974 -0.12851267 -0.018743342 0.106956236 0.043987416
00000000: 5846 12bd 336f 333c 7d2d 1b3e 8b00 673c
00000010: 64be b9bd e84f 3e3d e083 6e3d 0c2f ca3d
00000020: 04d7 5f3c 9fbd 34bd 0480 d23d 7874 2d3e
00000030: d6ba d43d 90be 9e3c d9b3 acbc c6e2 0e3e
00000040: a46e bf3d c116 2a3d 9491 e73d 8f5f 0e3d
00000050: 2160 5a3e aa92 0b3e cb4c a43d 360b 083e
00000060: 9cf0 a43d c69b b43d 83c8 b3bd db90 84bd
00000070: d249 1cbd a025 673c f1c7 403d 65a9 8ebd
00000080: 50a0 bdbd ae08 f2bc ff87 073d ac74 71bd
00000090: fc3e b6bd 26c9 d4bd aa6b ab3d 5e46 023e
000000a0: fc69 cfbd b665 d0bc 30eb 55bc 4adf 063e
000000b0: 2f5b b83d 5b21 d6bd 9296 8cbd c0c3 2f3d
000000c0: 1b13 e43c 9d8e f3bb c97b 4a3d 4a15 063e
000000d0: c86d 833d 00aa 5ebd 2ead 96bc ca9b 9e3d
000000e0: 6dd0 ff3d afdf fdbd 5320 8ebe d6e6 183a
000000f0: e95e c93d 58a4 cc3d 7ff2 1abe ac14 9cbe
00000100: 9400 fd3d ea48 a2bd dd78 f13c 7d92 0dbe
00000110: 21da a6bd 639e 8d3e 3244 88bb 7627 41bd
00000120: bae4 22bc 07b6 c43d 923c 233e 7af9 09be
00000130: 5b69 dfbd e145 dcbd 0754 013e 5fd4 4e3b
00000140: 8ef8 f73c 2f56 4abe eb10 453b 4f26 a13e
00000150: 09fe b7bd 77b6 2f3d edde 4bbe 1b14 3e3e
00000160: 3cb4 913e 528e 5ebe 9a86 9d3d 5edd 05be
00000170: f5ea 403e 9e9f b1ba 5f84 3fbe c554 6a3c
00000180: 8e42 05be b57d e0bb 64cf 18bc fda5 2abd
00000190: 1d89 3dbe 32dd c9bd d3c1 f2bd 8b43 143c
000001a0: 5ea9 7ebc c078 a6bd a7a4 a9bc 2801 76bc
000001b0: 3092 1d3e 14ec 283d 3382 7e3d e9d2 1bbd
000001c0: 3ec2 7139 11fd fe3d 301d b33d 528e aabc
000001d0: 9c0d 8abd c1a9 9e3c 20d6 113d 7cb4 8bba
000001e0: 2732 323d 5771 263d f912 613d b135 933d
000001f0: ed16 983d 2a85 e4bd 58cc dfbd c7a4 eebd
00000200: d454 ebbd 33f7 3fbd 1861 9fbd 5641 a5bd
00000210: c50b cebd 15c3 54bd 07cf b63d dd2e eabc
00000220: ce8a 9ebd 9936 ccbd 3359 a63d dc43 4d3e
00000230: 3ba8 13bc 8df4 d5bd 3bb4 b03b baa0 343e
00000240: 85e1 073e a16f e1bc 9b53 0dbd c670 bd3d
00000250: cf23 1c3e 84ca 633d e5d5 dc3d 96d7 593d
00000260: b5fa 933d 2a54 d23d 56be ccbc bbaf cb3d
00000270: 5b37 7a3d 5bc4 f7bc eafa cfbc 4506 b9bd
00000280: a6fa 983d 9b61 1c3d e5f7 86bd 7f2a 8abd
00000290: 80b3 50bc 6e88 ed3c 689b 4ebd fb96 a7bc
000002a0: 2a02 fe3c 26a9 cfbc c4ed 69bc 03aa 21bd
000002b0: 3040 003d 757a bd3d 11f1 63bd df84 ad3c
000002c0: 7cc5 92bd dbd3 55be 7991 4cbd 416f 023d
000002d0: 93c2 81bb c9b1 0dbe f4cf 5fbe 7e72 563d
000002e0: c61d 803c b909 ae3d 980b 1dbd a93f 19bd
000002f0: d85d 3b3e fa17 c8bd f843 d23d b5cc 1abd
00000300: b18a 0ebd 31ca 3abd acdd 33be b707 b63d
00000310: 6be4 9b3d eae1 8c3c 7fc4 78bd ee06 e8bd
00000320: 360f 0bbe ccd2 b7bd 6d16 8ebd b4ff 5a3e
00000330: 5d11 163e 16df a1bd fde1 4dbd efd8 c1bd
00000340: e682 613e d459 cc3d 5caa 4fbd d2ec c63c
00000350: 1716 fcbd ecf0 ba3d e1d0 a23d 267c e5bb
00000360: d14d babd 1b57 55be b98a 453c a359 a2bc
00000370: e70c 353d c9f8 d53a 25e8 a0bd 47b3 79bd
00000380: 272a 99bd 9920 c4bd 68e1 58bd 50d5 1ebc
00000390: 7da3 f1bd 20f6 fcbd f478 0fbe aba6 80bd
000003a0: cb52 18bd e16f 43be aff5 98bd 807c 49bd
000003b0: 9132 8bbd 9115 933d 4193 61bb 5d4f 013c
000003c0: 4114 91bd 96fd 32bd ce8d 153d df9e ca3c
000003d0: beb5 213d 7d9b aabd bb11 d13c c463 1ebd
000003e0: 246e febc f795 4b3c 877d 133c f954 3fbc
000003f0: d398 03be a38b 99bc df0b db3d 262c 343d

unit2.conv.bias f4 [12]
5.8672146e-07 2.5264249e-06 -2.2774932e-06 1.1960091e-07 -5.1159e-41 5.546707e-06 -1.245147e-06 -3.815459e-06
2.3412463e-06 6.277927e-06 -9.437548e-07 -3.01528e-06
00000000: 317f 1d35 a68b 2936 09d7 18b6 a66b 0034
00000010: 9c8e 0080 da1d ba36 ed1e a7b5 8b06 80b6
00000020: 4e1e 1d36 fba6 d236 5656 7db5 1e5a 4ab6

unit2.bn.weight f4 [12]
0.5765563 0.50668377 0.31496775 0.3999229 0.0001314656 0.45226362 0.6131319 0.3724468
0.31722584 0.87178683 0.37952417 0.42158335
00000000: 3299 133f 07b6 013f 7443 a13e b2c2 cc3e
00000010: 07da 0939 198f e73e 36f6 1c3f 59b1 be3e
00000020: 6d6b a23e 6c2d 5f3f fe50 c23e c6d9 d73e

unit2.bn.bias f4 [12]
-0.29192328 -0.19370642 -0.034963936 -0.1944591 -0.000619836 -0.31897 -0.22389898 -0.1645101
-0.09950133 -0.32982397 -0.29225552 -0.21874955
00000000: f876 95be fa5a 46be 5836 0fbd 4920 47be
00000010: 7d7c 22ba 0950 a3be c645 65be 5675 28be
00000020: 5ac7 cbbd b0de a8be 84a2 95be e2ff 5fbe

unit2.bn.running_mean f4 [12]
-0.51857513 -1.2149 -2.0254369 -0.9120924 -1.22108e-40 -0.82727 -1.2798002 -1.2262546
0.7726266 -1.6614503 0.110035926 -1.1865658
00000000: 57c1 04bf d881 9bbf c2a0 01c0 e37e 69bf
00000010: 6354 0180 f7c7 53bf 7ed0 a3bf e9f5 9cbf
00000020: dbca 453f 67aa d4bf 845a e13d 63e1 97bf

unit2.bn.running_var f4 [12]
1.6659931 1.86995 1.790379 2.4942734 6e-45 0.71092564 3.3652594 3.2223742
2.6691396 2.4052615 2.129043 2.3289537
00000000: 433f d53f 865a ef3f 242b e53f 2da2 1f40
00000010: 0400 0000 39ff 353f 6960 5740 613b 4e40
00000020: 2fd3 2a40 ceef 1940 3e42 0840 940d 1540

unit3.conv.weight f4 [12, 12, 5, 5]
-0.07320349 0.04468004 0.07206987 -0.2176247 -0.12969752 -0.049516473 0.10694887 0.09674747
-0.079663604 -0.078027554 -0.053107884 0.10968967 0.000508698 0.031140802 -0.039149612 0.010553052
0.060999963 0.045773465 0.06266078 0.0052225674 -0.06709395 0.027791154 -0.041813526 -0.08071113
-0.010474343 0.07084077 -0.005516039 0.009091384 -0.13486145 -0.16993494 0.059930135 -0.0780768
-0.10678466 -0.07496585 -0.15964161 0.04620336 -0.021869518 0.018095946 0.032519426 -0.0861719
0.03534617 -0.008310348 -0.022815952 0.03908024 -0.005592134 0.06023373 0.015071846 -0.064582
-0.0447558 -0.024321634 0.21293649 0.09912888 0.060162097 0.08613627 0.19663976 0.123157375
0.070974186 -0.0407637 -0.04857175 0.091599666 0.05354719 0.04575192 -0.07966005 -0.19449227
-0.0025423064 -0.027625972 0.03759117 -0.1556067 -0.14226402 -0.015621934 -0.029524134 0.023318512
-0.13711773 -0.04646796 0.104632065 0.05693428 0.0002953161 -0.012073958 -0.0057271314 -0.048431102
-0.0045171995 0.024882974 -0.022942472 0.018929204 -0.029024791 -0.20119362 -0.13698213 -0.008240013
-0.100318454 -0.11827474 -0.26548678 -0.22121927 -0.11656723 -0.15822904 -0.119752966 -0.1470889
-0.04677248 -0.030428877 -0.1156927 -0.14489911 -3.1106e-41 4.1298e-41 3.7298e-41 3.6816e-41
2.8012e-41 7.469e-42 4.9453e-41 1.5951e-41 -1.6597e-41 -2.8044e-41 2.0717e-41 2.909e-41
-1.9202e-41 -4.7842e-41 -2.515e-42 1.4414e-41 1.277e-42 1.886e-42 2.3752e-41 -3.8101e-41
2.6508e-41 -8.102e-42 6.46e-42 4.6694e-41 2.8657e-41 -0.26200512 -0.23291075 -0.0520474
-0.028475285 -0.08304357 -0.1158556 -0.19510229 -0.028557196 0.11399159 -0.008203385 -0.062979415
-0.14818327 0.018407587 0.029541044 0.009571172 -0.1322728 -0.03750424 0.0773952 0.036975943
-0.026031004 -0.08249461 -0.05223444 0.006948132 0.09799963 0.015667073 -0.006141359 -0.041901033
-0.095892094 -0.118024 -0.104552835 0.025653278 -0.009097579 -0.080542944 0.031103738 0.058414184
0.015818443 0.07506959 -0.011211502 0.085748136 0.12168272 -0.018952258 0.033562906 0.050846945
-0.017696677 0.07440989 -0.008233471 0.022642894 0.0006757324 -0.022950899 0.056947205 -0.15066163
-0.14202106 0.069961585 0.037820425 -0.10639092 -0.084689036 -0.13015397 0.0642002 0.112910494
-0.06792746 0.010016621 -0.07514689 0.15042193 0.28577533 0.02725443 -0.04871848 -0.14699772
0.118755735 0.2265858 0.0307412 -0.021424565 -0.12674257 0.07525839 0.2631369 0.06335694
-0.028184293 -0.054393027 -0.096292846 -0.13703403 -0.12730399 -0.0057162354 0.11139033 -0.030388232
0.06453741 -0.04172841 0.063652776 0.07833108 -0.03919754 0.13873848 -0.056163393 -0.00029418923
0.029838743 -0.053881638 -0.009646034 -0.08844293 -0.0245838 -0.042488504 -0.0077282432 0.06614446
-0.01691558 -0.10223154 0.011457354 0.18605657 0.052021123 0.10792333 -0.13365026 -0.060895294
0.25017902 0.26166463 0.08565942 -0.020099629 -0.12357055 0.039864004 0.26260087 0.015646724
0.07350721 -0.10975549 -0.033064187 0.15179582 -0.09898164 0.031127224 -0.101093344 0.017568534
0.015103415 -0.17586985 0.18206087 0.07312738 -0.084994815 -0.014825231 0.10535642 0.13564509
00000000: b6eb 95bd 6b02 373d 5e99 933d 02d9 5ebe
00000010: 6dcf 04be c9d1 4abd 0208 db3d 8a23 c63d
00000020: ac26 a3bd e9cc 9fbd a787 59bd faa4 e03d
00000030: 255a 053a ff1a ff3c 585b 20bd b5e6 2c3c
00000040: 19db 793d f57c 3b3d 4c54 803d 1222 ab3b
00000050: 8e68 89bd 46aa e33c a944 2bbd e04b a5bd
00000060: 949c 2bbc f714 913d e4bf b4bb 07f4 143c
00000070: 1f19 0abe 6d03 2ebe 4d79 753d bbe6 9fbd
00000080: eab1 dabd b287 99bd 1779 23be bc3f 3d3d
00000090: b427 b3bc f33d 943c 1733 053d e57a b0bd
000000a0: 25c7 103d 2028 08bc 85e8 babc 9a12 203d
000000b0: 383e b7bb a5b7 763d e7ef 763c 9143 84bd
000000c0: dc51 37bd 2a3e c7bc 060c 5a3e 1504 cb3d
000000d0: 886c 763d 3668 b03d ef5b 493e ef39 fc3d
000000e0: ea5a 913d d6f7 26bd 2cf3 46bd 9b98 bb3d
000000f0: 4c54 5b3d 5e66 3b3d cf24 a3bd fb28 47be
00000100: d39c 26bb dd4f e2bc 33f9 193d 5d57 1fbe
00000110: a9ad 11be 24f3 7fbc 99dc f1bc 7706 bf3c
00000120: 9768 0cbe 3055 3ebd 5649 d63d eb33 693d
00000130: a8d4 9a39 dad1 45bc a9aa bbbb b15f 46bd
00000140: 0405 94bb 61d7 cb3c daf1 bbbc 6b11 9b3c
00000150: 66c5 edbc b305 4ebe 0b45 0cbe 1f01 07bc
00000160: c373 cdbd 073a f2bd e2ed 87be 4e87 62be
00000170: cdba eebd cb06 22be 0b41 f5bd 799e 16be
00000180: 8094 3fbd fb45 f9bc 4bf0 ecbd 6f60 14be
00000190: b656 0080 1f73 0000 f967 0000 a166 0000
000001a0: 164e 0000 d214 0000 db89 0000 772c 0000
000001b0: 442e 0080 2d4e 0080 c039 0000 1751 0000
000001c0: 8735 0080 5d85 0080 0307 0080 2e28 0000
000001d0: 8f03 0000 4205 0000 3642 0000 366a 0080
000001e0: e549 0000 9616 0080 0212 0000 2a82 0000
000001f0: e24f 0000 8925 86be 2880 6ebe a82f 55bd
00000200: 0045 e9bc bf12 aabd b345 edbd e5c8 47be
00000210: c8f0 e9bc 6c74 e93d 7e67 06bc 5afb 80bd
00000220: 5bbd 17be 82cb 963c 0f00 f23c 68d0 1c3c
00000230: 8572 07be 0c9e 19bd 6081 9e3d 1674 173d
00000240: f93e d5bc eff2 a8bd c8f3 55bd 28ad e33b
00000250: 08b4 c83d 3c58 803c 743d c9bb 6ba0 2bbd
00000260: 1363 c4bd 91b6 f1bd cc1f d6bd d326 d23c
00000270: 030e 15bc b3f3 a4bd 44cd fe3c b643 6f3d
00000280: ae95 813c 16be 993d 73b0 37bc b89c af3d
00000290: ca34 f93d c441 9bbc 4279 093d e344 503d
000002a0: 9ff8 90bc 3664 983d aee5 06bc 977d b93c
000002b0: a223 313a 8603 bcbc 7941 693d 0b47 1abe
000002c0: f86d 11be 0548 8f3d 97e9 1a3d 7ce3 d9bd
000002d0: 7271 adbd 1547 05be 657b 833d 9e3d e73d
000002e0: 8d1d 8bbd c11c 243c 9de6 99bd 3508 1a3e
000002f0: 2551 923e af44 df3c 078d 47bd 9286 16be
00000300: 3536 f33d 1c06 683e f8d4 fb3c 9282 afbc
00000310: cec8 01be 1221 9a3d e1b9 863e 49c1 813d
00000320: bfe2 e6bc 39cb 5ebd 2f35 c5bd a652 0cbe
00000330: fa5b 02be 424f bbbb 9d20 e43d bef0 f8bc
00000340: 312c 843d 69eb 2abd 635c 823d 0c6c a03d
00000350: 9a8d 20bd 7611 0e3e 960b 66bd 693d 9ab9
00000360: 6170 f43c feb2 5cbd 660a 1ebc 9121 b5bd
00000370: f763 c9bc 6d08 2ebd 343d fdbb bf76 873d
00000380: 8b92 8abc c55e d1bd a0b7 3b3c 9d85 3e3e
00000390: 1a14 553d e806 dd3d 9ddb 08be 586d 79bd
000003a0: 7717 803e e8f8 853e 356e af3d faa7 a4bc
000003b0: 8e12 fdbd 7048 233d 9f73 863e 8f2d 803c
000003c0: f38a 963d 7dc7 e0bd 506e 07bd 5d70 1b3e
000003d0: e3b6 cabd 85fe fe3c 070a cfbd e3eb 8f3c
000003e0: 5074 773c 3a17 34be 2a6e 3a3e cfc3 953d
000003f0: c311 aebd 87e5 72bc 1bc5 d73d 8ce6 0a3e

unit3.conv.bias f4 [12]
-9.9823465e-06 -1.0722486e-06 5.512413e-06 3.4927298e-06 -2.7167903e-06 2.143511e-06 -6.0953914e-07 -6.5930208e-06
-4.280154e-06 -1.8062005e-06 -3.4552816e-06 8.58004e-06
00000000: da79 27b7 2eea 8fb5 44f7 b836 a464 6a36
00000010: 1a52 36b6 3dd9 0f36 369f 23b5 9e39 ddb6
00000020: 3e9e 8fb6 946c f2b5 49e1 67b6 fef2 0f37

unit3.bn.weight f4 [12]
0.6955722 0.48115113 0.43819904 0.566485 0.35884508 0.7749885 0.82101023 0.68778914
0.5812083 0.57937187 0.7283721 0.48982185
00000000: 0511 323f 7159 f63e a05b e03e 2905 113f
00000010: 8bba b73e a565 463f ba2d 523f f312 303f
00000020: 11ca 143f b751 143f 9876 3a3f eec9 fa3e

unit3.bn.bias f4 [12]
-0.17657058 -0.140963 -0.29454038 -0.06552098 -0.13010256 -0.21574637 -0.10499031 -0.09994787
-0.26479614 -0.0937948 0.025393771 -0.1336102
00000000: ebce 34be 9b58 10be ffcd 96be dd2f 86bd
00000010: 9b39 05be 9eec 5cbe 2905 d7bd 78b1 ccbd
00000020: 5c93 87be 7d17 c0bd 9906 d03c 1dd1 08be

unit3.bn.running_mean f4 [12]
-0.4015586 0.36545557 -0.30794558 -0.61285925 -0.67776847 0.23966673 -0.6362711 0.4282738
0.24769592 -0.13568814 -1.258172 -0.41974324
00000000: 1799 cdbe fe1c bb3e 0bab 9dbe 58e4 1cbf
00000010: 3c82 2dbf 326b 753e aae2 22bf b446 db3e
00000020: 00a4 7d3e d5f1 0abe c80b a1bf 96e8 d6be

unit3.bn.running_var f4 [12]
0.5040594 0.5822267 0.6868 0.6807276 0.7354938 0.6557183 0.8272823 0.5505673
0.31747976 0.40933385 0.94289106 0.46906105
00000000: 090a 013f cf0c 153f 20d2 2f3f 2a44 2e3f
00000010: 5249 3c3f 28dd 273f c6c8 533f fbf1 0c3f
00000020: b58c a23e 3594 d13e 4f61 713f c528 f03e

unit4.conv.weight f4 [12, 12, 5, 5]
-0.034435693 -0.18581794 -0.22524051 -0.19173011 -0.01162093 0.10627474 -0.0065698107 -0.090587266
-0.116976485 -0.015096595 0.14750232 0.12178904 0.08668813 -0.05686205 -0.048232887 0.22592962
0.23904662 0.1919552 -0.0013517562 -0.0069750305 0.08152609 0.12576742 0.11106764 -0.005836329
-0.07675536 0.061637502 0.10383794 0.09469803 0.1394004 0.054307953 0.078893006 0.003166138
0.07528654 0.081874125 0.08400196 -0.017098216 -0.13214123 -0.11115772 -0.0144068515 0.014229622
-0.06914452 -0.20599408 -0.18335916 -0.12369468 -0.009887836 -0.05464715 -0.13488626 -0.059150025
-0.10913686 0.0020646926 0.02927437 -0.033428114 -0.07910886 -0.12047795 -0.0826199 -0.018194815
-0.046472915 -0.12747125 -0.16795705 -0.16648066 0.05782531 -0.06559801 -0.08170848 -0.11762089
-0.15646386 0.026234113 -0.06723323 -0.0744739 -0.09668671 -0.10235315 0.042900126 -0.06265738
-0.16408011 -0.24225672 -0.17163782 0.005409196 0.08221524 0.03716418 0.1275977 0.1257958
-0.010316579 -0.03638523 -0.033805266 -0.0112304585 0.06463517 -0.0083048325 -0.10656903 -0.14699276
0.0004932146 0.017016502 -0.14797023 -0.14808574 -0.14882386 -0.08581559 -0.06267628 -0.19149604
-0.20529746 -0.15103287 -0.12187521 -0.113646165 0.019232798 0.00055689865 -0.074321695 -0.14191195
-0.20832716 -0.046015866 -0.07514598 -0.17195304 -0.29569283 -0.26229554 -0.12836199 -0.17105584
-0.2257771 -0.2662242 -0.26162246 -0.09799904 -0.11884536 -0.24933799 -0.2856734 -0.27387643
0.028105397 -0.10071112 -0.28525054 -0.32727474 -0.3048818 0.0006206945 -0.03383484 0.029606178
0.029857455 0.029111518 0.05228066 0.062236752 0.15834238 0.10827564 0.02816953 0.057541102
0.09017439 0.034680195 0.01169468 0.007409915 -0.008334676 -0.13144103 -0.047244404 -0.07763488
-0.07162444 -0.12720299 -0.16603361 -0.07947016 -0.12258315 -0.163818 -0.054657176 -0.039071616
-0.03800233 0.03142828 0.12926945 -0.04717907 -0.04804378 -0.09882089 -0.012395643 0.00018988126
0.046254575 -0.0029200555 0.07006509 0.041646 -0.00019034726 0.09574201 0.06435423 0.06688785
0.015055043 -0.04560564 0.05282269 -0.024191426 0.044188954 -0.05813867 -0.21974523 -0.082544535
-0.057098176 -0.10789104 -0.060681738 -0.066680945 0.039768036 0.05722492 -0.022079406 -0.13678102
-0.16016051 0.071160816 0.041251875 0.04331727 0.037668318 -0.057976026 0.060551446 0.078563586
0.123490416 0.057400268 -0.019331193 0.013005277 0.13738003 0.11356106 0.19415723 0.119321406
-0.095208935 -0.27094454 -0.24929339 -0.17412217 -0.07444573 -0.074290045 -0.17758459 -0.11091604
-0.08757816 -0.10532205 -0.061888557 -0.105799876 -0.063747175 0.023756359 -0.0285953 0.040432956
0.024548111 -0.022603445 -0.006805613 0.01898125 0.020068986 0.060008064 -0.025543801 -0.065103486
-0.041455377 0.075906366 -0.072462186 -0.03621625 -0.022537814 0.01653938 0.08238794 -0.022798998
-0.07431571 -0.033027634 -0.118818276 0.099717826 -0.009314508 -0.01528887 0.04648251 0.019480862
0.18132207 0.103213415 0.08264233 0.23095302 0.12343009 0.15608187 0.14030626 0.12685229
0.2492702 0.1624668 0.06257893 -0.039382398 -0.029295143 0.117319055 0.12277324 -0.104255706
00000000: 710c 0dbd 0f47 3ebe 73a5 66be e654 44be
00000010: b765 3ebc 92a6 d93d 9147 d7bb d185 b9bd
00000020: 5e91 efbd b557 77bc d90a 173e 886c f93d
00000030: 8c89 b13d 2ee8 68bd d98f 45bd 185a 673e
00000040: a3c8 743e e78f 443e 692d b1ba cc8e e4bb
00000050: 27f7 a63d 2dc9 003e 6e77 e33d ad3e bfbb
00000060: ea31 9dbd 9b77 7c3d fca8 d43d 0af1 c13d
00000070: fabe 0e3e 0472 5e3d a892 a13d fb7e 4f3b
00000080: d42f 9a3d 9fad a73d 3809 ac3d 8f11 8cbc
00000090: 0850 07be a9a6 e3bd b70a 6cbc 5c23 693c
000000a0: a49b 8dbd 1df0 52be 81c2 3bbe a353 fdbd
000000b0: 9700 22bc b1d5 5fbd a01f 0abe 4c47 72bd
000000c0: 2583 dfbd cb4f 073b ced0 ef3c ebeb 08bd
000000d0: d303 a2bd 25bd f6bd 9f34 a9bd 4b0d 95bc
000000e0: 625a 3ebd d387 02be effc 2bbe e879 2abe
000000f0: 3bda 6c3d 4058 86bd c756 a7bd 39e3 f0bd
00000100: 1038 20be ece8 d63c 93b1 89bd c685 98bd
00000110: af03 c6bd 879e d1bd 0bb8 2f3d 8352 80bd
00000120: 9e04 28be 2512 78be d3c1 2fbe a03f b13b
00000130: 7760 a83d 7839 183d f9a8 023e 9dd0 003e
00000140: de06 29bc ae08 15bd 6477 0abd f5ff 37bc
00000150: 725f 843d fe10 08bc dd40 dabd 4585 16be
00000160: 124b 013a 3166 8b3c 8285 17be caa3 17be
00000170: 4865 18be 16c0 afbd 6c5c 80bd 8a17 44be
00000180: 7f39 52be 5ca8 1abe b699 f9bd 52bf e8bd
00000190: 1a8e 9d3c d6fc 113a f935 98bd 5e51 11be
000001a0: b753 55be 227b 3cbd 23e6 99bd 7514 30be
000001b0: 0d65 97be 9a4b 86be 5371 03be 4329 2fbe
000001c0: 1d32 67be 8a4e 88be 61f3 85be b8b3 c8bd
000001d0: 3265 f3bd 7552 7fbe c943 92be 8839 8cbe
000001e0: 4a3d e63c a241 cebd 5c0c 92be 8e90 a7be
000001f0: 7819 9cbe 1ab6 223a 6796 0abd a888 f23c
00000200: 9f97 f43c 477b ee3c 3f24 563d f7eb 7e3d
00000210: 8124 223e 9ebf dd3d c9c3 e63c 38b0 6b3d
00000220: 5aad b83d d20c 0e3d 0b9b 3f3c dfce f23b
00000230: 2a8e 08bc 7a98 06be 5983 41bd 09ff 9ebd
00000240: d6af 92bd 8041 02be b704 2abe 40c1 a2bd
00000250: e00c fbbd e8bf 27be 34e0 5fbd 8f09 20bd
00000260: 55a8 1bbd f1ba 003d 365f 043e d73e 41bd
00000270: 8ec9 44bd 9b62 cabd 1817 4bbc dd1a 4739
00000280: 7075 3d3d 675e 3fbb 497e 8f3d ff94 2a3d
00000290: f497 47b9 6314 c43d 27cc 833d 7ffc 883d
000002a0: 6da9 763c fbcc 3abd 9b5c 583d 192d c6bc
000002b0: 7aff 343d d022 6ebd e504 61be 1c0d a9bd
000002c0: c7df 69bd faf5 dcbd 6a8d 78bd 0590 88bd
000002d0: cfe3 223d ad64 6a3d dfdf b4bc 5310 0cbe
000002e0: 1e01 24be c3bc 913d baf7 283d 736d 313d
000002f0: 184a 1a3d 4578 6dbd cb04 783d f2e5 a03d
00000300: 8be8 fc3d 8b1c 6b3d 735c 9ebc 1614 553c
00000310: 5aad 0c3e b392 e83d 27d1 463e c85e f43d
00000320: e7fc c2bd 3eb9 8abe c446 7fbe 154d 32be
00000330: 0177 98bd 6125 98bd bcd8 35be f327 e3bd
00000340: 2e5c b3bd 16b3 d7bd db7e 7dbd 9bad d8bd
00000350: e18d 82bd b29c c23c b140 eabc 079d 253d
00000360: 1f19 c93c dc2a b9bc 9f01 dfbb 917e 9b3c
00000370: b767 a43c 04cb 753d 3c41 d1bc fa54 85bd
00000380: 1dcd 29bd cc74 9b3d 0e67 94bd 7e57 14bd
00000390: 39a1 b8bc 987d 873c 02bb a83d f7c4 babc
000003a0: d632 98bd fc47 07bd ff56 f3bd dc38 cc3d
000003b0: e19b 18bc 2b7e 7abc 7264 3e3d 5496 9f3c
000003c0: 7eac 393e 8e61 d33d 6240 a93d f37e 6c3e
000003d0: eac8 fc3d edd3 1f3e 72ac 0f3e 91e5 013e
000003e0: b040 7f3e b25d 263e 6229 803d 704f 21bd
000003f0: 5efc efbc f944 f03d 8970 fb3d 0484 d5bd

unit4.conv.bias f4 [12]
5.899939e-06 -6.5829886e-06 -4.307224e-06 -5.3840594e-08 5.889565e-07 -2.1034007e-06 -7.073282e-07 -1.0032813e-06
-2.8508606e-07 -1.670879e-07 6.321701e-07 1.1462796e-06
00000000: 17f8 c536 71e3 dcb6 c686 90b6 5c3e 67b3
00000010: c818 1e35 2628 0db6 39df 3db5 7ca8 86b5
00000020: ee0d 99b4 c668 33b4 66b2 2935 ded9 9935

unit4.bn.weight f4 [12]
1.1146109 0.6124714 1.0087653 0.69070774 0.8860042 0.54033536 0.7087954 0.70613444
0.8404769 0.46458778 0.5477309 0.795821
00000000: 92ab 8e3f edca 1c3f 391f 813f 39d2 303f
00000010: 2cd1 623f 6b53 0a3f 9e73 353f 3ac5 343f
00000020: 7e29 573f 73de ed3e 1838 0c3f edba 4b3f

unit4.bn.bias f4 [12]
0.010825365 0.16186534 -0.04623002 -0.06681659 -0.15204802 0.017137123 0.06219955 -0.12492894
-0.11153043 -0.052038457 0.05352742 -0.040115405
00000000: df5c 313c 07c0 253e b05b 3dbd 23d7 88bd
00000010: 7ab2 1bbe 2763 8c3c f5c4 7e3d beda ffbd
00000020: 116a e4bd 4726 55bd 913f 5b3d 0d50 24bd

unit4.bn.running_mean f4 [12]
-0.6857901 -1.5178771 -0.118331686 -0.47226676 -0.59888864 -1.0654484 1.2519575 -0.29495767
-0.56769294 -0.73372 -0.33227935 -1.1136289
00000000: f18f 2fbf cc49 c2bf e257 f2bd f3cc f1be
00000010: c450 19bf 9d60 88bf 2540 a03f b104 97be
00000020: 5354 11bf 13d5 3bbf 8520 aabe 648b 8ebf

unit4.bn.running_var f4 [12]
0.88201076 1.1795425 0.9927128 1.0638691 0.7915892 0.9355777 1.1023437 0.7790499
0.94977015 0.9886559 1.3122382 1.4170707
00000000: 75cb 613f 40fb 963f 6d22 7e3f dd2c 883f
00000010: 97a5 4a3f 0582 6f3f 9919 8d3f d06f 473f
00000020: 2324 733f 8e18 7d3f 6cf7 a73f 9362 b53f

net.0.conv.weight f4 [12, 3, 5, 5]
-0.087938994 0.00014058682 0.08108528 0.006822808 0.05213748 0.18048258 0.0071297702 -0.023671577
0.16466103 0.10101867 0.10494606 0.18621276 0.19943295 0.13710018 -0.027392594 0.1305244
0.052807737 0.23543495 0.12748787 0.04656944 0.1404476 0.0025869752 0.0050382833 0.08950461
0.035791125 -0.08069535 -0.11141987 -0.10479405 -0.20587184 -0.09749005 -0.0089620445 -0.1265304
-0.27624425 -0.091092065 0.022722948 -0.0749706 -0.046134133 -0.23769765 -0.22219594 -0.1933336
-0.19169602 -0.11278343 0.0104399575 -0.13316824 -0.20900534 -0.1514019 -0.12304832 -0.15447417
-0.20220238 -0.07165931 -0.06121292 0.045456693 -0.07240741 0.06316682 0.1046551 0.17416635
0.069027215 -0.0468505 -0.05423154 -0.016522245 0.20917489 0.17782322 0.07194496 -0.029325673
-0.062474582 0.12083587 0.12878148 0.18332094 -0.060929522 0.04663418 0.0148274135 0.075701706
0.15074302 -0.045180805 0.17009959 0.0323037 0.081540816 0.14901637 0.049334213 -0.022547308
0.0990722 0.014704469 0.048235934 0.065962285 0.17382203 -0.041236054 -0.011984517 0.011663861
0.40148628 0.46635404 -0.047410548 -0.014759284 0.23765695 0.08983347 0.13094078 0.012803548
0.011096402 0.11247823 -0.05461974 0.06751134 -0.19457039 -0.032900088 -0.035868723 -0.031488474
-0.057157263 -0.061013218 -0.09414769 -0.16318856 -0.043012653 -0.03290079 -0.102346286 -0.19696546
-0.14080724 0.12634914 0.113756105 -0.19782777 -0.07009422 0.07057639 -0.09886582 -0.09973844
-0.08971538 -0.007839147 -0.14139357 -0.06467341 -0.037297133 -0.056845274 -0.08065767 -0.037974834
0.05225414 0.1542467 0.06791834 -0.014960875 -0.09385269 0.104876615 0.2134161 -0.09457313
0.02620002 -0.094358675 0.1699568 0.072056875 0.03768004 -0.104147755 0.09091737 0.0035910509
0.15155166 -0.06168432 0.108840965 -0.008334973 0.08948901 0.11057033 -0.099130966 -0.05139543
-0.09317721 -0.11273647 0.14365996 -0.14505571 -0.34450078 -0.06865901 0.23011449 -0.09183348
0.10494351 0.00056956644 0.16450909 0.063957445 0.12604924 0.0839166 0.27891847 -0.0585504
-0.004292409 -0.03126791 0.109947786 0.044885427 -0.0076367506 0.030708676 -0.07745685 -0.06443403
-0.01810003 -0.05441347 0.039771445 0.13740402 -0.17773326 -0.35473776 -0.15841635 0.21168706
-0.07905248 0.18280643 -0.28032368 -0.018704092 0.14763784 -0.095862344 0.07184875 0.14353055
0.042227175 -0.042340804 -0.03740581 -0.014353971 0.013167957 0.06532857 -0.083655335 0.039732758
0.039796073 -0.0371173 0.17687449 0.0408264 0.0800518 0.0862161 -0.2429291 -0.029772315
0.2737663 0.030386962 0.07044731 -0.18572894 0.10273432 0.11099968 0.009819232 0.0014576381
0.12065216 0.022852693 0.046128433 -0.05717661 -0.0062406096 -0.047203444 -0.21165057 0.06954675
-0.097647235 -0.08620488 0.12025162 0.14397353 -0.03500714 0.16403328 0.0016083859 0.09044652
0.114586204 0.05875358 0.020680914 -0.041150633 0.16888772 0.27624452 -0.16845377 -0.05765376
0.0009035545 -0.08445659 -0.2867822 -0.0013467062 0.03358845 -0.0043383553 0.00027803538 -0.085019015
-0.10112011 -0.16813783 -0.014694651 -0.10628025 -0.03683038 -0.03483035 0.14368966 -0.00063024723
00000000: 5c19 b4bd 7d6a 1339 0a10 a63d dd91 df3b
00000010: 1c8e 553d 6dd0 383e d9a0 e93b e5ea c1bc
00000020: e79c 283e e0e2 ce3d f6ed d63d 8fae 3e3e
00000030: 2738 4c3e fd63 0c3e 6f66 e0bc 30a8 053e
00000040: ed4c 583d dc15 713e 2e8c 023e 99bf 3e3d
00000050: 7fd1 0f3e 3e8a 293b 2f18 a53b 314e b73d
00000060: b799 123d 9b43 a5bd 1a30 e4bd 439e d6bd
00000070: 11d0 52be dda8 c7bd 8ad5 12bc 2f91 01be
00000080: e36f 8dbe 7a8e babd 7a25 ba3c 308a 99bd
00000090: 25f7 3cbd 0367 73be 5587 63be 3ef9 45be
000000a0: f64b 44be 00fb e6bd 5b0c 2b3c 415d 08be
000000b0: 7f05 56be 1a09 1bbe c200 fcbd 7a2e 1ebe
000000c0: 240e 4fbe 1ec2 92bd 66ba 7abd cc30 3a3d
000000d0: 564a 94bd 9b5d 813d 6a55 d63d aa58 323e
000000e0: 245e 8d3d 4fe6 3fbd e421 5ebd a959 87bc
000000f0: f131 563e 4a17 363e e157 933d 653c f0bc
00000100: 59e5 7fbd cc78 f73d 4bdf 033e 7cb8 3b3e
00000110: 3c91 79bd 7b03 3f3d aeee 723c 7f09 9b3d
00000120: 615c 1a3e 820f 39bd 962e 2e3e e250 043d
00000130: dffe a63d bf97 183e ac12 4a3d 22b5 b8bc
00000140: 5ee6 ca3d 03eb 703c 0b93 453d 3c17 873d
00000150: 67fe 313e 23e7 28bd b55a 44bc c719 3f3c
00000160: 9c8f cd3e f5c5 ee3e 9031 42bd edd0 71bc
00000170: 585c 733e 9cfa b73d 5715 063e f9c5 513c
00000180: afcd 353c fc5a e63d f3b8 5fbd 6343 8a3d
00000190: 763d 47be 3ec2 06bd 15eb 12bd 0ffa 00bd
000001a0: bc1d 6abd ffe8 79bd 81d0 c0bd e71a 27be
000001b0: 092e 30bd fbc2 06bd ee9a d1bd 50b1 49be
000001c0: c62f 10be ab61 013e f6f8 e83d 5d93 4abe
000001d0: 8f8d 8fbd 5b8a 903d 2a7a cabd ab43 ccbd
000001e0: b2bc b7bd c46f 00bc 7ac9 10be 7e73 84bd
000001f0: e1c4 18bd 97d6 68bd d92f a5bd 808b 1bbd
00000200: 7008 563d d9f2 1d3e c518 8b3d 751e 75bc
00000210: d735 c0bd 8dc9 d63d c089 5a3e 8faf c1bd
00000220: 6da1 d63c 1f3f c1bd 2809 2e3e 8e92 933d
00000230: 6356 1a3d 6b4b d5bd e332 ba3d d657 6b3b
00000240: 5c30 1b3e b3a8 7cbd 03e8 de3d 698f 08bc
00000250: 0446 b73d b272 e23d 2d05 cbbd 0484 52bd
00000260: b1d3 bebd 61e2 e6bd 991b 133e 7c89 14be
00000270: 6862 b0be 189d 8cbd 22a3 6b3e 3113 bcbd
00000280: 9fec d63d f54e 153a 1275 283e 1ffc 823d
00000290: 0d13 013e 77dc ab3d 67ce 8e3e 8bd2 6fbd
000002a0: 56a7 8cbb c812 00bd 4e2c e13d c8d9 373d
000002b0: b53d fabb c390 fb3c b2a1 9ebd fdf5 83bd
000002c0: 8446 94bc a9e0 5ebd 62e7 223d a4b3 0c3e
000002d0: b5ff 35be 30a0 b5be e537 22be 7ec4 583e
000002e0: 44e6 a1bd 9c31 3b3e 9686 8fbe 5339 99bc
000002f0: 602e 173e 7a53 c4bd 7025 933d acf9 123e
00000300: 67f6 2c3d 8d6d 2dbd d636 19bd eb2c 6bbc
00000310: 6abe 573c fcca 853d 7d53 abbd d1be 223d
00000320: 3501 233d 4f08 18bd 961e 353e 9539 273d
00000330: 33f2 a33d 1192 b03d 68c2 78be 12e5 f3bc
00000340: 192b 8c3e 14ee f83c ae46 903d ba2f 3ebe
00000350: 5f66 d23d cd53 e33d d8e0 203c 380e bf3a
00000360: 7b18 f73d 9235 bb3c 2bf1 3c3d 0532 6abd
00000370: 077e ccbb 6658 41bd edba 58be 876e 8e3d
00000380: 46fb c7bd 2f8c b0bd 7b46 f63d cc6d 133e
00000390: a663 0fbd 57f8 273e 7ad0 d23a 063c b93d
000003a0: 2cac ea3d 98a7 703d 056b a93c 918d 28bd
000003b0: e7f0 2c3e ec6f 8d3e 257f 2cbe 5926 6cbd
000003c0: 84dc 6c3a 94f7 acbd 1ed5 92be f683 b0ba
000003d0: 0b94 093d c328 8ebb 47c5 9139 731e aebd
000003e0: 0f18 cfbd 532c 2cbe d5c1 70bc 76a9 d9bd
000003f0: 74db 16bd 45aa 0ebd 6223 133e 2d37 25ba

net.0.conv.bias f4 [12]
-3.082697e-05 4.7545477e-06 -1.4037341e-05 -4.6844274e-05 2.0992591e-05 -6.7969995e-06 -2.2137794e-05 2.64858e-05
-1.713733e-05 -2.2534208e-07 -1.5071011e-05 1.5234166e-05
00000000: 354c 01b8 4189 9f36 ec81 6bb7 a87a 44b8
00000010: 3f19 b037 c811 e4b6 8db4 b9b7 d32d de37
00000020: 23c2 8fb7 8ff5 71b4 80d9 7cb7 3f96 7f37

net.0.bn.weight f4 [12]
0.25832096 0.6280851 0.7274654 0.92733675 0.6381932 0.2315916 0.36935237 0.4992116
0.6309124 0.56064975 0.6097066 0.40029472
00000000: a542 843e 2fca 203f 2c3b 3a3f f165 6d3f
00000010: a160 233f 5926 6d3e c11b bd3e aa98 ff3e
00000020: 7a83 213f be86 0f3f bb15 1c3f 6ef3 cc3e

net.0.bn.bias f4 [12]
-0.007626622 -0.074384786 0.39539713 0.7277758 -0.12029384 0.01617099 0.067603424 0.02003587
0.31736332 -0.1342836 0.21263793 -0.14915118
00000000: bee8 f9bb 0d57 98bd 7e71 ca3e 844f 3a3f
00000010: 9e5c f6bd 0679 843c aa73 8a3d 4422 a43c
00000020: 727d a23e a481 09be c2bd 593e 16bb 18be

net.0.bn.running_mean f4 [12]
0.045768976 0.5175359 0.0637708 0.03986506 -0.32185155 -0.27578986 0.3300375 0.044112265
-0.051696412 -0.4671766 -0.07625813 -0.13211288
00000000: 4078 3b3d 3c7d 043f 449a 823d 8c49 233d
00000010: bac9 a4be 5434 8dbe adfa a83e 10af 343d
00000020: 9ebf 53bd c531 efbe 392d 9cbd 9948 07be

net.0.bn.running_var f4 [12]
0.058438625 0.21751563 0.062344138 0.019972026 0.10379544 0.11459957 0.23291966 0.07756727
0.053782333 0.26101175 0.07917348 0.052323435
00000000: 575d 6f3d 6bbc 5e3e 915c 7f3d 609c a33c
00000010: b492 d43d 2eb3 ea3d 7e82 6e3e 97db 9e3d
00000020: dd4a 5c3d 55a3 853e b525 a23d 1951 563d

net.1.conv.weight f4 [12, 12, 5, 5]
-0.035711616 0.010951805 0.15154071 0.014099251 -0.09069517 0.046462923 0.058231235 0.09872255
0.013662104 -0.04412615 0.10278323 0.1693896 0.103871986 0.019377977 -0.021081852 0.13953695
0.09347275 0.041525606 0.11307064 0.0347591 0.21325733 0.13630167 0.080224596 0.13285527
0.08053705 0.08818774 -0.08778479 -0.064729415 -0.038156338 0.014108092 0.04706568 -0.06965903
-0.09259093 -0.029545154 0.03308868 -0.058949158 -0.08898732 -0.103899285 0.08370145 0.12722155
-0.10127637 -0.025439125 -0.013056561 0.13171116 0.09001767 -0.10455581 -0.068646565 0.04291129
0.027841141 -0.0074327723 0.049434457 0.13094059 0.064174235 -0.054361343 -0.018393125 0.07744558
0.12490926 -0.1239618 -0.27759036 0.0005832737 0.09832556 0.099922836 -0.15131567 -0.3048452
0.12353626 -0.079240635 0.029476577 -0.13825412 -0.081470735 0.27659902 -0.00415852 -0.047156774
-0.009942228 0.096050315 0.15941074 -0.13474074 -0.10908767 -0.10755516 0.1262971 0.0031559689
0.030269887 -0.19759439 0.0030069898 0.3147454 -0.08984 0.04289862 -0.19909258 0.18562357
0.2845782 -0.21733978 0.07691689 -0.13072726 0.18839629 -0.0013551598 -0.1870284 0.014302437
-0.1301367 -0.006850923 -0.0093267895 -0.041662205 -0.18509336 -0.09856643 -0.11853375 0.009049307
-0.01554331 -0.081285 -0.020708395 -0.015014924 0.15387797 0.041240767 0.062135886 -0.038042936
0.00023055912 0.12450612 0.087458014 -0.020819817 -0.06740877 0.019368054 0.035604596 -0.0010658647
0.04350486 0.040635433 0.054949734 0.07187975 0.07426248 -0.111582115 -0.10927647 -0.116525225
-0.11490789 -0.046866607 -0.07782191 -0.080691025 -0.100608386 -0.051943857 0.08926206 -0.0285868
-0.07741319 -0.09971351 0.08122482 0.20045418 -0.009012277 -0.10447035 0.005392579 0.17639437
0.13269623 -0.02751905 -0.03450356 0.092500255 0.15248035 0.055613056 0.10782985 0.053184114
0.07225553 0.10269959 -0.024993103 0.09945627 0.061087947 -0.030244997 -0.0253882 -0.09034399
0.074696824 0.03817902 -0.06590251 -0.06746387 -0.012738109 0.028995719 -0.050441176 -0.020457735
0.031006891 -0.025349211 -0.014277879 -0.039468776 0.031311214 0.092518725 -0.05564982 0.021181522
-0.071665734 -0.20881598 -0.04994342 0.03184438 -0.0039599626 -0.13837351 -0.21856672 0.052355282
0.015639197 0.08497948 -0.038341135 -0.037414227 0.18297517 -0.09770198 0.1026687 -0.03779288
-0.034800235 -0.04560298 -0.1756503 0.0888819 0.07611927 0.017197568 -0.06073427 -0.11329447
-0.13580021 -0.08975753 -0.06937871 0.21386606 0.14655061 -0.079038784 -0.050264347 -0.09465205
0.2202259 0.09978071 -0.050699577 0.024282847 -0.12308901 0.091279835 0.07949997 -0.007003325
-0.090968736 -0.2083401 0.012057 -0.019818133 0.044201758 0.0016324754 -0.07856778 -0.060961988
-0.07478743 -0.0957653 -0.05294934 -0.009694412 -0.11798761 -0.12351632 -0.14010984 -0.062817894
-0.037188333 -0.19085647 -0.074687354 -0.049190998 -0.06796754 0.07181848 -0.0034420046 0.007892457
-0.07083941 -0.04369887 0.03651219 0.024733959 0.039479963 -0.08330438 0.02552115 -0.038669363
-0.031058379 0.012425891 0.009002096 -0.011677974 -0.12851267 -0.018743342 0.106956236 0.043987416
00000000: 5846 12bd 336f 333c 7d2d 1b3e 8b00 673c
00000010: 64be b9bd e84f 3e3d e083 6e3d 0c2f ca3d
00000020: 04d7 5f3c 9fbd 34bd 0480 d23d 7874 2d3e
00000030: d6ba d43d 90be 9e3c d9b3 acbc c6e2 0e3e
00000040: a46e bf3d c116 2a3d 9491 e73d 8f5f 0e3d
00000050: 2160 5a3e aa92 0b3e cb4c a43d 360b 083e
00000060: 9cf0 a43d c69b b43d 83c8 b3bd db90 84bd
00000070: d249 1cbd a025 673c f1c7 403d 65a9 8ebd
00000080: 50a0 bdbd ae08 f2bc ff87 073d ac74 71bd
00000090: fc3e b6bd 26c9 d4bd aa6b ab3d 5e46 023e
000000a0: fc69 cfbd b665 d0bc 30eb 55bc 4adf 063e
000000b0: 2f5b b83d 5b21 d6bd 9296 8cbd c0c3 2f3d
000000c0: 1b13 e43c 9d8e f3bb c97b 4a3d 4a15 063e
000000d0: c86d 833d 00aa 5ebd 2ead 96bc ca9b 9e3d
000000e0: 6dd0 ff3d afdf fdbd 5320 8ebe d6e6 183a
000000f0: e95e c93d 58a4 cc3d 7ff2 1abe ac14 9cbe
00000100: 9400 fd3d ea48 a2bd dd78 f13c 7d92 0dbe
00000110: 21da a6bd 639e 8d3e 3244 88bb 7627 41bd
00000120: bae4 22bc 07b6 c43d 923c 233e 7af9 09be
00000130: 5b69 dfbd e145 dcbd 0754 013e 5fd4 4e3b
00000140: 8ef8 f73c 2f56 4abe eb10 453b 4f26 a13e
00000150: 09fe b7bd 77b6 2f3d edde 4bbe 1b14 3e3e
00000160: 3cb4 913e 528e 5ebe 9a86 9d3d 5edd 05be
00000170: f5ea 403e 9e9f b1ba 5f84 3fbe c554 6a3c
00000180: 8e42 05be b57d e0bb 64cf 18bc fda5 2abd
00000190: 1d89 3dbe 32dd c9bd d3c1 f2bd 8b43 143c
000001a0: 5ea9 7ebc c078 a6bd a7a4 a9bc 2801 76bc
000001b0: 3092 1d3e 14ec 283d 3382 7e3d e9d2 1bbd
000001c0: 3ec2 7139 11fd fe3d 301d b33d 528e aabc
000001d0: 9c0d 8abd c1a9 9e3c 20d6 113d 7cb4 8bba
000001e0: 2732 323d 5771 263d f912 613d b135 933d
000001f0: ed16 983d 2a85 e4bd 58cc dfbd c7a4 eebd
00000200: d454 ebbd 33f7 3fbd 1861 9fbd 5641 a5bd
00000210: c50b cebd 15c3 54bd 07cf b63d dd2e eabc
00000220: ce8a 9ebd 9936 ccbd 3359 a63d dc43 4d3e
00000230: 3ba8 13bc 8df4 d5bd 3bb4 b03b baa0 343e
00000240: 85e1 073e a16f e1bc 9b53 0dbd c670 bd3d
00000250: cf23 1c3e 84ca 633d e5d5 dc3d 96d7 593d
00000260: b5fa 933d 2a54 d23d 56be ccbc bbaf cb3d
00000270: 5b37 7a3d 5bc4 f7bc eafa cfbc 4506 b9bd
00000280: a6fa 983d 9b61 1c3d e5f7 86bd 7f2a 8abd
00000290: 80b3 50bc 6e88 ed3c 689b 4ebd fb96 a7bc
000002a0: 2a02 fe3c 26a9 cfbc c4ed 69bc 03aa 21bd
000002b0: 3040 003d 757a bd3d 11f1 63bd df84 ad3c
000002c0: 7cc5 92bd dbd3 55be 7991 4cbd 416f 023d
000002d0: 93c2 81bb c9b1 0dbe f4cf 5fbe 7e72 563d
000002e0: c61d 803c b909 ae3d 980b 1dbd a93f 19bd
000002f0: d85d 3b3e fa17 c8bd f843 d23d b5cc 1abd
00000300: b18a 0ebd 31ca 3abd acdd 33be b707 b63d
00000310: 6be4 9b3d eae1 8c3c 7fc4 78bd ee06 e8bd
00000320: 360f 0bbe ccd2 b7bd 6d16 8ebd b4ff 5a3e
00000330: 5d11 163e 16df a1bd fde1 4dbd efd8 c1bd
00000340: e682 613e d459 cc3d 5caa 4fbd d2ec c63c
00000350: 1716 fcbd ecf0 ba3d e1d0 a23d 267c e5bb
00000360: d14d babd 1b57 55be b98a 453c a359 a2bc
00000370: e70c 353d c9f8 d53a 25e8 a0bd 47b3 79bd
00000380: 272a 99bd 9920 c4bd 68e1 58bd 50d5 1ebc
00000390: 7da3 f1bd 20f6 fcbd f478 0fbe aba6 80bd
000003a0: cb52 18bd e16f 43be aff5 98bd 807c 49bd
000003b0: 9132 8bbd 9115 933d 4193 61bb 5d4f 013c
000003c0: 4114 91bd 96fd 32bd ce8d 153d df9e ca3c
000003d0: beb5 213d 7d9b aabd bb11 d13c c463 1ebd
000003e0: 246e febc f795 4b3c 877d 133c f954 3fbc
000003f0: d398 03be a38b 99bc df0b db3d 262c 343d

net.1.conv.bias f4 [12]
5.8672146e-07 2.5264249e-06 -2.2774932e-06 1.1960091e-07 -5.1159e-41 5.546707e-06 -1.245147e-06 -3.815459e-06
2.3412463e-06 6.277927e-06 -9.437548e-07 -3.01528e-06
00000000: 317f 1d35 a68b 2936 09d7 18b6 a66b 0034
00000010: 9c8e 0080 da1d ba36 ed1e a7b5 8b06 80b6
00000020: 4e1e 1d36 fba6 d236 5656 7db5 1e5a 4ab6

net.1.bn.weight f4 [12]
0.5765563 0.50668377 0.31496775 0.3999229 0.0001314656 0.45226362 0.6131319 0.3724468
0.31722584 0.87178683 0.37952417 0.42158335
00000000: 3299 133f 07b6 013f 7443 a13e b2c2 cc3e
00000010: 07da 0939 198f e73e 36f6 1c3f 59b1 be3e
00000020: 6d6b a23e 6c2d 5f3f fe50 c23e c6d9 d73e

net.1.bn.bias f4 [12]
-0.29192328 -0.19370642 -0.034963936 -0.1944591 -0.000619836 -0.31897 -0.22389898 -0.1645101
-0.09950133 -0.32982397 -0.29225552 -0.21874955
00000000: f876 95be fa5a 46be 5836 0fbd 4920 47be
00000010: 7d7c 22ba 0950 a3be c645 65be 5675 28be
00000020: 5ac7 cbbd b0de a8be 84a2 95be e2ff 5fbe

net.1.bn.running_mean f4 [12]
-0.51857513 -1.2149 -2.0254369 -0.9120924 -1.22108e-40 -0.82727 -1.2798002 -1.2262546
0.7726266 -1.6614503 0.110035926 -1.1865658
00000000: 57c1 04bf d881 9bbf c2a0 01c0 e37e 69bf
00000010: 6354 0180 f7c7 53bf 7ed0 a3bf e9f5 9cbf
00000020: dbca 453f 67aa d4bf 845a e13d 63e1 97bf

net.1.bn.running_var f4 [12]
1.6659931 1.86995 1.790379 2.4942734 6e-45 0.71092564 3.3652594 3.2223742
2.6691396 2.4052615 2.129043 2.3289537
00000000: 433f d53f 865a ef3f 242b e53f 2da2 1f40
00000010: 0400 0000 39ff 353f 6960 5740 613b 4e40
00000020: 2fd3 2a40 ceef 1940 3e42 0840 940d 1540
